LSTM_spread_forecasting/models/CNN_LSTM_AMZN_DPZ.pth (torch, 76722 bytes, 13 tensors)

weight f4 [4, 1, 3]
0	0x3eb6650e	0.35623974
1	0xbeb5458c	-0.35404623
2	0xbe8416d5	-0.2579867
3	0xbe22b0e0	-0.15887785
4	0xbe73d7cc	-0.23812789
5	0xbecbd1c5	-0.3980848
6	0x3e2181c5	0.1577216
7	0x3ef83217	0.48475716
8	0xbe523412	-0.20527676
9	0x3f0a1cc4	0.5395014
10	0x3d79aac3	0.060953867
11	0x3ef15a91	0.4713941

bias f4 [4]
0	0x3e8c4d90	0.27402925
1	0x3edf257f	0.43583295
2	0xbf04b21f	-0.5183429
3	0xbeddf996	-0.4335448

weight f4 [8, 4, 3]
0	0x3e64adfa	0.22331992
1	0x3ed9653d	0.4246005
2	0x3e9a82c3	0.30177888
3	0xbe0fb39f	-0.14033364
4	0x3dc12722	0.09431292
5	0x3df72b5f	0.12068819
6	0xbd8b0883	-0.06788733
7	0x3dafc7cf	0.08583032
8	0xbe35ad3e	-0.17741868
9	0xbe096d4d	-0.13420601
10	0xbc5e7923	-0.013578686
11	0xbd3727b3	-0.044715595
12	0xbe23c68e	-0.15993711
13	0xbcc39e5e	-0.023879226
14	0x3e719d96	0.2359527
15	0x3e5016b4	0.2032116
16	0x3ebc08bb	0.3672541
17	0x3c60ca0c	0.013720047
18	0xbcdedfb3	-0.027206277
19	0xbea6bed4	-0.32567465
20	0xbe990684	-0.29887784
21	0x3df575df	0.11985373
22	0xbe3f630b	-0.18690126
23	0xbe26e086	-0.16296586
24	0x3d50f391	0.051013533
25	0x3d8462af	0.06464135
26	0xbe6924f3	-0.22768001
27	0xbe596c2f	-0.21232675
28	0x3dae4ba0	0.08510518
29	0xbe0d23a3	-0.13783126
30	0xbe50372f	-0.20333551
31	0x3daf239b	0.08551713
32	0x3e0fb0b2	0.14032248
33	0xbde2180b	-0.11039742
34	0x3e7dc938	0.2478379
35	0x3ec32002	0.38110358
36	0x3e66d674	0.22542745
37	0x3ecd17ea	0.40057307
38	0xbce275c0	-0.027644038
39	0x3e1e00e2	0.15430024
40	0x3e7ac5d0	0.24489522
41	0xbb8cca87	-0.004296604
42	0xbe274266	-0.16333923
43	0xbed36347	-0.4128668
44	0xbb869f9f	-0.004108384
45	0x3e17c2e1	0.14820434
46	0x3d5a5bba	0.053310134
47	0xbebe1c04	-0.3713075
48	0x3e21b4d9	0.15791644
49	0xbec3d3ac	-0.3824743
50	0xbedd046a	-0.4316743
51	0x3caf7364	0.021417327
52	0xbe48462a	-0.19558015
53	0x3d04e63e	0.03244614
54	0x3de6865e	0.11256097
55	0x3d3dc7f4	0.04633327
56	0x3cb3dea3	0.021956747
57	0x3e6d423b	0.23169796
58	0x3e5adbd6	0.21372923
59	0x3e84dae7	0.2594826
60	0x3ea72fe0	0.32653713
61	0x3e32c03d	0.17456146
62	0x3e68bfdd	0.2272944
63	0x3dd448b3	0.10365429
64	0xbdc97756	-0.09837215
65	0xbdaa514e	-0.08316289
66	0xbd69936c	-0.057025358
67	0xbddcbfa6	-0.107787415
68	0xbdd8d2a3	-0.10587051
69	0x3e38f78e	0.18063185
70	0xbdc03a33	-0.093861006
71	0xbddc5419	-0.10758228
72	0xbe3d9d94	-0.18517143
73	0x3d9cd74e	0.076582536
74	0x3f0b98d6	0.54530084
75	0x3d4e14ca	0.050312795
76	0x3e1c6033	0.15271072
77	0x3e22264e	0.15834925
78	0xbd131625	-0.03590979
79	0x3d3645a5	0.044500012
80	0x3e2c3637	0.16817556
81	0x3dc42ac1	0.09578467
82	0xbded8d00	-0.11599159
83	0xbc996127	-0.018723084
84	0xbe1541d6	-0.14575896
85	0x3ed153e5	0.4088432
86	0x3ec7ab5e	0.3899793
87	0x3e604832	0.2190254
88	0x3ea5b5e4	0.32365334
89	0x3ec9fa26	0.3944866
90	0x3ea5d9ea	0.32392818
91	0xbea4a7fe	-0.32159418
92	0x3dc1854c	0.094492525
93	0x3d30b611	0.043142382
94	0xbdd9eea3	-0.106412195
95	0x3de430f6	0.11142151

bias f4 [8]
0	0x3e600177	0.21875559
1	0x3d6792a4	0.05653633
2	0x3d0ab4c9	0.033863816
3	0x3e47a8cc	0.19497985
4	0x3e73fc42	0.23826697
5	0xbd0294ea	-0.031880297
6	0x3e971fd8	0.29516482
7	0xbe1fe278	-0.15613735

weight_ih_l0 f4 [144, 8]
0	0x3d92908d	0.07156477
1	0x3b03f2f4	0.0020133825
2	0x3e82d713	0.25554714
3	0x3e6ed21a	0.23322335
4	0xbb265532	-0.002538037
5	0x3cd9a7f7	0.02656935
6	0x3e2f7e32	0.17137983
7	0x3e04febd	0.129878
8	0x3b29a49e	0.0025885473
9	0xbd86085f	-0.065445654
10	0x3c19a92e	0.0093787145
11	0xbdb47737	-0.08811801
12	0x3e1b078b	0.15139596
13	0x3e885831	0.26629785
14	0x3daa1aa4	0.083058625
15	0x3e13de44	0.14440256
16	0xbd8870d3	-0.066621445
17	0xbd7b6220	-0.061372876
18	0x3df8ebd2	0.12154354
19	0xbe6199c2	-0.2203131
20	0x3e7b6d9e	0.24553534
21	0xbde706ee	-0.112806186
22	0x3de5998e	0.11210929
23	0xbc9946bd	-0.018710488
24	0x3d90ac92	0.07064165
25	0x3e349bb4	0.17637521
26	0x3e7fb3e6	0.2497097
27	0x3e499fb9	0.19689836
28	0x3e35b9d8	0.17746675
29	0x3e96a2da	0.2942112
30	0x3e885eda	0.26634866
31	0x3e788453	0.24269228
32	0x3d2cb33c	0.04216312
33	0x3e8979a0	0.26850605
34	0x3ebb8765	0.36626735
35	0x3d39a575	0.045323808
36	0x3c58b912	0.013227718
37	0x3e5b71e1	0.2143016
38	0x3ea70192	0.32618386
39	0x3ea186ad	0.31548062
40	0x3d37d3fc	0.0448799
41	0xbd36a091	-0.04458672
42	0x3df41885	0.11918739
43	0x3d497831	0.04918689
44	0x3dc33297	0.095311336
45	0x3b9847c3	0.0046472265
46	0x3e726811	0.2367251
47	0x3e163e08	0.146721
48	0x3dac10bb	0.084016286
49	0x3d00d651	0.031454388
50	0xbae585e9	-0.0017511222
51	0x3dc553eb	0.09635147
52	0xbc4bf074	-0.012447465
53	0xbc8f0677	-0.017459137
54	0x3e3f62fa	0.186901
55	0x3e47f1e9	0.19525875
56	0xbd71e206	-0.059053443
57	0x3e61cc8a	0.22050682
58	0xbdaefaa1	-0.085438974
59	0xbda9199b	-0.08256837
60	0x3d50e42b	0.050998848
61	0xbdd2900f	-0.10281383
62	0x3e52f277	0.20600305
63	0x3e01b16f	0.12665342
64	0x3e0d65d8	0.13808382
65	0x3e022f37	0.12713324
66	0x3e5e7890	0.21725678
67	0xbe032336	-0.128064
68	0x3e37ca62	0.17948297
69	0x3e20c40a	0.15699783
70	0xb9853212	-0.00025405042
71	0xbd1c45ed	-0.038152624
72	0x3e4ad599	0.19808044
73	0x3cfa3156	0.030541103
74	0x3e87d6fb	0.26531205
75	0x3c9ae7d7	0.018909378
76	0x3ce817bf	0.028331636
77	0x3d67fe9c	0.0566393
78	0xbccc2b5f	-0.024923025
79	0xbd7a98c2	-0.061180837
80	0x3de470f6	0.11154358
81	0xbce1fc63	-0.027586168
82	0x3b9f7ca9	0.0048671556
83	0x3ccda7de	0.02510446
84	0x3e86878e	0.26275295
85	0x3e8617b3	0.26189956
86	0x3e96df59	0.29467276
87	0x3e9b1c90	0.3029523
88	0x3d3937d4	0.045219257
89	0xbd566a59	-0.052347515
90	0x3e87c097	0.26514122
91	0x3e21c008	0.1579591
92	0x3cc8f5c2	0.024531249
93	0x3def02f9	0.11670489
94	0x3e287b8f	0.16453384
95	0x3cdd17cc	0.026988886
96	0xbd631def	-0.05544847
97	0xbc93d70c	-0.018046878
98	0x3e34b675	0.17647727
99	0xbd4d4df3	-0.050123166
100	0x3e765937	0.2405747
101	0x3e789cec	0.24278611
102	0x3e056355	0.13026173
103	0x3e01a93a	0.12662211
104	0x3d563846	0.05229976
105	0xbdc012be	-0.09378575
106	0xb9d4b295	-0.00040568845
107	0xbda1a27e	-0.07892321
108	0xbd0762ce	-0.033053212
109	0xbd66710d	-0.056260157
110	0xbd7fc665	-0.062445063
111	0xbdc99d8b	-0.09844502
112	0x3e5d9cd9	0.21641864
113	0xbceb81b4	-0.02874837
114	0xbcb52d27	-0.022116257
115	0xbd8932cf	-0.06699144
116	0x3d3a8938	0.04554102
117	0x3e91d8b8	0.28485656
118	0x3b271e91	0.0025500397
119	0x3e8bb738	0.27288222
120	0x3d0503d2	0.032474346
121	0xbe47ba20	-0.19504595
122	0x3c1f7b98	0.009734057
123	0x3d2286da	0.039679386
124	0x3e484e85	0.19561203
125	0xbc9b8cab	-0.018987974
126	0x3ca690f4	0.02033279
127	0xbb83aea7	-0.004018623
128	0xbd8c4f7b	-0.06851097
129	0x3dfc37e5	0.123153485
130	0x3e56c0b5	0.2097195
131	0x3c4766c1	0.0121704945
132	0x3e302f95	0.17205651
133	0x3e0dadb1	0.1383579
134	0xbc126c56	-0.008936962
135	0x3d90554e	0.070475206
136	0x3cc3129a	0.02381258
137	0x3e559106	0.20856103
138	0x3d70aa9c	0.058756456
139	0x3b5fcf0b	0.0034150507
140	0xbd21ab09	-0.039469752
141	0x3d23f8ef	0.040032323
142	0xbdba0c06	-0.090843245
143	0xbd7f7c55	-0.06237443
144	0x3bb9f6c2	0.005675168
145	0x3d8b43c1	0.068000324
146	0x3e5eea6a	0.2176911
147	0x3e0b171e	0.13583037
148	0xbd92a310	-0.07160008
149	0x3d6d9f32	0.05801315
150	0x3dde665c	0.10859367
151	0x3e137aac	0.14402264
152	0xbe024a0b	-0.12723558
153	0xbdeeda14	-0.11662689
154	0x3d280cef	0.04102796
155	0xbe1c0056	-0.15234503
156	0x3e5776e4	0.21041447
157	0xbdbc7bb0	-0.09203279
158	0xbc5c2e43	-0.013438764
159	0xbe35870b	-0.17727296
160	0x3e3e0abe	0.18558785
161	0xbd0b884b	-0.034065526
162	0x3ddb396e	0.10704313
163	0x3e16931c	0.14704555
164	0x3dd36fe1	0.103240736
165	0x3dfa6185	0.122256316
166	0xbd35cdd2	-0.04438574
167	0x3e52d81c	0.20590252
168	0x3e8f0755	0.2793528
169	0x3e8f72f3	0.28017387
170	0x3ebea65c	0.37236297
171	0x3e3c7f4f	0.1840794
172	0x3d10f8d0	0.035393536
173	0x3e518c3f	0.20463656
174	0x3eb01731	0.34392694
175	0xbc131f70	-0.008979663
176	0x3d966a76	0.073445246
177	0x3e095cf1	0.1341436
178	0xbbe9a181	-0.0071298485
179	0xbd0c5dcf	-0.03426915
180	0x3e4f825a	0.20264569
181	0x3e7ae273	0.24500446
182	0x3e1954ea	0.14973798
183	0x3da1a8f2	0.07893552
184	0xbdcdd32c	-0.100500435
185	0xbd08aa54	-0.033365563
186	0x3e32e462	0.17469934
187	0x3d7dde57	0.061979618
188	0x3d87e78d	0.06635962
189	0xbdc7a8ea	-0.09749015
190	0x3dfbf2b8	0.12302154
191	0x3e1a36a3	0.15059905
192	0x3e30a253	0.17249422
193	0x3e7ebf4e	0.24877664
194	0x3e8e3d44	0.27781117
195	0x3ce1d2aa	0.027566273
196	0x3e56d342	0.20979026
197	0x3ea99b14	0.33126128
198	0x3e66e8a7	0.22549687
199	0x3e6a61af	0.22888826
200	0x3e5a7b0b	0.21336
201	0x3d1b9b8f	0.03799015
202	0x3dfa0e1a	0.12209721
203	0x3e633aaf	0.22190355
204	0x3e1fac92	0.15593174
205	0x3ee79c97	0.45236656
206	0x3e0a29d1	0.13492514
207	0x3e5a9066	0.21344146
208	0x3d83c0ab	0.06433233
209	0x3e006ccd	0.12541504
210	0x3e05ed30	0.13078761
211	0xbd53f4ba	-0.05174706
212	0x3d369c06	0.04458239
213	0x3e594334	0.21217042
214	0x3e299482	0.16560557
215	0x3d823777	0.06358235
216	0xbde32c9f	-0.11092495
217	0x3c827ea2	0.015929524
218	0x3e567d83	0.20946316
219	0x3dba0b3c	0.09084174
220	0xbb9a2fd9	-0.004705411
221	0xbd9f19c3	-0.077685855
222	0x3d9ce269	0.07660372
223	0x3d0d87c3	0.0345533
224	0x3e85e182	0.2614861
225	0x3e53c68f	0.20681213
226	0x3e81040b	0.25198397
227	0x3b9d343f	0.004797488
228	0x3d1cb14e	0.03825503
229	0x3e37c0d4	0.17944652
230	0x3d98b883	0.07457068
231	0x3e84f612	0.25968987
232	0x3d9edb9e	0.077567324
233	0x3e3222cb	0.17396085
234	0x3d98db96	0.07463758
235	0x3d844ddd	0.06460164
236	0x3e0f7182	0.14008144
237	0x3dfe4931	0.12416304
238	0xbc7c50c4	-0.015400115
239	0x3da2d5d6	0.07950942
240	0x3dff6e1b	0.12472173
241	0xbd216b7e	-0.039409153
242	0x3d50f17d	0.05101155
243	0x3e41f9c5	0.18942936
244	0x3e983d05	0.29734054
245	0x3e45533a	0.1927003
246	0x3e27d1ed	0.16388674
247	0xbda477a7	-0.080306344
248	0x3dff83c6	0.12476306
249	0x3e347adc	0.17624992
250	0x3e68efc0	0.22747707
251	0x3e097c3d	0.134263
252	0xbcdf193c	-0.027233712
253	0x3dcea2ce	0.10089646
254	0x3ddddf97	0.10833662
255	0xbcdf2670	-0.027240008

weight_hh_l0 f4 [144, 36]
0	0xbde90ad1	-0.11379016
1	0xbd114831	-0.035469238
2	0xbe4d79ba	-0.20065966
3	0x3e45b7ce	0.19308397
4	0x3ceee877	0.029163582
5	0xbe59f593	-0.21285085
6	0xbe7ab46a	-0.24482885
7	0x3e295aed	0.16538592
8	0xbd531fd9	-0.051544044
9	0x3e4dd863	0.20102076
10	0xbc4e768f	-0.012601509
11	0xbbcece74	-0.006311232
12	0xbdad50fe	-0.08462714
13	0xbe1a6221	-0.15076496
14	0xbda159a6	-0.07878427
15	0xbdf69bdb	-0.12041446
16	0x3deda59f	0.11603855
17	0x3e90d617	0.28288338
18	0xbdf20001	-0.11816407
19	0xbe530928	-0.20608962
20	0xbddf3e13	-0.109005116
21	0x3d7fcf93	0.062453818
22	0x3cf79f0e	0.03022721
23	0xbcfbecac	-0.030752502
24	0xbdfd137b	-0.12357231
25	0x3e438373	0.19093113
26	0xbdfd6170	-0.123721
27	0x3e2a2184	0.16614348
28	0x3e2c3baf	0.16819642
29	0xbddebcb5	-0.10875837
30	0xbdfa403d	-0.12219284
31	0x3e04b736	0.12960514
32	0x3bafbae4	0.0053628553
33	0xbe9f60c1	-0.31128505
34	0x3e411c2e	0.18858406
35	0x3e4c04b2	0.19923666
36	0x3d5270bb	0.05137704
37	0xbdc1f39a	-0.094702914
38	0xbde37daf	-0.111079566
39	0xbd9b63a2	-0.07587363
40	0x3da6fb7b	0.08153435
41	0xbe72e955	-0.23721822
42	0xbda3443c	-0.07971999
43	0x3e6a44f7	0.2287787
44	0xbb616069	-0.003438974
45	0x3da6af0d	0.08138857
46	0xbded6197	-0.115908794
47	0x3d404a09	0.046945605
48	0xbe002f36	-0.1251801
49	0x3d84cac7	0.06483989
50	0xbe593ad6	-0.2121385
51	0xbd6f2c72	-0.058391996
52	0xbd476cc7	-0.048687723
53	0x3d6fd7be	0.058555357
54	0xbe3cc137	-0.1843308
55	0xbe13fab5	-0.14451106
56	0xbd26eb1c	-0.04075156
57	0x3d2af886	0.041740917
58	0x3d11eb33	0.035624694
59	0x3dcd454b	0.10022982
60	0xbd48662c	-0.048925564
61	0x3dc44126	0.095827386
62	0x3d2133af	0.03935593
63	0x3d24d8e2	0.040245898
64	0xbdda07f1	-0.10646046
65	0x3e221d8f	0.15831588
66	0x3e1f65c2	0.15566161
67	0xbd05894d	-0.032601643
68	0x3dff8b0e	0.124776945
69	0xbe4fa263	-0.2027679
70	0x3d5d3954	0.05400975
71	0x3d9afa66	0.07567291
72	0xbde59c03	-0.112113975
73	0xbe5dc1d2	-0.21655968
74	0x3dba0fd3	0.090850495
75	0x3d69702e	0.05699175
76	0x3e21ee1d	0.1581349
77	0xbe63d58f	-0.22249435
78	0xbbf66239	-0.0075190333
79	0xbc8cf99b	-0.017208865
80	0xbda2599b	-0.07927247
81	0x3e4acf88	0.1980573
82	0xbe14194d	-0.14462776
83	0x3dc089dc	0.094012946
84	0x3e0ff895	0.1405967
85	0xbd961238	-0.07327694
86	0xbdf5839d	-0.11987994
87	0xbc7a582e	-0.015279813
88	0x3daba4a5	0.08381013
89	0x3dc0b6d0	0.09409869
90	0x3c4570cb	0.012050818
91	0x3ce34eef	0.0277476
92	0xbe0d71cd	-0.13812943
93	0x3bbfd8d6	0.0058547063
94	0x3db7554c	0.08951816
95	0xbd8e099e	-0.06935428
96	0x3afa669a	0.0019104064
97	0x3e0d9b41	0.13828756
98	0xbe293ca6	-0.16527042
99	0x3d96b02e	0.07357822
100	0xbd17bab7	-0.0370433
101	0xbd9339fd	-0.07188795
102	0x3d94a4f3	0.07258024
103	0x3e3bc50d	0.18336888
104	0x3d50ec42	0.051006563
105	0x3e006449	0.12538256
106	0xbde9285d	-0.11384652
107	0x3dfed5ed	0.12443147
108	0x3d66e6cf	0.05637246
109	0xbe2084d5	-0.15675671
110	0xbcaa9ec2	-0.020827655
111	0x3b1314fb	0.0022442925
112	0x3d4be6fb	0.049780827
113	0xbd1688d4	-0.036751583
114	0xbe9f9650	-0.31169367
115	0x3e36a17d	0.1783504
116	0xbd8f6da5	-0.07003335
117	0xbd1e7b89	-0.03869203
118	0x3ba87af8	0.005141612
119	0xbd28e1f9	-0.04123113
120	0x3e21bd5f	0.15794896
121	0xbcdca364	-0.02693338
122	0xbcfb5ed0	-0.030684859
123	0xbe010f23	-0.1260343
124	0xbded502d	-0.11587558
125	0x3e7534f6	0.23945984
126	0x3d4f3194	0.05058439
127	0xbc651cfd	-0.013983962
128	0x3da11afb	0.07866474
129	0x3dc04805	0.09388737
130	0xbe36a7c8	-0.17837441
131	0x3e39e967	0.18155442
132	0xbdb78dca	-0.08962591
133	0x3e3165eb	0.17324035
134	0xbc832502	-0.016008858
135	0xbd758f9a	-0.059951402
136	0x3cb7af91	0.022422584
137	0x3dfd1a31	0.12358511
138	0xbd47de78	-0.048796147
139	0x3ea1c4dc	0.31595504
140	0x3d8703f0	0.06592548
141	0xbe8ac261	-0.27101424
142	0x3e9d96c0	0.30779076
143	0xbbc8e329	-0.006130595
144	0x3e1b2510	0.15150857
145	0xbece13c6	-0.4024946
146	0xbe55dcb9	-0.2088498
147	0x3e2b5343	0.1673098
148	0x3d55c702	0.05219174
149	0xbe13d069	-0.14434971
150	0xbedbc359	-0.42922476
151	0x3e2756df	0.16341732
152	0xbe8c6d50	-0.2742715
153	0x3e56475b	0.20925657
154	0x3e0923d8	0.1339258
155	0xbd9d3930	-0.07676923
156	0x3db964da	0.09052439
157	0xbdf0dd48	-0.11760956
158	0xbd63f3bc	-0.055652365
159	0x3c3d8193	0.011566537
160	0xbe2a5260	-0.16632986
161	0x3dffeca5	0.12496308
162	0x3e1844bf	0.14869975
163	0xbdcc0bea	-0.0996321
164	0xbd970fbc	-0.07376048
165	0xbd766063	-0.060150515
166	0xbe583317	-0.21113239
167	0xbd41a832	-0.047279544
168	0x3dc125cf	0.094310395
169	0x3db9388f	0.09043991
170	0xbe2a5d83	-0.16637234
171	0x3e1d00b8	0.15332305
172	0xbc49a65f	-0.012307732
173	0xbd4f2ba8	-0.050578743
174	0xbd545acc	-0.051844403
175	0x3dd55781	0.10417081
176	0x3d8f8316	0.070074245
177	0xbe3a0e7e	-0.18169591
178	0x3e8ef4e5	0.27921215
179	0x3e0aaf09	0.13543333
180	0xbd6b808a	-0.05749563
181	0x3da8ad84	0.082362205
182	0xbc648cee	-0.013949616
183	0x3d45a56b	0.048253458
184	0x3c7c28b6	0.015390566
185	0xbe6990c6	-0.22809133
186	0xbc0d1f3d	-0.008613405
187	0x3e5bb033	0.21453933
188	0xbc7e375b	-0.015516127
189	0x3e21ba96	0.15793833
190	0xbd7de1ab	-0.061982792
191	0x39fab084	0.0004781523
192	0xbe24929c	-0.16071552
193	0x3d755537	0.05989572
194	0xbdd9fb20	-0.106436014
195	0xbdb61ef2	-0.08892621
196	0x3d3f9197	0.046769705
197	0x3e0619cf	0.13095783
198	0x3d5e17bc	0.054221854
199	0x3e03dd34	0.12877351
200	0x3d108e92	0.035292216
201	0xbb404990	-0.0029340722
202	0x3e5a4aa7	0.2131754
203	0x3e499e8f	0.19689392
204	0xbe46df39	-0.1942109
205	0x3c3ed826	0.0116482135
206	0xba5a0d69	-0.00083180383
207	0xbdacecc4	-0.08443597
208	0xbd5c1335	-0.053729255
209	0x3d6ef168	0.05833569
210	0x3e4df4d4	0.20112926
211	0x3cbfbfa6	0.023406815
212	0xbda4c6bc	-0.08045718
213	0xbe0fd854	-0.14047366
214	0x3e192525	0.14955576
215	0xbc872893	-0.01649884
216	0xbe1ee322	-0.15516332
217	0x3d25f6a6	0.040518425
218	0x3c89b32b	0.016809067
219	0x3e11ce06	0.14238748
220	0x3d963424	0.07334164
221	0x3d89e8bf	0.06733846
222	0xbe6a8df8	-0.2290572
223	0x3cf2b9ca	0.029629607
224	0x3d3b86c1	0.04578281
225	0x3d24fdad	0.040280987
226	0x3d8d307a	0.06894012
227	0x3da9cadf	0.08290648
228	0xbe484070	-0.19555831
229	0xbd954c44	-0.07289937
230	0xbd82d777	-0.06388753
231	0x3d60e240	0.05490327
232	0x3dbe11f4	0.09280768
233	0x3d3a523f	0.045488592
234	0xbe3218b3	-0.17392235
235	0x3d48b457	0.04900011
236	0xbe59a461	-0.21254112
237	0xbd7a4d71	-0.06110901
238	0xbd9e4d48	-0.07729584
239	0xbd962b97	-0.07332533
240	0x3e03e6d0	0.12881017
241	0xbd0a9fa0	-0.033843637
242	0xbe46c25d	-0.19410081
243	0xbcb22ee0	-0.021750867
244	0xbd829bb1	-0.06377352
245	0x3e0c051a	0.13673821
246	0x3d147d5f	0.036252376
247	0x3c8266ad	0.0159181
248	0x3cc4f616	0.024043124
249	0xbe18c32d	-0.14918204
250	0x3d3d58a8	0.046227127
251	0xb98bc66b	-0.0002665998
252	0x3dc288f5	0.09498779
253	0xbd835212	-0.06412138
254	0x3cf79801	0.030223848
255	0x3d8281aa	0.06372388

bias_ih_l0 f4 [144]
0	0x3e8d622a	0.27613956
1	0x3e4335cb	0.19063489
2	0xbd9f4a70	-0.0777787
3	0x3e1783cc	0.1479637
4	0x3dd90206	0.10596089
5	0x3d877417	0.06613939
6	0x3e651104	0.22369772
7	0x3e28aa18	0.16471136
8	0x3daf7c01	0.08568574
9	0x3e441ae6	0.19150886
10	0x3e65c219	0.22437324
11	0x3e237016	0.15960726
12	0xb8cf6332	-9.889006e-05
13	0xbd990528	-0.074716866
14	0x3e2a585a	0.16635266
15	0x3d5c3839	0.053764556
16	0x3e3e88e7	0.18606912
17	0x3d6b2baf	0.057414707
18	0x3d604d81	0.054761413
19	0xbd3c9437	-0.046039786
20	0x3e3bec02	0.18351749
21	0x3e89610a	0.26831847
22	0x3e9b5005	0.30334488
23	0xbda4f0e1	-0.080537565
24	0x3d868595	0.065684475
25	0x3ec142e7	0.37746355
26	0x3e7ce18e	0.24695417
27	0x3e016563	0.12636332
28	0x3e304b23	0.17216162
29	0x3e01ed01	0.12688066
30	0x3d901545	0.07035307
31	0x3baedb3b	0.005336193
32	0x3e533ed0	0.2062943
33	0x3e7ae3d5	0.24500974
34	0xbdba0cb5	-0.09084455
35	0x3e29f737	0.16598211
36	0xbccc052f	-0.024904815
37	0xbd248642	-0.0401671
38	0x3e057763	0.13033824
39	0x3dc42891	0.0957805
40	0x3d59f02c	0.05320756
41	0xbd81c50a	-0.0633641
42	0x3e2b5cc4	0.16734606
43	0x3e01e1f4	0.1268385
44	0x3dd67e4d	0.10473309
45	0x3db8be45	0.09020666
46	0x3ce128ea	0.02748533
47	0xbe2a7d01	-0.16649248
48	0xbd80f777	-0.062972
49	0x3e04ea9c	0.12980121
50	0xbbda2cad	-0.006658158
51	0xbdfe9201	-0.12430192
52	0xbdf8d064	-0.12149122
53	0x3e0df94a	0.13864627
54	0x3dcb5537	0.09928363
55	0xbe02fb0f	-0.12791084
56	0x3d716b1d	0.05894004
57	0xbd186573	-0.037206125
58	0xbc5251b5	-0.012836863
59	0xbe1e6b95	-0.15470727
60	0xbde40721	-0.11134172
61	0xbe4c354b	-0.19942205
62	0xbe376cc5	-0.17912586
63	0xbdbee27a	-0.09320541
64	0xbdb8748e	-0.09006606
65	0xbde53c8c	-0.11193189
66	0x3d9e9bc3	0.07744553
67	0x3e4e9067	0.20172273
68	0x3c181b3d	0.009283838
69	0xbd7826ae	-0.060583763
70	0xbe05aeb9	-0.13054933
71	0xbdf42043	-0.11920216
72	0xbdeb284c	-0.114822954
73	0xbe0a48a4	-0.13504273
74	0xbe12c32f	-0.14332269
75	0xbb811766	-0.003939557
76	0xbd422142	-0.047395
77	0xbe427256	-0.18988928
78	0xbcd98c7a	-0.026556242
79	0x3d61f680	0.05516672
80	0xbca7657d	-0.020434136
81	0xbd53131b	-0.051531892
82	0x3d480983	0.048837196
83	0x3d38a2e4	0.04507722
84	0xbda6e41f	-0.081489794
85	0x3d577e1c	0.0526105
86	0xbd22e857	-0.039772358
87	0xbe1a68f2	-0.15079096
88	0xbd480cfd	-0.04884051
89	0x3e0bc664	0.13649899
90	0xbd88d543	-0.066813014
91	0xbe113293	-0.14179449
92	0x3d6ed4e8	0.058308512
93	0xbd0c9ac2	-0.034327276
94	0x3de1c1dc	0.11023304
95	0x3e00c63a	0.12575617
96	0x3c55ccc0	0.0130493045
97	0x3d954bb7	0.07289832
98	0x3d2f1763	0.042746913
99	0xbe1800ae	-0.1484401
100	0x3e20c802	0.15701297
101	0x3d34e272	0.044161268
102	0x3d11f9cd	0.03563862
103	0x3d85c513	0.065317295
104	0xbc8e2d50	-0.017355591
105	0xbe3923fb	-0.18080132
106	0x3db5d619	0.088787265
107	0x3d514e71	0.0511002
108	0x3e28687e	0.1644611
109	0x3d859d5d	0.06524155
110	0x3d413dfe	0.04717826
111	0x3e0ebb5b	0.13938658
112	0x3e9ab1a9	0.3021367
113	0xbc286223	-0.010277304
114	0xbbd5f284	-0.0065291543
115	0x3b84867f	0.0040443535
116	0x3db94e40	0.09048128
117	0xbd7b2be1	-0.061321143
118	0x3ca022bb	0.01954781
119	0x3d740d06	0.059582733
120	0xbccc4470	-0.024934977
121	0x3e44ba29	0.1921164
122	0xbd85f2b6	-0.06540434
123	0x3d57f442	0.052723177
124	0xbcc3a2cb	-0.023881337
125	0x3e00f521	0.1259351
126	0x3e039404	0.12849432
127	0x3c3dee7b	0.011592503
128	0xbd874fa8	-0.0660699
129	0x3dc1ec3a	0.09468885
130	0x3e5ba700	0.21450424
131	0x3e1ca6d6	0.15298018
132	0x3db855f7	0.090007715
133	0x3e8bd560	0.2731123
134	0x3ddb5240	0.10709047
135	0xbcb37ff5	-0.0219116
136	0x3de9e68b	0.11420926
137	0x3cf043c2	0.029329184
138	0x3d9b7b08	0.07591826
139	0xbd76f9e7	-0.06029692
140	0x3e020fc1	0.12701322
141	0xbd70b2e4	-0.058764353
142	0xba127e3b	-0.0005588268
143	0xbdddcd8f	-0.10830223

bias_hh_l0 f4 [144]
0	0x3de41179	0.11136145
1	0x3ddb031e	0.10693954
2	0x3e062498	0.13099897
3	0x3d4037b1	0.04692811
4	0x3eb03564	0.34415734
5	0xbde265e6	-0.11054592
6	0x3e1944bc	0.14967626
7	0xbd4588c8	-0.048226148
8	0x3e34f277	0.17670618
9	0x3cdef979	0.027218567
10	0x3c526bfa	0.012843126
11	0xbc3f7ab7	-0.011686972
12	0xbd3cde1d	-0.04611026
13	0xbdcdab6f	-0.10042464
14	0x3e369504	0.17830282
15	0x3da16154	0.07879892
16	0x3e42576f	0.18978666
17	0x3e0b1cec	0.13585252
18	0xbdee2641	-0.1162839
19	0x3dead637	0.114666395
20	0xbb408ad8	-0.0029379632
21	0x3e302e47	0.17205153
22	0x3dc16cdb	0.09444591
23	0x3d6b3816	0.057426535
24	0x3e9c84a3	0.30569944
25	0x3d762517	0.060093965
26	0x3e2887f1	0.16458108
27	0x3b0712a8	0.0020610485
28	0x3e6bd608	0.23030865
29	0x3dc27aab	0.09496053
30	0x3d6f0ad1	0.058359925
31	0x3db595f1	0.0886649
32	0x3d92aa06	0.07161336
33	0xbda33e7c	-0.07970902
34	0x3e2c0f78	0.16802776
35	0xbda773bc	-0.081763715
36	0xbe1c42db	-0.15259878
37	0xbd903a39	-0.07042355
38	0x3beefd6c	0.007293394
39	0x3d3ba509	0.045811687
40	0xbcca6bd7	-0.024709625
41	0xbc6cadc9	-0.0144457305
42	0x3e0b736b	0.13618247
43	0x3d7c35fa	0.061574914
44	0xbd44c545	-0.048039693
45	0xbdc18242	-0.09448673
46	0x3d4f3a81	0.050592903
47	0xbe434e42	-0.19072822
48	0xbe0fe1f5	-0.1405104
49	0xbcb1e115	-0.021713773
50	0xbdc5dac7	-0.09660869
51	0xbd046208	-0.032320052
52	0x3dd6a104	0.1047993
53	0xba70d256	-0.0009186616
54	0x3da16373	0.078802966
55	0xbd731296	-0.059343897
56	0xbdd30930	-0.10304487
57	0xbe360418	-0.17774999
58	0xbe440861	-0.19143821
59	0xbe05e9ba	-0.13077441
60	0x3bc735a6	0.0060793934
61	0xbe11c481	-0.14235117
62	0xbe4d33ce	-0.20039293
63	0xbdbb5e98	-0.09148902
64	0xbe5e529e	-0.21711203
65	0xbe0855d5	-0.13313992
66	0xbd61d6f4	-0.055136636
67	0x3d419da3	0.047269475
68	0xbd9cebcd	-0.07662163
69	0xbca79216	-0.020455401
70	0x3cb00792	0.021487985
71	0x3bfa36f4	0.0076359455
72	0x3daa0f42	0.083036914
73	0xbcd6bb52	-0.026212368
74	0xbdd74053	-0.10510316
75	0x3d21e0e8	0.039521128
76	0x3df93217	0.12167757
77	0xbe1bcea0	-0.1521554
78	0xbe304359	-0.17213191
79	0x3dc5b8d3	0.09654393
80	0x3cf56713	0.029956376
81	0x3e19d5e3	0.15022998
82	0xbe1ae619	-0.15126838
83	0x3dee69bc	0.11641261
84	0x3d965c99	0.0734188
85	0xbd61a9b6	-0.05509349
86	0xbd4f5db0	-0.050626457
87	0xbe10288e	-0.1407797
88	0x3b5a0475	0.0033266817
89	0x3dfd4c7d	0.123681046
90	0x3dc10c3a	0.0942616
91	0x3c8c0553	0.017092383
92	0xbc60495e	-0.013689367
93	0x3d1ca03b	0.038238745
94	0xbdccb2ff	-0.09995078
95	0x3b85747c	0.004072724
96	0x3e0db26a	0.13837591
97	0x3dda5ebd	0.10662601
98	0x3d1714b5	0.036884982
99	0x3c90c432	0.017671678
100	0x3d968a03	0.073505424
101	0xbb150c19	-0.0022742806
102	0xbd2c0e83	-0.042006027
103	0xbd476f72	-0.048690267
104	0x3d2eb4dc	0.04265295
105	0xbd8fd01d	-0.07022116
106	0x3df50f6d	0.11965833
107	0xbe154eee	-0.1458089
108	0xbc4e849e	-0.012604861
109	0x3e0ab20b	0.1354448
110	0x3d8d3865	0.06895522
111	0x3d4ad43a	0.0495188
112	0x3e9c58fc	0.3053664
113	0x3ca6b153	0.020348227
114	0x3ddbc10a	0.10730179
115	0xbcc44de3	-0.02396292
116	0x3dd71d67	0.10503655
117	0x3d511fb9	0.051055644
118	0x3e166d53	0.14690141
119	0x3e400959	0.18753566
120	0x3e69b164	0.22821575
121	0x3e24d7cb	0.16097943
122	0x3e33c2c9	0.17554773
123	0x3d8a6703	0.06757929
124	0x3cef173d	0.029185886
125	0x3d315ad6	0.04329952
126	0x3e1851ef	0.14875005
127	0x3e4e5e4a	0.20153156
128	0xbd636ecf	-0.055525597
129	0x3e9a79d2	0.30171067
130	0xbc049db9	-0.008094245
131	0x3d33de4e	0.04391318
132	0x3cbe9aba	0.023267139
133	0x3e619e24	0.22032982
134	0x3e4eacd2	0.20183113
135	0x3bcd0532	0.006256723
136	0x3d864b85	0.06557373
137	0xbbc19246	-0.0059073297
138	0x3e195132	0.1497238
139	0x3e613635	0.21993335
140	0xbd0737bf	-0.033012148
141	0x3e6b8608	0.23000348
142	0xbdc055b5	-0.09391347
143	0xbd31c011	-0.04339606

weight_ih_l1 f4 [144, 36]
0	0xbe60e5ee	-0.21962711
1	0x3d30ad35	0.043133933
2	0xbe775536	-0.24153599
3	0x3e03f4f7	0.12886415
4	0x3d6e961a	0.058248617
5	0xbe514b94	-0.20438987
6	0x3d3b6d3e	0.04575848
7	0xbc95b701	-0.01827574
8	0xbde7f306	-0.1132565
9	0xbdb6a540	-0.08918238
10	0xbdf0fa2e	-0.11766468
11	0xbda62e9c	-0.08114359
12	0xbda3cacd	-0.079976656
13	0xbe03ebbc	-0.12882894
14	0xbe0958fa	-0.13412848
15	0x3dddcf2d	0.10830531
16	0xbddb1baa	-0.10698636
17	0x3e52e67f	0.2059574
18	0xbe1e8024	-0.1547857
19	0xbd9bfe1f	-0.07616829
20	0xbc819df5	-0.01582239
21	0xbd699f86	-0.0570369
22	0x3e359544	0.17732722
23	0x3deaa3d0	0.11457026
24	0xbe5e2b5d	-0.2169623
25	0xbdacf122	-0.0844443
26	0xbe5caa09	-0.21549238
27	0xbc97c063	-0.018524354
28	0xbd28e3b2	-0.041232772
29	0xbd0a9ac3	-0.033839
30	0x3d82968d	0.063763715
31	0x3e3861f1	0.18006112
32	0x3e63a7ef	0.2223203
33	0xbe6c7599	-0.23091735
34	0x3c115f60	0.008872837
35	0x3dbff5db	0.09373065
36	0x3e99ffdc	0.30078018
37	0xbe19988d	-0.149996
38	0xbe29c228	-0.16577971
39	0x3e3c0467	0.18361054
40	0x3e433e2a	0.19066682
41	0x3ce97316	0.02849726
42	0xbe5815bc	-0.21102041
43	0x3e4f68c3	0.20254807
44	0x3cab8f4d	0.020942355
45	0x3e485320	0.1956296
46	0xbda2cf30	-0.07949674
47	0x3d8d6e90	0.06905854
48	0x3e035151	0.12823988
49	0x3d0998f1	0.033593122
50	0x3d927d14	0.07152763
51	0xbd371789	-0.04470018
52	0xbd180727	-0.037116196
53	0xbaec6699	-0.0018035948
54	0xbdc62b28	-0.096762
55	0xbd8169c5	-0.06319002
56	0x3db9fe35	0.09081689
57	0xbd995a93	-0.07487979
58	0xbe79db3c	-0.24400038
59	0x3dca6eb5	0.09884397
60	0xbd052ecd	-0.032515336
61	0x3dbd2b51	0.092367776
62	0xbe017f37	-0.12646185
63	0xbd5c49a7	-0.053781178
64	0x3e6d6e7b	0.23186676
65	0xbe40c2d6	-0.18824324
66	0xbe1d7e2b	-0.1538016
67	0x3df11062	0.11770703
68	0x39632a09	0.00021664066
69	0xbdebe55b	-0.115183555
70	0x3da452a6	0.080235764
71	0x3e009dd8	0.12560213
72	0x3d1fac93	0.03898294
73	0xbe461ceb	-0.19346969
74	0xbc0e1da0	-0.008674055
75	0x3dd46983	0.10371687
76	0x3d4c49dd	0.04987513
77	0xbe1c6334	-0.15272218
78	0xbe61715a	-0.22015896
79	0xbd8cfaf3	-0.06883802
80	0x3da2f6d3	0.07957234
81	0x3e7ece80	0.24883461
82	0xbe6b6d3a	-0.22990885
83	0x3e3c9b44	0.18418604
84	0xbcb6d547	-0.022318495
85	0x3db99446	0.09061484
86	0x3e0862ec	0.13318986
87	0x3d643197	0.055711355
88	0xbd87416e	-0.066042766
89	0x3e28cd55	0.16484578
90	0x3dd4003c	0.10351607
91	0x3dafbc83	0.08580878
92	0xbd0f31c1	-0.03495956
93	0xbdd8a1d5	-0.10577742
94	0xbd0e4999	-0.034738157
95	0x3d3cf5b5	0.046132762
96	0x3db6d52f	0.0892738
97	0xbd10cf3b	-0.03535388
98	0xbcdf97bd	-0.027294034
99	0x3af2a9f1	0.0018513781
100	0xbc490680	-0.012269616
101	0xbde0c84a	-0.10975702
102	0xbe4f5df7	-0.20250688
103	0x3e4b6ec7	0.19866477
104	0x3e43d732	0.19125059
105	0xbcd6463c	-0.026156537
106	0xbdcfedc3	-0.10152771
107	0x3c640361	0.013916821
108	0xbda9104c	-0.082550615
109	0xbdf26963	-0.11836507
110	0xbc0841f5	-0.008316507
111	0xbd77e48f	-0.060520705
112	0xbe134d8f	-0.14385055
113	0xbda5710d	-0.08078203
114	0xbd4fff31	-0.05078048
115	0x3d065003	0.03279115
116	0x3dce6356	0.100775406
117	0xbe1cca82	-0.15311626
118	0x3d8bcef5	0.06826583
119	0xbe599f22	-0.2125211
120	0xbe1b0294	-0.15137702
121	0x3db42068	0.087952435
122	0xbded0c81	-0.115746506
123	0x3bda142d	0.006655237
124	0xbde3d021	-0.11123682
125	0x3ba32905	0.004979255
126	0x3dd6ba0a	0.10484703
127	0x3dbb3742	0.09141399
128	0xbd0adf7e	-0.033904545
129	0x3defa491	0.117013104
130	0x3d4c5820	0.04988873
131	0xbcf86216	-0.030320209
132	0xbc617360	-0.013760418
133	0xbcfed05f	-0.031105218
134	0xbddf94a7	-0.10917025
135	0x3e1be988	0.15225804
136	0xbd154e79	-0.03645179
137	0x3cdbbb0e	0.026822593
138	0x3e1d5523	0.15364508
139	0x3e360724	0.17776161
140	0x3c874d55	0.016516367
141	0xbd0548e4	-0.032540217
142	0xbd679a70	-0.056543767
143	0x3d051ddc	0.03249918
144	0xbe545d57	-0.20738731
145	0x3d61e208	0.0551472
146	0x3c4cf8b5	0.012510468
147	0xbe4f9bb1	-0.20274235
148	0x3d4c7a28	0.049921185
149	0xbc919b18	-0.01777415
150	0xbe25aee4	-0.16179997
151	0x3cced6e7	0.025248958
152	0x3bc98aa6	0.0061505614
153	0xbd80ecb8	-0.062951505
154	0xbcdde4d4	-0.027086653
155	0x3d520313	0.051272463
156	0xbdd3d5f4	-0.10343543
157	0xbe283622	-0.164269
158	0x3dd4c91b	0.1038992
159	0xbc90a426	-0.017656397
160	0x3e015bc0	0.12632656
161	0x3c462c12	0.012095468
162	0x3c5e2313	0.013558167
163	0x3d9e0fa4	0.07717827
164	0x3d699319	0.05702505
165	0x3e49ad58	0.19695032
166	0xbd55881a	-0.05213175
167	0xbd44aad0	-0.048014462
168	0xbe12b375	-0.1432627
169	0xbc11b621	-0.008893521
170	0xbbb900cf	-0.0056458483
171	0xbd1113ef	-0.0354194
172	0xbd1acc51	-0.037792508
173	0x3cbc85ad	0.02301296
174	0x3dbb6176	0.091494486
175	0xbd9e90ad	-0.077424385
176	0x3dba4cac	0.09096655
177	0x3d100334	0.035159305
178	0x3d8916cc	0.06693801
179	0x3c8b9926	0.0170408
180	0x3df3420b	0.11877831
181	0xbe474a7f	-0.19462012
182	0xbe2fccf0	-0.17168021
183	0x3e078773	0.13235264
184	0xbde44dc3	-0.11147644
185	0xbdacd34c	-0.08438739
186	0xbd1f7a71	-0.03893513
187	0x3dc00e44	0.09377721
188	0xbd79263c	-0.06082748
189	0xbd554e47	-0.052076604
190	0xbdd53cc9	-0.104119845
191	0xbd968d07	-0.073511176
192	0x3dd47e37	0.10375636
193	0x3db70e0b	0.08938225
194	0xbd9519fe	-0.07280348
195	0xbdc55210	-0.09634793
196	0xbd3bc59e	-0.04584276
197	0x3e6a2f66	0.22869644
198	0xbcaa9e55	-0.020827452
199	0xbdaed0ae	-0.08535896
200	0x3c75f494	0.015011925
201	0x3cf5f8e8	0.030025914
202	0xbe2f4638	-0.1711663
203	0xbde67464	-0.112526685
204	0x3c27e9f5	0.010248651
205	0xbdd74a5d	-0.105122305
206	0xbe0be910	-0.13663125
207	0x3e0fe0b7	0.14050566
208	0x3d3a0624	0.045416012
209	0xbbe1fb31	-0.0068963994
210	0xbda227f1	-0.079177745
211	0x3e0313ff	0.12800597
212	0x3e73fa1b	0.23825876
213	0xbe0872d1	-0.13325049
214	0x3d4ed813	0.050499033
215	0x3e0a6427	0.13514768
216	0x3e38c3a0	0.18043375
217	0xbd12387b	-0.035698395
218	0xbd74b717	-0.05974492
219	0x3dc2915d	0.09500382
220	0x3d9ca9a5	0.076495446
221	0xbe0382e3	-0.12842898
222	0xbd802510	-0.06257069
223	0x3e552a69	0.2081696
224	0xbe107c82	-0.14109996
225	0x3e345bb4	0.17613107
226	0x3cc7375e	0.024318393
227	0x3e77bc54	0.24192935
228	0x3e85a4f7	0.2610242
229	0xbc8431c7	-0.016137017
230	0xbccf68ff	-0.02531862
231	0xbd981979	-0.074267335
232	0xbe82f5d2	-0.2557817
233	0x3d99ad0f	0.075037114
234	0x3df0382e	0.117294654
235	0xbca6a148	-0.020340577
236	0xbdda0201	-0.106449135
237	0xbe0fdab2	-0.1404827
238	0xbda180a4	-0.078858644
239	0xbd98c31e	-0.07459091
240	0x3dadd65f	0.08488154
241	0x3e8d2df7	0.2757413
242	0x3df5d768	0.12003976
243	0x3cdc0750	0.026858956
244	0x3e267fd9	0.16259708
245	0xbdbd37f7	-0.0923919
246	0xbc9016fa	-0.017589081
247	0x3e91bbee	0.2846369
248	0x3e0b79cd	0.13620682
249	0x3b201ea5	0.0024432328
250	0x3e40a6b3	0.1881359
251	0x3dce0caa	0.10061009
252	0x3e1625de	0.14662883
253	0xbe1576a8	-0.14596045
254	0xbe48698b	-0.19571511
255	0x3df3137f	0.11868953

weight_hh_l1 f4 [144, 36]
0	0x3e3fad11	0.18718363
1	0xbcb140f9	-0.021637427
2	0x3e8f95fb	0.28044114
3	0xbd119bd9	-0.03554902
4	0xbc80e2a5	-0.015733073
5	0x3e0b37bb	0.13595478
6	0xbe2b9713	-0.16756849
7	0x3d38d6c3	0.045126688
8	0xbc5fd4e1	-0.013661594
9	0x3e0cfe13	0.13768797
10	0xbdd27bed	-0.10277543
11	0x3e007cc4	0.12547594
12	0x3e698936	0.22806248
13	0xbdbd374c	-0.09239063
14	0x3d0b4a65	0.034006495
15	0x3d295964	0.041345015
16	0xbe1e2a61	-0.15445854
17	0x3dec41b2	0.11535968
18	0xbe2694f7	-0.16267763
19	0xbdd5dbf8	-0.10442346
20	0x3e173ac8	0.14768517
21	0xbcf3193b	-0.029675117
22	0xbdcce140	-0.100039005
23	0x3e2ab586	0.16670808
24	0xbd903a74	-0.07042399
25	0xbe378bc5	-0.17924412
26	0xbe0ed391	-0.13947894
27	0xbdc6b1e7	-0.09701901
28	0xbd142ab0	-0.036173522
29	0xbd476eff	-0.04868984
30	0xbe938902	-0.28815466
31	0x3da68826	0.08131437
32	0xbe2c3ab2	-0.16819265
33	0x3db95786	0.09049897
34	0x3e22a8c4	0.15884691
35	0x3d82fdab	0.063960396
36	0xbd0dcd98	-0.034619898
37	0x3cbd83c3	0.023134118
38	0xbd165f1e	-0.036711805
39	0x3d63ccbf	0.055615183
40	0x3e81590e	0.25263256
41	0x3cf56830	0.029956907
42	0x3d76c9be	0.06025099
43	0xbdfec6dd	-0.12440274
44	0xbcb1de61	-0.021712484
45	0xbcb7e492	-0.022447858
46	0x3e205722	0.15658239
47	0x3e185063	0.14874415
48	0x3df66fc2	0.12033035
49	0xbda318fd	-0.079637505
50	0xbdcbb7c9	-0.099471636
51	0xbe1c1f64	-0.1524635
52	0xbe431883	-0.19052319
53	0x3e22a78d	0.15884228
54	0xbda17357	-0.078833275
55	0xbe17c3b3	-0.14820747
56	0x3e52e5ff	0.20595549
57	0xbcf1a2a0	-0.029496491
58	0x3be7d7ec	0.0070753004
59	0x3e0810fe	0.13287732
60	0xbe6b7fa4	-0.2299791
61	0x3cea3431	0.02858934
62	0x3d5932b5	0.053026874
63	0x3d135b1d	0.035975564
64	0xbdb79403	-0.08963778
65	0x3e3d38e6	0.18478736
66	0xbdf57305	-0.11984829
67	0xbdae9783	-0.08524992
68	0xbd2e7269	-0.04258958
69	0x3dfec5e9	0.12440092
70	0xbdee021b	-0.11621495
71	0x3db3a624	0.08771923
72	0x3e515ebb	0.20446293
73	0x3e093772	0.13400057
74	0xbdacf1f8	-0.084445894
75	0xbde1868e	-0.110119924
76	0xbd139987	-0.036035087
77	0xbe250b97	-0.16117702
78	0xbd9d044f	-0.076668374
79	0xbe0d77f0	-0.13815284
80	0x3d8535c3	0.06504395
81	0x3b2c6ad4	0.0026308792
82	0x3d7f57aa	0.062339462
83	0x3d860446	0.06543784
84	0xbdc933d3	-0.09824338
85	0xbc624651	-0.01381071
86	0xbd611951	-0.054955784
87	0x3e039000	0.128479
88	0xbe0441ea	-0.12915769
89	0x3e1b2df5	0.1515425
90	0xbdf05015	-0.117340244
91	0xbe2b38ed	-0.16720934
92	0xbd0fbabc	-0.035090193
93	0x3d684e03	0.056715023
94	0xbe3fe18d	-0.18738385
95	0xbdc30e7f	-0.09524249
96	0x3c6b29ba	0.01435321
97	0x3dc8f086	0.09811501
98	0xbd9c7082	-0.07638647
99	0x3e27c3fc	0.16383356
100	0x3c530acc	0.012880992
101	0xbb671835	-0.0035262231
102	0xbe2d0696	-0.16897044
103	0xbe488cc4	-0.19584948
104	0xbda2cf03	-0.079496406
105	0x3dbd7654	0.09251085
106	0x3d9cf218	0.07663363
107	0xbc9ab9ec	-0.018887483
108	0xbdc42694	-0.09577671
109	0x3e165ce3	0.14683871
110	0xbc9d7208	-0.019219413
111	0xbd909f4c	-0.070616335
112	0x3857fb84	5.1494237e-05
113	0xbe11db04	-0.14243704
114	0xbe09ae43	-0.13445382
115	0x3d2aba40	0.041681528
116	0xbe371c61	-0.1788192
117	0x3e42af74	0.19012243
118	0x3c24a85d	0.010049907
119	0x3ce042ad	0.027375543
120	0xbba9ebac	-0.005185565
121	0x3db44537	0.08802264
122	0xbe185f3f	-0.14880084
123	0xbe075d35	-0.1321915
124	0xbe32a28b	-0.17444818
125	0xbdee082e	-0.11622654
126	0x3d261343	0.040545713
127	0xbe25cecb	-0.16192167
128	0xbcf25fec	-0.029586755
129	0xbe24b28c	-0.16083735
130	0xbd634676	-0.05548712
131	0x3dd13c49	0.102165766
132	0xbc370167	-0.011169768
133	0x3b09fa51	0.0021053741
134	0xbce4a54a	-0.027910847
135	0x3e38c0a3	0.18042235
136	0x3dddc263	0.10828092
137	0x3d9950b9	0.074861
138	0xbe40a043	-0.18811135
139	0xbdf67688	-0.12034327
140	0x3cb45677	0.022013886
141	0x3d2bd78b	0.041953605
142	0x3cc438ff	0.02395296
143	0xbdb09793	-0.086226605
144	0xbdacb0cd	-0.084321596
145	0x3e044c09	0.1291963
146	0xbbc222d6	-0.005924563
147	0x3bb2c605	0.0054557347
148	0x3da84f62	0.08218266
149	0xbe25c0bd	-0.16186805
150	0xbd84e8ad	-0.06489692
151	0xbd1330d3	-0.035935234
152	0xbde1d586	-0.110270545
153	0x3e1109a6	0.14163837
154	0x3d9624e9	0.07331259
155	0x3d598cc7	0.05311277
156	0x3cd336e5	0.025783012
157	0x3da9bee7	0.08288365
158	0xbd5033ea	-0.05083076
159	0xbdfe2143	-0.12408688
160	0xbdc80b08	-0.09767729
161	0x3e24512e	0.16046593
162	0xbd47b21f	-0.048753854
163	0xbde71e97	-0.112851314
164	0x3dfae156	0.12250011
165	0xbe38f132	-0.18060759
166	0xbc303973	-0.010755884
167	0x3dc9e3a0	0.09857869
168	0xbe40dd5f	-0.18834446
169	0x3da81d39	0.08208699
170	0x3dae0809	0.08497626
171	0x3da4f916	0.08055322
172	0x3de98743	0.11402752
173	0xbddfdfd9	-0.109313674
174	0xbe6d739c	-0.23188633
175	0x3c3600c7	0.011108584
176	0xbc72c1ac	-0.014816683
177	0x3dd7b0b9	0.10531754
178	0x3e204706	0.15652093
179	0x3bc45b00	0.0059922934
180	0xbd3f5bd0	-0.04671842
181	0x3e3e7f26	0.18603191
182	0xbc62a339	-0.013832861
183	0x3d63c03a	0.055603243
184	0x3cc6aca4	0.024252243
185	0xbe101b24	-0.14072853
186	0xbe69d653	-0.22835664
187	0xbc877df7	-0.016539557
188	0xbe0d7ed4	-0.13817912
189	0x3cdedbb2	0.027204368
190	0xbd568e5a	-0.05238185
191	0xbd9f550f	-0.077798955
192	0xbc977a2b	-0.018490871
193	0xbe43ffa6	-0.19140491
194	0xbde025b7	-0.109446935
195	0x3d32be13	0.0436383
196	0xbe448d46	-0.19194517
197	0x3c9ece61	0.019385519
198	0xbc882380	-0.01661849
199	0xbd98f57b	-0.07468697
200	0xbd84ab36	-0.064779684
201	0xbd75fd9a	-0.060056306
202	0xbe7a8214	-0.24463683
203	0x3e20159c	0.15633243
204	0xbe242ba9	-0.1603228
205	0x3d975ee2	0.07391144
206	0xbdbd6f19	-0.09249706
207	0x3dc7966d	0.09745488
208	0xbe29bf1b	-0.16576807
209	0x3dc6b474	0.097023875
210	0xbd30ba3d	-0.04314636
211	0xbd339977	-0.043847527
212	0xbe09cc72	-0.13456896
213	0x3cb06313	0.021531617
214	0xbe07f17f	-0.13275717
215	0x3d5a7322	0.053332455
216	0x3dc1db3e	0.09465645
217	0x3e408f1b	0.1880459
218	0x3e29eab3	0.16593437
219	0xb8acc1c4	-8.237691e-05
220	0x3d3fdb95	0.04684027
221	0xba06f154	-0.0005147655
222	0x3dd4bf67	0.103880696
223	0x3bbf8c1b	0.0058455593
224	0xbdef1005	-0.11672977
225	0x3e0f6f36	0.14007267
226	0xbe13fca6	-0.14451846
227	0x3de3ad58	0.11117047
228	0x3e3de677	0.18544947
229	0x3aa14a78	0.0012305519
230	0xbc1db2df	-0.009625166
231	0xbe4fe2e7	-0.203014
232	0xbdfaa2f4	-0.12238112
233	0xbd9eda79	-0.07756514
234	0xbbfae584	-0.007656755
235	0xbde9ca04	-0.114154845
236	0x3e102c8d	0.14079495
237	0xbd9f95af	-0.07792222
238	0x3dd2efc9	0.10299642
239	0x3dff7d6b	0.124750935
240	0xbdf8bcb8	-0.1214537
241	0x3da049fa	0.0782661
242	0xbd00c7ee	-0.031440668
243	0xba8a1f4b	-0.001053789
244	0x3d4e91d7	0.050432052
245	0x3e110fef	0.14166234
246	0x3d25ef7d	0.040511597
247	0x3d55c3ef	0.05218881
248	0xbc34c3ad	-0.011032981
249	0xbd705837	-0.05867788
250	0xbe1f61ec	-0.15564698
251	0xbbfffcb4	-0.007812107
252	0x3e1db602	0.15401462
253	0xbcf11f09	-0.029433744
254	0x3e7b176f	0.24520658
255	0xbd36f9e3	-0.044671904

bias_ih_l1 f4 [144]
0	0x398f991a	0.00027389155
1	0xbd9a38c8	-0.075303614
2	0x3d636c43	0.05552317
3	0xbd183e70	-0.03716892
4	0xbd64e83b	-0.055885535
5	0xbcf2ec52	-0.029653702
6	0x3d82d806	0.063888595
7	0x3e105e64	0.14098507
8	0x3dcf4bf1	0.101219065
9	0x3dd332ad	0.103124
10	0x3e816ef2	0.25279957
11	0x3e39db61	0.18150093
12	0x3e06ed42	0.13176444
13	0x3d6967a0	0.05698359
14	0xbd22ce3f	-0.039747473
15	0x3e29b638	0.16573417
16	0x3de9b892	0.11412157
17	0x3b4900a0	0.0030670539
18	0x3e02e51d	0.12782712
19	0xbd638527	-0.055546906
20	0x3e54b979	0.20773877
21	0xbd525d74	-0.051358655
22	0xbc952331	-0.018205257
23	0x3e373129	0.17889847
24	0x3cbc4a54	0.022984661
25	0x3e35b8e6	0.17746314
26	0x3e234295	0.15943368
27	0x3e25f4bb	0.16206639
28	0xbd0f5762	-0.034995444
29	0x3cef7fe5	0.02923579
30	0xbce0a7d7	-0.027423782
31	0xbd227afc	-0.03966807
32	0x3df3994f	0.11894476
33	0xbb6bdaee	-0.0035988647
34	0x3dd6d9a9	0.10490734
35	0xbde1b980	-0.110217094
36	0x3e28dcc4	0.16490465
37	0xbd1d8d5e	-0.038464896
38	0xbe04a875	-0.12954886
39	0x3dbf45d9	0.09339494
40	0x3cef6c4d	0.029226447
41	0xbe257440	-0.16157627
42	0x3d6f829f	0.05847418
43	0x3da6b121	0.081392534
44	0xbd87fac5	-0.06639627
45	0x3e0c7cb3	0.13719444
46	0xbd291f6b	-0.041289728
47	0xbbab674c	-0.00523082
48	0x3c2e2205	0.010628228
49	0xbd25846c	-0.04040949
50	0xbdb65494	-0.08902851
51	0xbe07686d	-0.13223429
52	0x3db0eb14	0.086385876
53	0xbddc11d5	-0.10745589
54	0x3d538ef2	0.051649995
55	0x3d99a93c	0.07502982
56	0x3d0f1f0d	0.03494172
57	0x3e1f49c7	0.15555488
58	0xbe62e61d	-0.22158094
59	0x3d7326c3	0.059363138
60	0xbdca0d55	-0.09865824
61	0xbded4725	-0.11585835
62	0x3c71d217	0.014759562
63	0x3dff9a9a	0.1248066
64	0xbe0c8ca0	-0.13725519
65	0x3cefd27c	0.029275171
66	0x3e052a53	0.13004427
67	0xba0b1f08	-0.0005307053
68	0x3e13c135	0.14429171
69	0x3ceb1c09	0.028699892
70	0xbdaa002a	-0.083008125
71	0x3da6be6b	0.08141788
72	0x3e24d0f1	0.1609533
73	0xbc839ee1	-0.01606697
74	0x3ca5863a	0.020205606
75	0xbdeb8be0	-0.115012884
76	0x3bb16237	0.0054133194
77	0xbde547ad	-0.11195312
78	0x3dba904d	0.091095544
79	0xbdec9916	-0.11552636
80	0xbd6e3073	-0.058151674
81	0x3db10e06	0.08645253
82	0xbda21a6b	-0.07915195
83	0x3dc05cc8	0.093926966
84	0x3da40722	0.08009173
85	0xbdb23e1a	-0.08703251
86	0xbe21d296	-0.15802988
87	0x3b53a1ee	0.0032292563
88	0xbe4ef4d9	-0.2021059
89	0xbd30fe10	-0.043211043
90	0xbd8044e3	-0.06263139
91	0xbdd6c316	-0.104864284
92	0x3da5eaf7	0.081014566
93	0xbddb5996	-0.107104465
94	0xbc75f19e	-0.015011219
95	0x3db352bc	0.08756015
96	0xbe229733	-0.1587799
97	0x3c70dcc9	0.014701077
98	0xbdf30a17	-0.11867159
99	0x3d0c2c6c	0.03422205
100	0xbde1baad	-0.11021934
101	0xbc8ce376	-0.017198306
102	0xbd92ba37	-0.07164424
103	0xbd941d47	-0.07232147
104	0xbdd2b327	-0.10288077
105	0xbd5f7150	-0.054551423
106	0x3dc5d2eb	0.0965937
107	0xbd9c0d97	-0.076197796
108	0xbb0d32c6	-0.0021545156
109	0xbd6ba983	-0.057534706
110	0x3cc0f880	0.023555994
111	0x395a1817	0.00020799074
112	0xbbbc94c3	-0.0057550385
113	0x3dcb6035	0.099304594
114	0x3caf2db6	0.021384101
115	0x3e8ab3cd	0.27090302
116	0xbc08399b	-0.008314515
117	0x3a86e70b	0.0010292245
118	0x3e5f85e8	0.21828425
119	0x3def40bf	0.11682271
120	0x3e3a02f7	0.18165193
121	0x3d6edad3	0.058314156
122	0xbd0f195c	-0.034936294
123	0x3d85ec10	0.06539166
124	0xbc298d1e	-0.010348586
125	0xbd95f487	-0.073220305
126	0x3e50d67f	0.20394324
127	0x3e5d5617	0.21614872
128	0xbd6f9692	-0.058493204
129	0x3dd1bd61	0.10241199
130	0x3df9fb1d	0.12206099
131	0x3cfd3610	0.030909568
132	0xbdfeae0c	-0.124355406
133	0xbd4856c8	-0.048910886
134	0x3e715251	0.23566557
135	0x3e5b6f74	0.21429235
136	0x3e3a76cf	0.18209384
137	0x3e3d8047	0.18505965
138	0x3df8d4ed	0.12149987
139	0x3e072be8	0.13200343
140	0xbccdd9eb	-0.025128325
141	0xbdba7d0a	-0.091058806
142	0x3d5fea5d	0.054666866
143	0xbbccaf1a	-0.0062464597

bias_hh_l1 f4 [144]
0	0x3e505054	0.20343143
1	0x3e1863fa	0.14881888
2	0x3ddd8e23	0.10818126
3	0x3e08e8c7	0.13370048
4	0xbd117534	-0.035512164
5	0x3e414d90	0.18877244
6	0x3e8e3acf	0.27779242
7	0x3e2027d6	0.15640196
8	0xbd9bd5c4	-0.07609132
9	0xbd67832e	-0.056521587
10	0x3e06cf05	0.13164909
11	0x3da731af	0.08163773
12	0x3e341712	0.17586926
13	0x3e50db95	0.20396264
14	0x3da61302	0.08109094
15	0xbce00ab3	-0.027348852
16	0xbda14193	-0.078738354
17	0xbce33475	-0.027734974
18	0x3e16db3a	0.14732066
19	0xbd386cef	-0.045025762
20	0xbd4ceb22	-0.050028928
21	0xbc9e4b33	-0.019322967
22	0xbd636d49	-0.055524144
23	0xbd052411	-0.0325051
24	0x3e4a7681	0.19771768
25	0x3e07084e	0.13186762
26	0x3e9f5b1d	0.311242
27	0x3e26a43d	0.1627359
28	0xbcdd66f2	-0.027026627
29	0x3e11d387	0.14240848
30	0x3dcc4498	0.09974021
31	0xbcee16ea	-0.02906366
32	0xbdc54264	-0.09631804
33	0xbcbdfc2b	-0.023191532
34	0x3e71f041	0.23626806
35	0xbde37593	-0.1110641
36	0x3deff18f	0.117159955
37	0x3e195c22	0.14976552
38	0xbd8e8a26	-0.069599435
39	0xbd2bff86	-0.041991733
40	0x3dc6fbc5	0.0971599
41	0x3caab74c	0.020839356
42	0xbca0228e	-0.019547727
43	0x3dd6eb15	0.10494057
44	0xbc84946f	-0.01618406
45	0xbd8f1820	-0.06987023
46	0x3dd0cebd	0.10195682
47	0x3e001511	0.12508036
48	0x3cc673c2	0.02422512
49	0xbe0b62e9	-0.1361195
50	0x3d95d107	0.073152594
51	0xbcfce3f4	-0.030870415
52	0x3e401e8d	0.18761654
53	0x3e3a76cf	0.18209384
54	0x3dd26ceb	0.10274681
55	0x3da64771	0.08119095
56	0xbd49096e	-0.04908126
57	0x3dd07515	0.101785816
58	0xbc1f813c	-0.009735402
59	0x3b7fe51b	0.003904647
60	0xbe0022c9	-0.1251327
61	0x3cd934c7	0.026514424
62	0xbdbdc186	-0.09265427
63	0xbe001a58	-0.1251005
64	0x3cd6a3b9	0.026201116
65	0x3dbb9e0d	0.09161005
66	0x3be0b609	0.006857638
67	0x3ca62486	0.020281088
68	0xbd6b0309	-0.05737594
69	0xbdc397d0	-0.0955044
70	0x3e2fb30b	0.17158143
71	0xbd0116ce	-0.03151589
72	0x3e019bfa	0.12657157
73	0x3d5bd959	0.053674076
74	0x3e0f5eef	0.14001058
75	0xbd44c530	-0.048039615
76	0x3e0c2d74	0.13689214
77	0xbdaeaeb2	-0.08529414
78	0xbd7ec193	-0.062196326
79	0x3d93fae3	0.07225587
80	0xbdfa0307	-0.12207609
81	0x3e136663	0.14394526
82	0x3cb14ae7	0.021642162
83	0x3cf8f93e	0.030392285
84	0x3d6e4f8c	0.05818133
85	0xbe2d694a	-0.16934696
86	0xbd76b803	-0.06023408
87	0xbe3c1de2	-0.18370774
88	0xbe280257	-0.16407143
89	0x3dcd9502	0.100381866
90	0xbd476a1e	-0.048685186
91	0xbe310fe8	-0.17291224
92	0x3d91f55c	0.07126877
93	0xbe2ecf71	-0.1707132
94	0xbdc5386e	-0.09629904
95	0x3e2092cb	0.15680997
96	0x3d53e78d	0.051734496
97	0xbd93658b	-0.07197102
98	0x3d771207	0.060319927
99	0x3d43c6e7	0.04779711
100	0x3debd9d0	0.11516154
101	0x3d8dbfcb	0.06921347
102	0xbdb79cab	-0.08965429
103	0xbd7ccf9c	-0.06172143
104	0xbde14347	-0.1099916
105	0x3da4c63c	0.08045623
106	0xbe032565	-0.12807234
107	0x3e17e9e1	0.14835311
108	0xbd69e419	-0.057102297
109	0x3e16d5c7	0.14729987
110	0x3e0b6c03	0.13615422
111	0xbc18fba8	-0.009337343
112	0x3e4c56a9	0.19954933
113	0x3e54d6a4	0.20785004
114	0x3c8598e6	0.01630826
115	0xbb9414e6	-0.004519093
116	0x3ddad92b	0.10685953
117	0x3e258b67	0.16166459
118	0x3e116717	0.14199482
119	0x3e4f0cc0	0.20219707
120	0x3e4c3fd2	0.1994622
121	0x3e5e977b	0.21737473
122	0xbdcd77fa	-0.10032649
123	0x3d7ec059	0.062195156
124	0x3d023c95	0.031796057
125	0x3e0e284f	0.13882564
126	0x3dc44dad	0.09585128
127	0x3daf87d3	0.08570828
128	0x3e48c53b	0.19606487
129	0xbdd2d3ff	-0.10294341
130	0x3e2a5257	0.16632973
131	0x3e081243	0.13288216
132	0x3ddf6ccd	0.10909424
133	0x3d8e8c08	0.069603026
134	0x3bb15846	0.0054121343
135	0x3e25ab83	0.16178708
136	0xbd83c268	-0.064335644
137	0xbcfc1b3c	-0.030774705
138	0x3b45fa2d	0.003020893
139	0x3d744c74	0.059643224
140	0xbd24d137	-0.040238585
141	0x3e3f0f5f	0.18658207
142	0x3dd9d9a6	0.10637216
143	0x3d0842fd	0.03326701

weight f4 [1, 36]
0	0xbe08b810	-0.13351464
1	0x3e5beb5b	0.214765
2	0x3e39c8b1	0.18142964
3	0x3e4a6562	0.19765237
4	0xbe61335f	-0.21992253
5	0x3e124bd5	0.1428674
6	0xbe32f926	-0.17477855
7	0xbe4f958e	-0.20271894
8	0xbe0228e4	-0.12710911
9	0x3e3fbfff	0.18725584
10	0xbe3ea142	-0.18616202
11	0x3e0b256b	0.13588493
12	0xbe04cdae	-0.12969086
13	0xbe2b6c61	-0.16740562
14	0xbe493720	-0.19649935
15	0x3e1cad63	0.15300517
16	0x3db71b60	0.08940768
17	0x3e425369	0.18977131
18	0x3e535c54	0.20640689
19	0xbe474610	-0.1946032
20	0xbe3e2cbe	-0.18571755
21	0x3e138dee	0.1440961
22	0xbe59943a	-0.2124795
23	0x3e294b48	0.16532624
24	0x3dcd2419	0.10016651
25	0xbe1ef713	-0.15523939
26	0x3e6379ce	0.22214434
27	0xbdfefd1c	-0.124506205
28	0xbe20e7b2	-0.15713385
29	0x3e2d4ad3	0.16923074
30	0xbe129cd1	-0.14317633
31	0xbe858f7b	-0.2608603
32	0xbe51ce28	-0.20488799
33	0x3e1e5405	0.15461738
34	0xbe31f384	-0.1737805
35	0x3dad58f8	0.08464235
