LSTM_spread_forecasting/models/CNN_LSTM_DGX_MTD.pth (torch, 76711 bytes, 13 tensors)

weight f4 [4, 1, 3]
000000 7d 60 1e bf a8 ef 17 3f 4f 08 ba be 6a 9f 0a 3e
       -0.6186598 0.5935006 -0.36334464 0.13537374
000010 ce fc f4 3e c3 46 bc 3e 59 3d 0f 3e 54 40 0c bf
       0.47849125 0.36772737 0.13988246 -0.54785657
000020 d9 81 1c bf 4b 83 9e 3c e9 d5 e6 bd 75 5e 11 3f
       -0.6113563 0.019349715 -0.11271269 0.56784755

bias f4 [4]
000000 47 63 8e 3d a3 10 41 be 2d ca 1e 3f 53 85 56 be
       0.069525294 -0.18854003 0.62027246 -0.20949297

weight f4 [8, 4, 3]
000000 3f 66 89 be 2b f5 43 be b4 b2 ed 3e 1f 7a 12 bd
       -0.2683582 -0.19136493 0.46425402 -0.035760995
000010 f4 37 77 3e 8c 4b ae 3e 5e ee 6b 3d e3 30 23 3c
       0.24142438 0.34042013 0.05760037 0.009960386
000020 30 ee 9e bd 47 07 cb bd 1e ff a7 3e 1a 2f df 3e
       -0.077602744 -0.099134974 0.32811826 0.43590623
000030 f1 3b 8d be d8 86 7a 3d f0 94 9d 3d cc ec 58 be
       -0.27584794 0.061163753 0.07694423 -0.21184081
000040 22 e0 2b be b2 2d f5 bd 8c 21 3c bd 0d cd 59 be
       -0.16784719 -0.11971606 -0.04593043 -0.21269627
000050 cd c4 51 be 90 da 72 3e ad f1 86 be 79 13 08 be
       -0.2048523 0.23716187 -0.2635626 -0.13288678
000060 bc 1a b7 3e fa 5d f1 3d ff fb 9d bc 46 4f 85 bd
       0.35762584 0.11785503 -0.0192852 -0.06509261
000070 54 ad 54 3d 34 ee a0 3e 0f b8 80 bd f0 eb 1b be
       0.05192311 0.31431735 -0.062851064 -0.15226722
000080 1a 64 e5 be 4d cd fe 3d 4c 33 97 3d 65 b0 a8 3c
       -0.44802934 0.12441502 0.07382831 0.020591924
000090 19 f8 08 3e 08 69 b3 3d d2 af dd 3d 34 59 e7 3e
       0.13375892 0.087602675 0.10824551 0.45185244
0000a0 1d 92 5b be 1e 0e cd 3c 65 f3 5d 3e 1c 55 db 3d
       -0.21442457 0.025031146 0.21674879 0.10709593
0000b0 56 5c 26 3e a4 31 b9 be 24 6e d5 be 04 bf 89 bd
       0.16246161 -0.36170685 -0.41685593 -0.067258865
0000c0 d5 05 00 be 70 1b b0 3e 01 8d 88 3d d3 a5 22 3e
       -0.12502225 0.34395933 0.06667519 0.1588357
0000d0 4d 4a a5 3e 30 ae c2 3e a0 36 61 be af 71 04 3e
       0.3228325 0.3802352 -0.21993494 0.12933992
0000e0 50 e2 60 be ad 11 b5 3e 99 14 d9 3e 2b 76 3f bd
       -0.21961331 0.35365048 0.42398527 -0.046743553
0000f0 ca 4e 43 be f9 c2 f0 3d e2 b1 55 be fb 61 89 3c
       -0.19073024 0.11755938 -0.20868638 0.016770354
000100 a8 d2 25 3d bf 7f d9 3d 69 db 4a 3e f8 86 c0 3e
       0.0404841 0.10620069 0.19810261 0.37602973
000110 44 17 3a 3e 95 4f fc 3a 99 6e d3 bd 5c b7 19 be
       0.18172938 0.0019249792 -0.10323829 -0.15011352
000120 e2 76 30 3e a8 50 4e 3d ee ad 8e be d4 93 8d bd
       0.1723285 0.05036989 -0.27867073 -0.069129616
000130 fd 5b 72 be d0 8f 48 3e d1 0b 4e be ae fe 80 3e
       -0.23667903 0.1958611 -0.20121695 0.25194305
000140 2c 2f b6 3e ca 63 56 3e a1 61 4f 3d de a6 16 bd
       0.35582864 0.20936504 0.050630216 -0.03678023
000150 f4 88 ac bd 90 53 ca 3c 10 37 e4 bc 00 56 d8 3b
       -0.08424559 0.024698049 -0.027858287 0.006602049
000160 60 4e 61 be 54 28 78 3e 2c 7b 5e be 20 f3 8d 3c
       -0.22002554 0.24234134 -0.21726674 0.017327845
000170 c0 0c 81 bb 98 9e ea 3d ba 60 e7 bd be 96 24 be
       -0.0039382875 0.114560306 -0.11297746 -0.16073129

bias f4 [8]
000000 cc 5b 2a 3e 90 22 c1 bd 83 2d 63 3e 05 4a 9b bd
       0.1663658 -0.094304204 0.2218533 -0.075824775
000010 ef dd 42 3e 79 a5 d7 3a 5b 89 6c bd 47 70 90 be
       0.19029973 0.0016452513 -0.05774818 -0.2821066

weight_ih_l0 f4 [144, 8]
000000 cc 99 9f 3e 42 63 1c be b8 ef bf 3e d2 aa 2f 3e
       0.31172025 -0.15272239 0.37487578 0.17155007
000010 7d 9f aa 3e 3f c7 72 3d 64 41 5d 3e 58 da 86 3c
       0.33324805 0.059272047 0.21606976 0.016461536
000020 19 33 8a 3d e0 10 c5 bb b7 ff e1 bd 3d 69 46 3e
       0.06748027 -0.0060139745 -0.11035102 0.19376083
000030 49 6a 66 be 56 d5 d1 3d 2e cf 65 3b a2 2e e5 3d
       -0.22501482 0.10245769 0.0035066116 0.11190535
000040 a4 3d 52 3d 19 d9 20 3e 24 50 20 3e 5f 9a 79 bd
       0.051328316 0.15707816 0.15655571 -0.060938235
000050 90 6c 78 3e 0d 23 53 3e c7 5f 74 3e 30 73 1f be
       0.24260163 0.2061884 0.23864661 -0.15571284
000060 93 a7 8d 3d e4 2a 65 3d 4a 08 2b 3e 17 1b ee 3d
       0.06916728 0.055949107 0.16702381 0.11626261
000070 40 8a ea bd 6a 27 3c 3e e6 65 20 3e 24 dd 6d 3d
       -0.1145215 0.1837441 0.15663871 0.058072224
000080 2b 17 5b 3e 00 fa 3c bd 82 73 81 3e e0 c5 df 3d
       0.21395557 -0.046136856 0.25283438 0.109264135
000090 18 74 02 3d ae 7f a6 3d 8e af c7 3d 0a b5 db 3d
       0.031848997 0.08129822 0.09750281 0.1072789
0000a0 77 f6 26 bd 5d 73 0c 3e 0b fb a3 be 66 41 44 3e
       -0.04076239 0.13715883 -0.32027468 0.19165573
0000b0 8d e9 d1 bd b3 da 2f bd 62 40 e9 3d c1 3f 03 3e
       -0.102496244 -0.042933177 0.11389233 0.12817289
0000c0 d3 6b 0c 3e db 5a 9e bd 4c b6 46 3d 8d c2 c2 bd
       0.13713007 -0.07732173 0.048513696 -0.09509764
0000d0 ac b5 a3 3e 43 55 27 bd d2 26 05 3d fb da 1a 3e
       0.31974542 -0.040852796 0.032507725 0.15122597
0000e0 d3 24 05 3e 10 a8 da bd 26 a8 7b 3e ee 3b a2 3d
       0.13002329 -0.10676587 0.24575862 0.07921587
0000f0 d3 35 69 3e e1 36 4b 3e 4f 2a 62 3e 40 9e 55 3b
       0.22774439 0.19845153 0.22086452 0.0032595545
000100 c7 44 3b 3e 7e 3f d0 3d c3 86 73 bd cc 46 c9 bc
       0.18287955 0.1016836 -0.05945469 -0.024569891
000110 28 03 a7 bd 17 0c 27 bd a9 4f fb bc e1 29 28 3e
       -0.08154899 -0.040783014 -0.030677633 0.16422226
000120 70 9b 31 3e de a5 db 3d 02 49 01 3e 83 1b 1e 3c
       0.17344451 0.10724996 0.12625507 0.009650114
000130 d2 32 9e 3e 62 96 7f 3e f9 28 16 3e c3 86 1a 3e
       0.30898148 0.2495971 0.14664067 0.1509047
000140 80 06 ad 3d d3 d9 91 bd 28 f2 f2 3d 83 b5 8f 3e
       0.084485054 -0.07121625 0.11862594 0.2806817
000150 d1 ab 16 bc 7f ba 57 3d 16 85 2a 3e 68 55 9f 3d
       -0.009196238 0.05266809 0.16652331 0.07779962
000160 9e 5d e9 3d e0 80 81 bc d7 41 07 bd 22 6b 8d 3c
       0.11394809 -0.015808523 -0.033021774 0.017262999
000170 cf ac ed bd 8e 84 56 3e 4d 65 06 3e 14 56 6a 3d
       -0.11605226 0.20949003 0.1312458 0.057210997
000180 58 04 a2 bd 0b 3a da bd ee e1 0a be 35 90 2e 3e
       -0.07910985 -0.10655602 -0.13562748 0.17047198
000190 d0 5b 7d be bb d9 20 3d 2e f0 df 3d f7 90 02 be
       -0.24742055 0.039270144 0.109344825 -0.12750612
0001a0 19 be 47 3e ab 94 f5 bd e2 a9 eb bc f8 68 80 bd
       0.1950611 -0.11991247 -0.02876753 -0.06270021
0001b0 e6 d9 3c bd 7e ce 9f bd ba aa 1b 3e dc 8c 70 3d
       -0.04610624 -0.07803057 0.15201846 0.058728084
0001c0 3c 37 8c 3d fe 4b 22 be df a0 e3 bb fb 7b ce bd
       0.068464726 -0.15849301 -0.0069466676 -0.10082241
0001d0 9a f2 5c bd 0f 05 dd bc 3d 07 66 3e 90 7d 5e bd
       -0.0539423 -0.026979951 0.22463699 -0.054318964
0001e0 c1 d2 36 3e e3 f4 d4 bd 2a 59 71 3d d0 a1 8e 3e
       0.17853834 -0.10398271 0.058922924 0.27857828
0001f0 12 73 ac 3e 9a 3c 94 3d 81 03 94 3e 99 66 1f 3e
       0.33681542 0.07238121 0.28908923 0.15566482
000200 6c b0 2c 3e 86 0e 91 bd 09 9e f4 3d 71 e6 81 3e
       0.16864175 -0.07082848 0.11944205 0.25371125
000210 97 ab 72 3e f2 77 be 3d 16 89 b3 3e 34 30 41 3d
       0.23698269 0.093002215 0.35065526 0.04716511
000220 33 e9 9c 3e 0b f9 1e be d5 be 0d 3c 77 25 39 3e
       0.30646667 -0.1552469 0.008651455 0.18080698
000230 e3 a2 51 3e f4 4e 6b 3e 1c 6b 6c 3b 7a e4 d2 3d
       0.20472293 0.22979337 0.0036074584 0.10297485
000240 aa c6 56 3e 20 eb 6b 3d f9 02 22 bd c7 85 31 3e
       0.20974222 0.05759728 -0.039553616 0.17336188
000250 9f 9b b1 3d 68 fc 2c 3c 84 f4 f0 bc 78 a6 80 bc
       0.086722605 0.010558225 -0.02941347 -0.015704378
000260 df 57 19 bd 60 e7 9e bc 0c 95 54 3e 93 9d bf bd
       -0.037437316 -0.019397438 0.20759982 -0.09356227
000270 26 07 bd 3d 53 9c af bd 48 de f7 bd be 1f d5 bd
       0.09229879 -0.08574738 -0.12102944 -0.10406445
000280 b2 1a 4b 3e e0 95 f3 bd 99 91 e6 3d bd 7f bb 3e
       0.19834402 -0.11893821 0.11258239 0.36620894
000290 5d 75 5d 3e be a5 ae 3e 2a 53 bb 3d 0b 9a b0 bd
       0.21626802 0.34110826 0.09146722 -0.08623131
0002a0 7f 73 17 3e 59 a5 08 3e da 22 0a 3e 48 f9 ca bd
       0.14790152 0.13344325 0.13489857 -0.09910828
0002b0 86 64 8e 3d 44 93 8f bc 19 93 8f be 28 b4 ec bd
       0.06952767 -0.017526276 -0.28041914 -0.115577996
0002c0 c7 d6 d3 3d 60 70 2b bd bd 7d 6f 3e 32 24 88 3e
       0.103437 -0.041855216 0.23387809 0.26590115
0002d0 83 76 d6 3c 76 1c 39 3e 62 85 f2 3c 40 77 30 3d
       0.026179558 0.18077263 0.029604618 0.043082476
0002e0 f4 7c 0f bb 63 f4 b2 bd 87 a8 1e 3d 94 b9 a0 3e
       -0.0021894546 -0.08738019 0.03873494 0.31391585
0002f0 48 50 1e 3d 40 4f 8b 3d 8c 32 9d 3e c0 00 9b 3c
       0.03865078 0.06802225 0.30702627 0.018921256
000300 f3 5b 12 3e 50 eb 15 3d 65 7c 25 bd a1 f5 96 bd
       0.14292888 0.036601365 -0.040401835 -0.07371069
000310 aa 8e b6 bc 54 47 e8 bd d0 86 1c 3e ca ec bc 3d
       -0.022284824 -0.1134173 0.15285802 0.092248514
000320 fe 81 01 bd cc d1 58 3d 75 89 93 3d 85 25 4c 3e
       -0.03161811 0.052934453 0.07203952 0.19936188
000330 91 5e d9 3c 59 f9 4a 3e c2 e0 4a 3d 30 21 7a bd
       0.02653435 0.19821681 0.049530752 -0.061066806
000340 ab 11 46 3d 78 79 96 bd 70 3d 16 3e 52 39 f0 3d
       0.048356693 -0.07347387 0.14671874 0.11729683
000350 e0 1c 80 3d 3b 54 60 3e 95 85 86 3e 4c d2 73 3d
       0.062555075 0.21907131 0.2627379 0.059526727
000360 d8 6b 8d 3d ae 09 a2 bd cb 78 30 be c0 d8 69 3e
       0.06905335 -0.079120025 -0.17233579 0.2283659
000370 b3 54 be bd 85 ad 6d 3e 17 b1 4c 3e 90 85 52 bd
       -0.09293499 0.23210724 0.1998943 -0.051396906
000380 53 80 2c 3e 24 a8 68 3d 1f 04 52 3e b6 e7 f7 3d
       0.16845827 0.056800976 0.20509385 0.12104742
000390 e8 86 8a 3e 94 ab 6a bd 8f 13 39 bd ef 09 02 be
       0.2705605 -0.057292536 -0.04518467 -0.12699102
0003a0 23 ef 71 3d f0 84 c4 bd b7 46 a3 3c 0b ba 80 3d
       0.05906595 -0.09595668 0.01993118 0.06285485
0003b0 31 f0 58 bc a5 ed c5 3d e1 90 8d 3e 5c 6e 3c bd
       -0.01324086 0.09664468 0.27649596 -0.046003684
0003c0 97 9a 33 3e 88 22 ae bd e1 8d 1e 3e 87 8f 39 bd
       0.1753944 -0.0850268 0.1548381 -0.045302894
0003d0 14 ba b2 3c c4 11 e2 bd fa 91 eb bd da b0 de 3d
       0.021817245 -0.11038545 -0.11502452 0.108735755
0003e0 53 af 15 bc 30 c1 49 3d fa 77 69 3d 4c 9c 2f bd
       -0.009136039 0.049256504 0.056999184 -0.042873666
0003f0 b7 49 1d 3d 26 c1 89 bd dd 33 da bd 50 4d 40 3c
       0.038400378 -0.06726293 -0.106544234 0.011737183

weight_hh_l0 f4 [144, 36]
000000 2d 1f 10 3e e5 a3 a4 3e 23 0c 21 3d a5 da db bd
       0.14074393 0.32156292 0.039318215 -0.107350625
000010 37 8e 90 3e 1a 6a b7 be fe b7 af bd 74 21 c0 bd
       0.282335 -0.35823137 -0.085800156 -0.09381381
000020 40 7e 8f 3e 10 d7 93 3b 05 b0 df 3d 5f 43 9d be
       0.2802601 0.0045117214 0.10922245 -0.30715463
000030 e3 6e 4e bd 22 dc f6 3d d6 b8 b1 bd 88 0d a7 3d
       -0.05039872 0.12053706 -0.08677833 0.08156878
000040 75 f9 1e 3e c1 4d 25 bd 3c c0 b8 be 36 bf bd be
       0.15524848 -0.040357355 -0.36084163 -0.37059945
000050 c6 99 5c 3e ec 45 40 3e cb d0 1b be a2 ec 95 3d
       0.21543035 0.18776673 -0.15216367 0.07320525
000060 45 79 80 bd eb e4 51 be 1d 55 b7 bd 6a d2 7f 3e
       -0.0627313 -0.20497482 -0.08951781 0.2498261
000070 b8 f6 29 3e d9 da 54 bc b4 73 29 be c9 c6 b0 be
       0.16598022 -0.0129916305 -0.16548043 -0.3452666
000080 17 99 14 3c d8 4e 41 be c6 95 90 be 87 51 d7 3d
       0.009069703 -0.18877733 -0.28239268 0.10513597
000090 45 b5 66 3e ee 77 2c 3e 73 9c 89 bd 3b 5e c0 bc
       0.22530086 0.16842625 -0.067192934 -0.023482433
0000a0 c7 b9 39 3e 8a 5d 31 be 93 e0 56 be 33 82 54 be
       0.18137275 -0.17320839 -0.20984106 -0.20752792
0000b0 c3 61 57 3c 05 31 af bd 10 71 9e bd 78 98 12 3b
       0.013145867 -0.085542716 -0.07736409 0.002236871
0000c0 f9 43 d4 bd 2e c1 a5 3d 9b 95 01 be 24 5b a4 3d
       -0.10364527 0.08093487 -0.12654726 0.08025196
0000d0 14 af d6 3c d3 56 bb 3c 04 98 cf 3d 4f 39 70 bc
       0.02620653 0.02286855 0.101364166 -0.014662101
0000e0 81 c1 46 3e 8a 6a 83 bd d5 ec 34 3e 7d 56 52 3d
       0.19409753 -0.06416805 0.17668469 0.051352013
0000f0 77 68 fe bc f6 44 41 be 45 f9 66 3b bb da 1e 3e
       -0.031055672 -0.18873963 0.003524379 0.15513127
000100 13 74 a9 bd be b0 bf 3d 2a f3 17 3c db 43 3c 3d
       -0.082740925 0.09359883 0.009274283 0.04596315
000110 61 8c f9 bc bb 00 ed bd 63 e4 6c bd 35 d4 c3 3d
       -0.030462446 -0.11572405 -0.057834994 0.0956196
000120 5f 22 19 bc 13 ad 84 3d 91 71 17 bd fd eb 0a 3e
       -0.009346574 0.06478324 -0.03697354 0.13566585
000130 5f 63 8a bd 61 03 b0 3c e5 ea 6b 3e 82 ae 4e bd
       -0.06757235 0.021485986 0.23038824 -0.050459392
000140 cd 2a 66 bc c8 f4 01 3e e7 b9 a1 bb 7f 26 25 3d
       -0.01404829 0.12691033 -0.0049354914 0.040319916
000150 fe eb a1 3b be e5 4b 3e 39 87 28 3e 29 9a 0a 3e
       0.0049414625 0.19911858 0.16457833 0.1353537
000160 51 d1 a4 3c 1a 9b e2 bd cc 82 a2 bd 2b a2 c7 bd
       0.020119341 -0.110647395 -0.07935104 -0.09747728
000170 0b 0f 2f 3b 6e a6 8a 3e e2 da 97 be 6e d6 af bd
       0.0026711847 0.270801 -0.29659182 -0.08585821
000180 67 19 80 bd 63 8c 07 3e 54 d8 ad 3d a2 03 a1 3b
       -0.06254845 0.13237147 0.08488527 0.004913763
000190 0f 23 33 3e 37 fb 85 bd 74 1f f8 bd f3 01 86 be
       0.17493843 -0.06542056 -0.12115374 -0.26173362
0001a0 5c d1 24 3e 27 c2 11 be c8 34 7e 3d d2 89 de bd
       0.1609549 -0.1423422 0.062062055 -0.10866131
0001b0 c5 67 16 be 8c 2c f0 bd f1 a8 21 bd a1 94 1b 3e
       -0.14688022 -0.11727247 -0.039467756 0.15193416
0001c0 10 bf f1 3d 11 1a 32 bd cd eb 93 bd e5 12 30 3b
       0.118040204 -0.04348189 -0.0722271 0.002686673
0001d0 46 e1 ca 3d 65 ba 01 bd 9e 34 58 bd 41 33 a1 bd
       0.09906249 -0.0316719 -0.052784555 -0.07871104
0001e0 e1 93 2a bd 32 1d c4 3c ae 36 fe bd a5 e2 c1 bd
       -0.041644935 0.023939703 -0.12412773 -0.09467057
0001f0 30 84 d5 bd ef 63 c2 bc 3f a8 28 be c1 ed f9 bd
       -0.104256034 -0.023729293 -0.16470431 -0.12203551
000200 4d a9 b3 3d f7 cd 19 be d2 d5 cc 3d 9f 57 30 3e
       0.08772526 -0.15019976 0.100017205 0.17220925
000210 bf b3 33 3d 54 19 10 be af 31 37 3d 90 8d 0e bd
       0.04387259 -0.14072162 0.044725116 -0.034802973
000220 81 96 b3 3d 8f 1f 51 3d 7c 46 2f be 92 79 0c 3e
       0.08768941 0.051055487 -0.17116731 0.1371825
000230 ea 46 fa bc f1 53 c6 3d 9c d6 8d bd f4 0a bb 3d
       -0.030551393 0.09683979 -0.06925699 0.091329485
000240 00 9f 53 3d ef 5e cb bc 9c 1f 2d bd ec f6 92 3d
       0.051665306 -0.024825541 -0.042266473 0.07176003
000250 74 00 5a 3e 8a bb 4c be 11 81 2b be a7 85 94 3d
       0.21289235 -0.19993415 -0.16748454 0.07252055
000260 fd bc 48 3e be 72 03 bd c8 04 32 3e 20 cf 2b be
       0.19603343 -0.03209185 0.17384636 -0.1677823
000270 79 77 46 be 01 f2 95 bc eb bb 14 3d ed 54 cc bd
       -0.19381513 -0.018303873 0.036312025 -0.09977136
000280 b7 c0 d9 bd 02 5f 14 3e 14 86 07 be b8 0e 14 3d
       -0.106324606 0.14489368 -0.1323474 0.03614685
000290 14 2a a6 bd f3 25 12 3e 06 e7 2b be 7e 34 e0 bd
       -0.081134945 0.14272289 -0.16787347 -0.10947512
0002a0 00 76 b1 3c 64 3e 60 bd e2 a6 14 3e 7c 51 9a 3b
       0.021662712 -0.054747 0.14516786 0.0047094207
0002b0 0e 02 58 bc 4a 4c 25 bc ee 29 36 be 46 ed 4f be
       -0.013184084 -0.0100889895 -0.17789432 -0.20305356
0002c0 72 f7 9d bd d2 af 02 be 38 1e b8 3c e4 5e 56 bc
       -0.07713212 -0.12762383 0.022475347 -0.013084147
0002d0 2f b7 1a 3e 37 ec 85 3d a8 c6 cb bd 7e af 1a 3e
       0.15108941 0.06539195 -0.0995 0.15106007
0002e0 d4 48 00 3e fc 2e d8 3b 94 e2 e4 bc bb ac 26 be
       0.12527782 0.006597398 -0.027940072 -0.16276829
0002f0 55 6b 87 bd 8e 5d c3 3c 51 38 8b bd 90 6b 82 3d
       -0.06612269 0.023848321 -0.06797851 0.06368172
000300 9a 45 8b bd 75 d5 99 39 d6 72 f1 3d bb d1 b1 bd
       -0.06800385 0.00029341472 0.11789481 -0.08682581
000310 c8 82 b8 3c 1a b3 cc bd 83 de cd 3d 60 c6 28 3b
       0.022523299 -0.099950984 0.10052206 0.0025753006
000320 77 aa 4b 3e 1e de 27 3e 45 45 84 bd 74 c9 ce bc
       0.19889246 0.16393325 -0.064585246 -0.025242545
000330 41 97 15 bd 92 18 35 3d 2e c5 03 be d3 2d ae 3d
       -0.0365212 0.044212885 -0.12868187 0.08504834
000340 41 04 ad 3b fe ae 0e 3e 5c 60 d2 bd 5f f6 be bc
       0.005280048 0.13933942 -0.10272285 -0.023310838
000350 44 7e d7 3d 2a 08 4c be 5a 78 29 bd cb 0e c5 bd
       0.1052213 -0.1992499 -0.04137454 -0.09621962
000360 04 d4 0d 3e bb 15 87 ba 46 99 27 3e d4 6a c5 3d
       0.13850409 -0.0010306159 0.16367063 0.096395165
000370 4e ab 9a 3d 99 c1 1c be f9 55 82 bd f5 57 f9 3d
       0.07552205 -0.15308227 -0.06364054 0.121749796
000380 7e 1c bc bc c2 50 43 be 8c ff 44 3e da 00 37 be
       -0.022962805 -0.19073775 0.19238108 -0.17871419
000390 88 f7 20 be a7 85 99 bd 6f 40 90 bd 82 c8 e1 3d
       -0.15719426 -0.07496195 -0.0704354 0.11024572
0003a0 b6 13 8f bc 42 a9 10 be eb b0 ac bd 27 8c 65 3d
       -0.017465454 -0.14127067 -0.08432182 0.056041863
0003b0 bf 46 18 3e b5 61 36 3e ed 54 bc bd 79 73 06 3e
       0.14870737 0.1781071 -0.09195886 0.13129987
0003c0 55 bb 26 be 19 d4 cb 3c 91 0a ee 3d 0a 62 36 3e
       -0.16282399 0.02488141 0.11623109 0.17810836
0003d0 14 78 2d 3d 7e 2d 87 3d 02 c8 f0 bd 4d 42 e6 3d
       0.042350844 0.06600474 -0.117568985 0.112431146
0003e0 9b bd ca 3c 5e 54 eb bd f1 3a 2f be bd 7e f1 3d
       0.024748614 -0.11490701 -0.17112328 0.117917515
0003f0 c1 bd 5b 3a 84 05 16 3e 26 65 19 3d 83 4f 23 be
       0.00083824625 0.14650542 0.03744998 -0.159483

bias_ih_l0 f4 [144]
000000 64 44 b5 3e 80 32 73 bd aa 0f 09 3e 09 b3 dc 3d
       0.3540374 -0.059374332 0.13384882 0.10776336
000010 72 7e e2 bc ed ee 09 3e 82 a0 80 bd a3 a7 49 3e
       -0.027648184 0.13470049 -0.062806144 0.19692855
000020 95 cc 17 3e b0 0f 76 3e 76 cd 9b 3e 25 79 f0 3d
       0.14824136 0.24029422 0.30430192 0.117418565
000030 1b 35 0e be 91 71 82 3d 0c 10 e9 bd ca 5f af 3e
       -0.13887446 0.06369317 -0.11380014 0.3425277
000040 55 b1 22 3e ee 59 60 3e 7e ef 82 3d ce a5 f3 bd
       0.1588796 0.21909305 0.06393336 -0.11896859
000050 fd 22 be 3e c8 13 f8 3d 66 70 af bb b5 4f 71 3e
       0.3713607 0.12113148 -0.005353975 0.23565562
000060 bd c2 10 3e ad 9b fe 3d da 81 6e 3e 21 54 2c 3e
       0.14136787 0.124320365 0.23291722 0.16828968
000070 78 38 a2 bd b7 d8 10 3d 41 9e d9 3d 77 c0 46 bd
       -0.07920927 0.035362925 0.10625888 -0.048523393
000080 db 85 f2 3d 5e df b9 bd 85 33 c2 3d 4b cc 51 3e
       0.11841937 -0.09075807 0.09482483 0.20488088
000090 75 79 7f be 7c 83 0b 3e 95 7b 5d 3d 78 10 09 be
       -0.24948676 0.13624376 0.054072935 -0.13385189
0000a0 52 8c 5d bd 9c e6 0b be 0c f6 fe bd cb 62 6f be
       -0.054088898 -0.13662189 -0.124492735 -0.2337753
0000b0 fe cf 9d bd 6c bb 7c bd 03 26 19 be 4f d8 9c 3d
       -0.07705687 -0.061702177 -0.14955907 0.07658445
0000c0 56 f2 3f bd e1 34 85 bc 6c 9d 11 3e c8 bd cf bc
       -0.04686197 -0.016260566 0.14220208 -0.02535905
0000d0 c3 25 22 be bb a0 68 bd 53 31 4c bd 81 39 21 3e
       -0.15834717 -0.05679391 -0.049851727 0.15744592
0000e0 0f b3 ea bc 03 b0 8a 3d 71 ff 79 bd 3c a7 ef 3c
       -0.028649835 0.06771853 -0.061034624 0.029254548
0000f0 a9 43 38 be a4 9f a5 3d f0 d3 4d be da fa d3 bd
       -0.1799456 0.0808709 -0.20100379 -0.103505805
000100 1a 4f db bd 7e b1 bb 3d ed fd b4 bd e0 f3 86 bd
       -0.10708447 0.09164713 -0.08837495 -0.06589484
000110 92 3d 9c 3d 8a 14 46 3b be 23 32 3e 86 6c dc bd
       0.07628931 0.0030224645 0.17396447 -0.10762887
000120 51 38 92 3d e4 8b 1f 3d ca 72 fd 3d 0a b2 80 bd
       0.07139648 0.03895177 0.1237541 -0.06283958
000130 c5 af 09 be cf 95 e6 3b 69 58 d9 3d 79 1e 87 bd
       -0.13445957 0.0070369015 0.10612566 -0.06597609
000140 70 4f 48 3d 91 2e bc bd 47 4a 17 3d c3 5b 8c 3d
       0.048903883 -0.09188569 0.03693607 0.0685344
000150 f2 51 3c 3d 33 9e 4d 3d bb bd 11 bd 6c 8c ce 3d
       0.045976587 0.0501997 -0.03558133 0.10085377
000160 fa 70 07 3e 67 d8 e2 3d 94 c8 aa bd 99 8f b6 bd
       0.13226691 0.11076432 -0.083390385 -0.08914108
000170 87 b6 cd bc 35 7a 86 bc 5d 98 ae 3b ee ba 7a 3d
       -0.02511145 -0.016415695 0.0053282217 0.061213426
000180 ee d5 c7 3c 0a 4d 33 be 7c 41 64 bd fa 23 3d 3d
       0.024394002 -0.17509857 -0.055726513 0.046176888
000190 63 51 fd 3d b8 08 e7 3d 51 22 0a be 6e 30 ea bd
       0.12369039 0.1128096 -0.13489653 -0.114350185
0001a0 9b 65 c1 3c 93 7e d7 3c d4 7c c8 bd 01 3e eb bd
       0.02360802 0.026305472 -0.09789434 -0.11486436
0001b0 07 ef b0 3e 9d a5 8e 3d ad 3c 6c 3e be c6 66 3c
       0.34557363 0.06965182 0.23070021 0.01408547
0001c0 0c 47 43 3e 0b 95 b4 3d 54 fa 10 3e 23 95 34 3e
       0.19070071 0.0881749 0.14157993 0.17635016
0001d0 11 20 ae bc b9 3e 86 3d 15 24 2d 3d 6a f0 dc bd
       -0.021255525 0.06554932 0.04227074 -0.10788043
0001e0 8b 36 00 3e 48 5d 71 3d 96 d8 2a bd 1f a6 42 3e
       0.12520806 0.05892685 -0.04171046 0.19008683
0001f0 81 98 21 3e 75 6f e1 3d fe 38 56 bd ce c8 b7 bd
       0.15780832 0.11007587 -0.052300446 -0.08973847
000200 76 1b c1 3e d9 ae 1a 3e b2 af 80 3e 9a 2e 70 3e
       0.37716264 0.15105762 0.25134045 0.23455277
000210 98 41 b6 3d c9 75 18 bd 7d f6 83 3e 88 82 a6 3d
       0.0889923 -0.037221704 0.25773993 0.081303656
000220 d9 71 36 3e ea 62 2b 3e 62 25 5e bd 08 a7 63 3d
       0.17816867 0.16736951 -0.05423487 0.055579215
000230 71 fe 95 bb 18 6f aa 3d a3 a6 f8 bd 24 2e 2d 3d
       -0.004577451 0.08321971 -0.121411584 0.04228033

bias_hh_l0 f4 [144]
000000 dc f3 af 3e 20 44 65 3c 44 d5 96 bb 7e ea f0 3d
       0.34365737 0.013993293 -0.00460306 0.11763476
000010 63 ae 12 bc 51 11 82 bd f5 be bc bc 25 44 85 3e
       -0.00895271 -0.06350959 -0.023040274 0.26028553
000020 cf 19 17 3e b7 2e 5e 3e 56 99 c6 3c 7d 19 0a 3e
       0.14755939 0.21697508 0.024243038 0.13486286
000030 08 84 65 bd bb b8 f4 bc 38 11 1e 3c d1 e4 6a 3e
       -0.056034118 -0.029873243 0.00964766 0.22938849
000040 37 05 88 3d d8 97 00 3c 0b 80 fc 3d 42 35 c3 3d
       0.0664162 0.007848702 0.1232911 0.095316425
000050 79 ae d2 3d 8c af 28 3d ce 40 17 3e 1a 3a 01 3e
       0.10287184 0.04118304 0.14770815 0.1261982
000060 2a 2c 1e 3e 8b 90 fb 3d 3d 20 ab 3e 8d 73 20 3e
       0.15446535 0.12283429 0.33423033 0.15669079
000070 3f 0b 2a 3e 9f 9c 7e 3e b2 5c fd bc 71 46 32 3e
       0.16605853 0.24864434 -0.03092799 0.17409684
000080 9e 31 1a 3d 4f d3 77 bd af 45 97 3d 86 f2 57 3e
       0.037644975 -0.060504254 0.07386338 0.21088609
000090 c3 61 88 bb 33 fd b7 bb a6 9c c9 bd 2b 15 27 be
       -0.0041620447 -0.0056149005 -0.098443314 -0.16316669
0000a0 5a e1 17 3e 72 d5 e0 bd 9b 5b 57 bc de 34 c5 bd
       0.14832059 -0.109782115 -0.013144399 -0.09629224
0000b0 ad 4b a9 bd bb 22 6c be c1 df ed bd 31 a3 01 3e
       -0.08266387 -0.23060124 -0.11614943 0.12659909
0000c0 3a dd 0a be 99 f8 2e 3e 59 e4 b1 3d 41 33 42 bc
       -0.13560954 0.1708702 0.08686132 -0.01185304
0000d0 c0 c5 46 be 30 d1 1d be 44 af 59 3d 89 98 a8 bc
       -0.19411373 -0.1541183 0.053145662 -0.020580547
0000e0 f2 3b 49 be 2b a2 e1 bd bc 8b a4 3b 1d 5c 40 be
       -0.19651774 -0.11017259 0.0050215404 -0.18785138
0000f0 f4 ca 33 3d 36 4d e3 3d 16 ae c3 bd 68 07 2f bd
       0.043894723 0.11098711 -0.09554689 -0.042731673
000100 ee d1 db bc 26 2f bc 3c 9d b9 b4 bd 0c be e9 3d
       -0.0268335 0.0229717 -0.088244654 0.11413202
000110 f7 0b 30 be c5 14 20 3e 10 5a 14 bd d6 16 04 3d
       -0.17192064 0.15632923 -0.036218703 0.03224834
000120 82 b7 2c be fe 3f 15 3e c9 b2 cb bd ef 12 ff bd
       -0.16866878 0.14575192 -0.0994621 -0.12454783
000130 1b 15 5e 3d 83 73 bd 3c 47 b0 0d be 94 cf 88 bc
       0.054219346 0.02312637 -0.13836776 -0.016700543
000140 3f 76 ae 3d db ca 07 3e 54 bc 10 3d 1e 8a f8 bd
       0.085186474 0.13260977 0.035335854 -0.12135719
000150 3d 54 0d be 12 c1 15 3e a2 ca 71 3d ec 6c d9 bd
       -0.13801666 0.14624432 0.059031136 -0.10616478
000160 c2 d2 64 bd a1 51 d7 bd 94 4f 1b be 5e 9c b5 bd
       -0.055865057 -0.10513616 -0.15167075 -0.08867715
000170 9d 7e 91 3d e9 21 24 3e dd 30 d1 bd 31 68 d9 3d
       0.07104228 0.1602856 -0.10214398 0.10615576
000180 69 d7 2b bd 3d 87 87 3a b6 38 8c bc 1e 2c f2 bd
       -0.041953478 0.0010339987 -0.017116886 -0.11824821
000190 4b dc 96 bd 6b 3e 28 3d c0 c9 34 be 83 d9 b8 3d
       -0.07366236 0.04107515 -0.17655087 0.09025862
0001a0 9e c4 cd 3d f4 ec ae bd 04 96 88 3d 35 b0 05 3e
       0.100472674 -0.08541289 0.06669238 0.13055499
0001b0 ce f0 a9 3e 02 6c 32 3e 8e 0b 05 3e b8 e9 27 3e
       0.33191532 0.17424014 0.12992689 0.1639775
0001c0 f6 13 10 3e 37 8a c9 bb 69 45 c0 bd 76 43 9b 3e
       0.14070114 -0.0061505097 -0.09388239 0.30324906
0001d0 71 41 d5 3c 9e 19 e4 3d 0c 6a 7c 3e 5b 85 50 3e
       0.026032181 0.111376986 0.24649829 0.20363371
0001e0 e8 ec e4 bd ce 98 1b 3e a3 9e bd 3d 19 36 ae 3e
       -0.11177999 0.15195009 0.09258773 0.34025648
0001f0 cb c7 b2 3e 54 34 2b 3e ea f5 63 3e 51 88 94 3d
       0.34918055 0.1671918 0.22261778 0.07252563
000200 dc e0 23 3e 2f 02 48 3e 3d dd 1f 3d 9d a0 29 bd
       0.16003746 0.19532083 0.03902935 -0.04141294
000210 62 7c c8 bd a7 69 ac bd ce 96 74 3e 46 fd 87 bc
       -0.09789349 -0.08418589 0.23885652 -0.016600262
000220 f8 0b 00 3e 19 56 74 3e e5 c6 5b 3e 42 39 ee 3c
       0.12504566 0.23860969 0.21462591 0.029080037
000230 0a 6b a6 3d 7a a8 ee bd 7b 09 bc 3d 51 d6 c7 3d
       0.08125885 -0.11653228 0.09181496 0.097576745

weight_ih_l1 f4 [144, 36]
000000 ab 85 bc bc 9a b7 4d 3d 37 90 cf 3d 31 dc 96 3d
       -0.023012957 0.050223924 0.10134929 0.07366217
000010 25 3c 2d 3d 2c b7 6f be 9c 75 c7 bc de b1 74 bd
       0.042293686 -0.23409718 -0.024348073 -0.05973994
000020 6e e6 0d 3e 9b 53 18 3e ca db 6b 3e 35 4d 1b be
       0.13857433 0.14875643 0.23033062 -0.15166171
000030 c0 61 33 bd f1 e1 b8 3d 34 06 59 3c 18 0f a5 bd
       -0.043794394 0.0902747 0.013246108 -0.080595195
000040 11 9e b9 bd d5 28 0d be 85 33 e0 bd 9f 45 fa bc
       -0.09063352 -0.13785107 -0.109473266 -0.030550776
000050 bb 7b 36 3e 42 e5 83 3c 11 23 02 be 4f 58 9c 3d
       0.17820637 0.01610053 -0.1270869 0.07634031
000060 47 13 16 bd fc 7e 14 bb c7 59 83 bc 32 b4 42 3c
       -0.036639478 -0.0022658696 -0.01603402 0.011883782
000070 94 3a 11 bc 4f 9c 18 3e 48 03 f5 bd 7f 78 e6 bd
       -0.008864064 0.14903377 -0.119635165 -0.112534516
000080 7c ab aa bd 2d 28 3f be 22 24 4f be b9 4e 2f be
       -0.08333489 -0.1866767 -0.20228627 -0.17119874
000090 67 3d 2f 3e 60 9f 16 3e 25 42 68 bd f7 d0 00 3c
       0.17113267 0.14709234 -0.056703705 0.007862321
0000a0 61 5c 16 be 69 e3 c9 bd d5 99 49 3c 3d 40 40 be
       -0.14683677 -0.09857828 0.012304743 -0.18774505
0000b0 e2 32 f7 bd c3 ac 9e be f6 f2 41 3e 48 85 a0 3d
       -0.12070252 -0.30991182 0.18940338 0.078379214
0000c0 cc 2b 97 bc 15 dc 03 be 65 98 9c bc aa aa 60 be
       -0.018453501 -0.12876923 -0.019115636 -0.21940103
0000d0 95 3f 4e 3e f4 fc 73 3d e8 dc 1a be af 52 00 3e
       0.20141442 0.059567407 -0.15123332 0.12531541
0000e0 83 bf 87 3d 9b 35 a7 bc c2 cb a0 3d 95 72 cb bc
       0.06628325 -0.020411303 0.07851364 -0.02483491
0000f0 6b 04 2f be 0c dc 99 3d b6 c7 2a 3e 8c 55 d6 bd
       -0.17091529 0.07512674 0.16677746 -0.104655355
000100 37 cb 09 3e f5 f3 0b 3e 4f ea 43 be fa 79 60 3c
       0.13456427 0.13667281 -0.1913235 0.0137009565
000110 2d 37 7f 3d da eb 55 3d 5d 66 af 3c 6f a3 3e 3e
       0.06230848 0.05222688 0.021411115 0.18617032
000120 76 7a d6 3c 86 c0 15 bd 53 64 00 be 07 4a e0 3d
       0.02618144 -0.036560558 -0.1253827 0.109516196
000130 f8 5d c3 3d c3 09 84 bd 9a 32 8a bd be b7 3b bd
       0.095394075 -0.064471744 -0.06747933 -0.045829527
000140 e1 ef b8 bd b2 2d af bd 33 30 f6 3d 25 8c fa bd
       -0.09030128 -0.085536376 0.12020912 -0.12233762
000150 06 18 28 be e4 d8 bc bd 4e 7d 87 bd a2 6e 0a be
       -0.16415414 -0.09221056 -0.06615697 -0.13518766
000160 a7 a5 01 3e ab 8c 1d 3d 02 c7 19 be 8a 59 34 be
       0.12660848 0.03846423 -0.15017322 -0.17612281
000170 2a b0 1d 3e f3 03 04 3e 96 ca 17 be 20 b9 ad 3d
       0.15399233 0.12892132 -0.14823374 0.084825754
000180 31 94 14 be e5 79 05 bd 33 6b 1b 3e 8e 0d e6 3b
       -0.14509656 -0.03258695 0.15177612 0.007020659
000190 4e 4c f2 bc ee 44 9c bc fc 2f ef bc ca b2 8f bd
       -0.0295774 -0.019075837 -0.029197685 -0.07016523
0001a0 85 fa 2a 3e 63 a9 ff 3d 83 53 d6 bd 49 e7 f2 3d
       0.16697128 0.1248348 -0.10465147 0.118605204
0001b0 da de 06 3e b4 27 0b 3e 8e 82 37 3d 8e 06 97 3c
       0.13170949 0.13589364 0.04480224 0.018435743
0001c0 e4 00 84 bd e7 05 47 bd b1 f3 1d be 9c 8c 4a be
       -0.064454824 -0.048589613 -0.15424992 -0.197802
0001d0 1f b6 29 3e e8 03 72 bc 13 8a 13 3e 38 05 12 3d
       0.1657338 -0.014771439 0.1440814 0.03564951
0001e0 d4 5c 9c 3d 68 40 f5 3b ed ca 00 be 75 24 74 bd
       0.07634893 0.0074844845 -0.1257741 -0.05960508
0001f0 13 c5 df 3d 26 7e 0b 3e 59 85 a3 bc de 64 03 be
       0.10926261 0.1362234 -0.019961046 -0.12831447
000200 5b bd 71 bd e0 3c 07 3b 3d 7c 76 3d 32 31 b9 3d
       -0.059018474 0.002063565 0.060177077 0.090425864
000210 05 0e a2 3d 8a 40 0b be 63 99 fa bc 21 85 0a 3e
       0.0791283 -0.13598838 -0.030590719 0.13527347
000220 83 01 5e 3e d2 d6 c1 3d d5 10 97 bd 69 85 e1 bd
       0.21680264 0.09464802 -0.07376257 -0.11011774
000230 c8 5d 9c bd d3 bd da bd a7 b3 a1 bc 88 09 19 3d
       -0.07635075 -0.10680737 -0.019738985 0.037362605
000240 ab e6 55 3e 88 1f f8 3d e8 43 cf bd 31 4f e6 3d
       0.20888774 0.12115389 -0.10120374 0.11245573
000250 de 10 9e 3b 50 37 88 bd c0 ce da 3d e2 8f 7b bd
       0.004823788 -0.06651175 0.10683966 -0.061416514
000260 fd 2a 2d 3e 13 0e 18 3d 6a 53 15 3e aa 6f bf bd
       0.1691093 0.037122797 0.14582601 -0.0934747
000270 07 4a 0f 3d 9b c4 fb bd 21 8d 4e bd a8 47 ac bd
       0.034982707 -0.12293359 -0.05042756 -0.08412105
000280 94 23 ae 3d b1 48 4e 3d 03 ed 46 be da 8c 3e 3c
       0.0850288 0.050362293 -0.1942635 0.011630261
000290 0f b7 74 3d 88 9d 37 3d 72 c1 14 bd 3c ac 62 3d
       0.05974489 0.044827968 -0.036317296 0.055340037
0002a0 dc bc 40 3d cc f0 a7 bc b5 58 0f bd 99 f4 ab 3b
       0.04705511 -0.020500563 -0.034996707 0.005247664
0002b0 cf e4 36 3e c7 6c d7 bd 46 f5 65 bc 52 8d 8d bd
       0.17860721 -0.105187945 -0.0140355285 -0.0691172
0002c0 25 92 ce 3d 6b f8 11 be 64 96 54 bd a9 29 71 3b
       0.100864686 -0.1425492 -0.051901236 0.0036798513
0002d0 5c 63 a8 bd ee 26 92 3e d3 8c 3c bc a1 79 79 3c
       -0.08222076 0.28545326 -0.0115081845 0.0152267525
0002e0 b2 28 97 3e fc 84 bf bd 11 31 3a 3e c4 c1 56 3e
       0.29523236 -0.09351537 0.1818278 0.20972353
0002f0 a2 e9 25 3e ae 98 3e 3d 0a 3b bd bc eb f4 54 bd
       0.16202405 0.046532325 -0.023099441 -0.051991384
000300 cd 84 18 3e f1 70 73 3e ee 69 64 3e d1 57 67 3e
       0.1489441 0.23773552 0.22306034 0.22592093
000310 04 31 df bd 33 d6 76 be 9a c6 56 be 5d 64 2d be
       -0.10898021 -0.24105148 -0.20974198 -0.16932817
000320 2b 0d b7 bd 8b d5 27 3e b1 2b 5d be e3 7d 15 3c
       -0.089380585 0.16390054 -0.21598698 0.009124252
000330 1c 80 46 3e 29 7a a7 bb d0 59 b0 3d 92 39 e0 bd
       0.19384807 -0.005110998 0.086108804 -0.10948481
000340 ce ea 54 3d 41 81 2d bd e0 bd e8 bc 22 9f 8c 3d
       0.05198174 -0.042359594 -0.028410852 0.0686629
000350 4e 1d 80 bd 1e fa b2 3d 7d a7 a7 bd cb e1 ee 3c
       -0.062555894 0.08739112 -0.08186243 0.0291604
000360 7f 5c 9d bd 6a 94 c3 3d 90 fe 38 bc 07 bc 98 3d
       -0.07683658 0.09549792 -0.011291161 0.07457738
000370 0c 07 18 3e a0 f8 09 be 7f b0 13 be 44 4d 16 3d
       0.14846438 -0.13473749 -0.14422797 0.03669478
000380 9e 52 02 3e c2 38 bf 3d 27 45 a1 3d e8 5b d3 bd
       0.12726828 0.093369976 0.07874518 -0.10320264
000390 82 a8 bb bd b2 e8 91 3d b7 d2 0a 3d d9 85 2e bc
       -0.09163 0.07124461 0.03389236 -0.010652029
0003a0 b6 82 7d be eb 43 1a be be 37 f3 bd 9b 5e 08 be
       -0.24756894 -0.15064971 -0.11875866 -0.13317339
0003b0 d1 61 9b bd f0 3c ad bd 5d 20 26 be b6 0f 5c bd
       -0.075870164 -0.084588885 -0.16223283 -0.05372592
0003c0 ac 1d 88 bd 57 d1 01 be 5d 99 fb 3c 51 03 0b 3e
       -0.066462845 -0.12677513 0.030712778 0.13575484
0003d0 40 82 58 3e cb f0 c9 3d a0 c4 a8 3b ad 3e 4c be
       0.21143436 0.09860381 0.0051503927 -0.19945784
0003e0 a0 c7 32 bd 86 cd 18 be 71 f0 87 3d ab ba a0 3d
       -0.04364741 -0.14922151 0.066376574 0.07848104
0003f0 85 65 3e be 8c ba c4 bb 2e a0 e6 bd 3d 38 51 3d
       -0.18593414 -0.0060036834 -0.112610206 0.051079024

weight_hh_l1 f4 [144, 36]
000000 73 59 1d bb 33 8d 95 3e df f6 84 3e 95 1f aa be
       -0.0024009615 0.2920929 0.25969598 -0.3322722
000010 bf 35 8f 3e fe 13 14 3d eb 51 19 be 7f d0 99 bb
       0.27970693 0.03615188 -0.14972655 -0.004694044
000020 05 4d 6d bd 50 01 a0 3e 11 c9 9e 3e 45 e8 17 3d
       -0.05793478 0.31251 0.31012776 0.037086744
000030 33 1e 09 3e a5 3a 3d 3d fc 69 f9 3d 9e f7 94 3e
       0.13390426 0.046198506 0.12178418 0.29095167
000040 fc 8c f2 bd c9 53 71 be 38 dc e2 bd 7e 65 4b 3e
       -0.11843297 -0.23567118 -0.1107716 0.19862935
000050 e0 5b 43 3e 2c 90 91 3c cc 47 97 3e 8e 60 ff bd
       0.19078016 0.017768942 0.29546964 -0.12469588
000060 58 b6 a9 be e1 cb 3f 3e 98 1c 43 be 85 d0 37 3e
       -0.3314693 0.18730117 -0.19053876 0.17950638
000070 06 a7 31 be 70 50 8b 3d ab 93 08 be cd 69 2c bd
       -0.1734887 0.068024516 -0.13337581 -0.042093087
000080 06 90 90 3e ef 29 98 3d 51 52 39 be b7 fd 6b bd
       0.2823488 0.07429873 -0.18097807 -0.05761501
000090 5e 53 88 bd 9f 14 cd 3d c1 44 1a 3e 8b 4c 98 3c
       -0.06656526 0.10013699 0.1506529 0.018591186
0000a0 37 10 b6 bd be 45 c9 3d 67 86 ba 3d 11 ab 7e 3d
       -0.088898115 0.098277554 0.091076665 0.06217486
0000b0 63 b1 32 3c 80 63 16 3e 94 b4 e1 bd fb 6c 5d 3d
       0.01090655 0.14686394 -0.11020771 0.05405901
0000c0 d4 f1 29 3e 64 25 b4 3d 29 ec 17 be 01 0f 08 3e
       0.16596156 0.08796194 -0.14836182 0.13286974
0000d0 24 42 f4 bd b1 cf f9 3d b9 de d1 3c a6 13 84 bd
       -0.11926678 0.12197817 0.025618898 -0.0644906
0000e0 e8 6d 39 3d 95 df b7 3c 7a ea b0 3d 08 ca 58 3d
       0.04527083 0.02244548 0.08638473 0.052927047
0000f0 f5 a6 cc bd 48 83 bf 3d 98 bf 66 3d de 5c 25 3e
       -0.09992782 0.09351212 0.05633506 0.16148707
000100 69 fc 24 bc 45 f0 1b be 13 7c f5 3c fd 61 c5 bd
       -0.010069945 -0.15228374 0.02996639 -0.096378304
000110 49 e1 3c 3a 71 39 b8 3d f9 f6 24 3c f3 91 ba 3c
       0.0007205201 0.08995331 0.0100686485 0.022774672
000120 2e 16 11 3e 1c a4 e7 3d b6 55 dd 3b 63 e4 7f bb
       0.14168617 0.11310598 0.0067546023 -0.0039046041
000130 fe 59 ea 3d 35 7f 1e 3d 75 27 ef 3d 93 1d 0a 3e
       0.11442946 0.038695533 0.11677448 0.13487844
000140 15 de 95 3c 4f a6 03 be e3 ab be 3d d5 b0 c1 bd
       0.018294374 -0.1285641 0.093101285 -0.09457556
000150 12 6a 25 3e 67 71 39 be ca 08 a6 3c 3b bb fc bd
       0.16153744 -0.18109666 0.020267863 -0.12340399
000160 7d 20 3c 3e 39 22 f5 3d a2 78 88 bd 08 c6 ea 3d
       0.18371768 0.11969418 -0.06663634 0.11463553
000170 32 3d 0e 3e b5 d1 0f be 69 59 f8 bd 02 2e 13 bd
       0.13890532 -0.1404484 -0.12126429 -0.03593255
000180 88 dc 66 bc 4d e8 04 3e 6f 33 9d 3b d8 29 fc 3c
       -0.014090665 0.1297924 0.004797391 0.030781671
000190 aa e0 d1 3d 3f f1 bc 3d d8 82 3e 3e 34 52 5d bd
       0.102479294 0.092257015 0.186046 -0.054033473
0001a0 4f 57 e7 bd 01 a0 32 3e 94 74 1b be ff 26 30 be
       -0.1129595 0.17443849 -0.1518119 -0.17202376
0001b0 dd 25 02 3e ce 04 c3 bd 47 94 12 bd 5d 98 ba bd
       0.12709756 -0.09522401 -0.03578594 -0.09111092
0001c0 d7 f3 e2 3c 27 4f 0d 3d aa d1 46 be eb 5c 51 3d
       0.027704163 0.034499314 -0.19415918 0.051114004
0001d0 7d 6a 28 be 6c e3 3f 3e 87 b1 d2 bc 62 42 bb bc
       -0.16446872 0.18739098 -0.025719417 -0.022858802
0001e0 ac 75 03 bd 79 fc fa bd 08 91 df bd d3 4f d3 bd
       -0.032094643 -0.122551866 -0.109163344 -0.1031796
0001f0 e2 15 b9 bd 6f 6d 38 3c e2 94 22 be b6 e1 ec bc
       -0.09037377 0.01125656 -0.15877107 -0.028916221
000200 58 e4 f5 3d cb 7a 44 3e 58 af 80 3d 3d 07 05 3e
       0.12006444 0.19187467 0.06283444 0.12991042
000210 3f e7 08 be de 4a 3a 3e 84 4b 3a be c9 2a 70 3e
       -0.13369463 0.18192622 -0.1819287 0.23453821
000220 c9 f5 b8 3d 1c 6f 4a bd 84 b9 8e 3d 31 ae 74 be
       0.09031255 -0.04942237 0.06968978 -0.23894574
000230 12 e5 e2 3c 7e c8 be 3a 6e 5b 83 bd bb f4 84 bd
       0.02769712 0.0014555601 -0.06413923 -0.06491991
000240 fd 37 12 3e ba d5 02 be 45 ab 55 bb 59 bb 8a bd
       0.1427917 -0.12776843 -0.0032603305 -0.06774015
000250 87 c8 3d 3e 82 01 05 3e 08 24 78 bc ae de bc bd
       0.18533526 0.12988856 -0.015145309 -0.0922216
000260 b4 30 00 3d 7f 85 aa bd 46 ca 45 3e 39 cd 3e be
       0.031296447 -0.083262436 0.19315442 -0.18632974
000270 38 a7 00 be 0d 90 2b be 9b 81 25 be 37 8c b8 3d
       -0.12563789 -0.1675417 -0.16162722 0.09011119
000280 89 2c 56 3d 42 13 a7 bd 82 97 93 bd 02 de 92 3d
       0.052288566 -0.0815797 -0.07206632 0.07171251
000290 33 e8 f7 3d af 4b 91 3c 7d 63 a9 bc e2 91 fb 3d
       0.12104835 0.017736284 -0.020677323 0.12283684
0002a0 6a e3 c1 bc 64 b4 2c 3e d3 59 99 3d f5 43 60 3c
       -0.02366801 0.16865689 0.07487836 0.013688077
0002b0 55 62 ba bd 7b 6d be bd 3d 53 4f 3d 91 e6 42 be
       -0.091007866 -0.092982255 0.05061649 -0.19033267
0002c0 64 7d de 3d 0e f8 a8 3d 8a 1b b1 3d d0 5a d9 3c
       0.1086376 0.08250438 0.08647831 0.02653256
0002d0 c3 2d ff 3d c1 0b 0f 3e 27 86 56 3d d8 1b 83 be
       0.124599 0.13969328 0.05237403 -0.2560718
0002e0 88 4c c4 3a 57 f4 bc bd 97 a8 3b 3d df 89 a6 bd
       0.0014976421 -0.092262916 0.045815077 -0.081317656
0002f0 b0 43 16 be c2 ea fe 3d 95 a6 9c 3d 1a 26 92 bd
       -0.14674258 0.1244712 0.076489605 -0.071361735
000300 36 1e eb 3d c9 ea 10 be da 60 cf 3c 38 b9 28 3e
       0.11480372 -0.14152063 0.025314737 0.16476905
000310 c2 e0 03 be 2a 20 7f be 04 ee 49 be 09 fa 06 3e
       -0.12878707 -0.24914613 -0.19719702 0.13181318
000320 d5 a7 df 3d ab 8b c3 bc 2f a0 60 3e 7f be ee bd
       0.10920683 -0.02387031 0.21936105 -0.11657428
000330 25 19 33 be 8b 66 de bd bb 46 00 be 62 e4 12 3e
       -0.1749006 -0.10859402 -0.12526982 0.14344934
000340 7f a9 d3 bc e5 49 04 bd 00 61 03 bd 8f b0 03 3d
       -0.025837658 -0.032297034 -0.03207493 0.0321508
000350 6a 96 e8 3d d1 91 48 3e 0e d4 f3 bd 92 11 62 be
       0.11356814 0.19586875 -0.119056806 -0.22077015
000360 d7 8d 23 3e 39 8f 51 3e ff 19 9b 3d aa 98 9f 3d
       0.15972076 0.20464791 0.07573318 0.0779279
000370 6f fb ec 3d 0e 35 0a 3e 36 2d 42 be 40 5a 02 bd
       0.11571395 0.13496801 -0.18962559 -0.03182435
000380 e7 d1 08 bd ce f6 8f 3d 81 c4 ab bd 44 a7 c1 bc
       -0.033403303 0.07029496 -0.083870895 -0.023639329
000390 49 92 1f bd 58 46 ec 3d 91 1a 5f bd 63 81 d9 3d
       -0.038957868 0.115368545 -0.054468695 0.10620382
0003a0 5a 32 b0 bd e0 87 70 3c fc 95 07 be a9 c3 fc 3d
       -0.08603354 0.014680833 -0.13240808 0.12342007
0003b0 67 fa 5a 3e b4 eb 52 3e 3a 47 00 3e 99 31 aa bd
       0.21384583 0.20597726 0.12527171 -0.08310241
0003c0 af 9a ce 3d 48 49 b2 bd 11 ec 4a be 5d 40 16 3e
       0.10088097 -0.087053835 -0.19816615 0.1467299
0003d0 8a 8d 00 3e be d1 90 bd 00 0f 60 bd 4d 19 f1 3d
       0.12553993 -0.07071255 -0.054701805 0.11772404
0003e0 a7 00 97 bd 18 aa 1a 3e 61 fd c9 3d 95 11 a1 bd
       -0.07373171 0.15103948 0.09862781 -0.07864682
0003f0 57 83 dc 3d 52 6e 4a 3e ee 3d a8 bd 31 53 4f be
       0.107672386 0.19768646 -0.08214937 -0.20246579

bias_ih_l1 f4 [144]
000000 99 a3 83 3e 72 1d 4d 3d d0 14 be 3d 32 87 64 bd
       0.25710753 0.05007691 0.092813134 -0.055792995
000010 a0 b0 c1 bd d3 21 cd bd 1d a2 10 3e 8e a0 13 bc
       -0.09457517 -0.10016217 0.14124341 -0.009010447
000020 e4 92 85 bd ae 70 a5 3d ce e6 57 3e 05 f0 45 bd
       -0.06522158 0.080781326 0.21084139 -0.048324604
000030 02 dd 04 3e 14 9e 93 bb a9 8b 4d 3e c5 69 47 3e
       0.12974933 -0.0045049284 0.20072807 0.19473942
000040 79 7f dd 3d 85 09 c0 3d bc 06 2d bd 5a f7 80 3e
       0.10815329 0.09376816 -0.04224275 0.25188714
000050 33 9f 2a 3e 46 da 0a bc 8f ad d4 bc bb 5a 61 3e
       0.16662292 -0.008474892 -0.025961665 0.22007267
000060 98 cc 46 bc 31 1b 10 3e 9a 2a 88 3e 9f 3f 9e 3c
       -0.01213374 0.14072873 0.26595002 0.019317446
000070 d3 47 33 3e b5 c1 8b 3d fc 8e 13 3d da f3 93 3d
       0.17507868 0.06824056 0.036025032 0.07224245
000080 17 c8 e8 bc 0b ed 2b 3e bf f8 ca 3d 78 36 68 bd
       -0.028415723 0.16789643 0.09910726 -0.05669257
000090 2f 95 09 be 4c 6e dd 3c 0d 7c 0e 3e 33 15 07 be
       -0.13435815 0.027030133 0.13914509 -0.1319168
0000a0 57 86 7e bd 38 fd 32 bc 1e 5b 9b 3d 23 59 74 3d
       -0.062139835 -0.01092463 0.075857386 0.05965532
0000b0 ad 54 01 be b6 70 bd 3d f5 18 20 3e 60 0e 04 3d
       -0.12629957 0.092500135 0.1563452 0.03224027
0000c0 91 2f d7 bd 02 9e ae 3d f0 bc 1f 3e 21 12 b3 bd
       -0.105071194 0.08526231 0.15599418 -0.08743692
0000d0 e1 02 2b be 05 50 57 bd 2d b8 b6 3d 00 1a 36 3d
       -0.16700317 -0.052566547 0.089218475 0.04445839
0000e0 aa 5b c5 3d 99 3d b0 3d 3c 67 1f bd 3b 44 c0 bd
       0.09636624 0.08605499 -0.03891681 -0.09388014
0000f0 e6 3a 9f bc 17 9c 96 bd d4 33 b0 bd 74 7c 70 bd
       -0.019437265 -0.073539905 -0.086036354 -0.058712438
000100 e7 61 fc bd 52 53 0c 3e 0f 56 09 3d 2b 60 a6 bc
       -0.12323361 0.13703659 0.033529337 -0.020309528
000110 76 d1 1c 3d af 42 d1 bd 1d 99 1a be 72 b7 e0 bd
       0.038285695 -0.10217797 -0.1509747 -0.109724894
000120 12 52 da 3d 52 a1 c5 3d 90 f5 14 3e 7d e1 aa bd
       0.10660185 0.0964991 0.145468 -0.0834379
000130 8d 28 1a 3d 46 bd 3e bd df 8f 51 3d ec 35 2b 3e
       0.03763633 -0.046567224 0.051162597 0.16719788
000140 c4 56 8c bd 35 e8 a1 bc 45 25 bd 3c b6 ba f8 bc
       -0.06852487 -0.019764045 0.02308906 -0.030362468
000150 10 34 2c 3d 32 37 2c be df 70 fa bd e7 8e 2b 3e
       0.04204184 -0.1681793 -0.1222856 0.16753732
000160 02 58 ef 3d 78 31 d2 bc 9d 70 ea bd d2 a0 8a 3d
       0.11686708 -0.025658354 -0.114472605 0.06768955
000170 78 9b 8b bd 9a e1 ce 3d fb 97 c0 3d e8 60 a9 3c
       -0.06816763 0.10101624 0.09403988 0.020676091
000180 1c f3 40 be e2 20 e8 3d b9 99 0b be e8 b2 0c 3d
       -0.18842739 0.11334397 -0.1363286 0.034350306
000190 7a 40 06 3e 7e 57 65 bd c9 39 bc bd 22 c4 49 3d
       0.13110533 -0.055991642 -0.09190709 0.049259312
0001a0 dd b1 80 3d ea c7 bf 3d 2f d2 b9 bd 73 3e 8c bd
       0.06283925 0.093643025 -0.090732925 -0.06847849
0001b0 64 8a 48 3e 4f f1 06 bd 44 62 b3 bd 4b 75 c6 bd
       0.19584042 -0.032944974 -0.08758977 -0.096903406
0001c0 69 a0 10 bd 0e 27 31 3d 9d 1c 89 bd fd b5 03 3e
       -0.03530923 0.043250136 -0.06694911 0.12862392
0001d0 db 22 6b 3e 31 a0 08 3d 65 c9 8c 3e 64 96 51 3d
       0.22962515 0.033355895 0.27497402 0.051168814
0001e0 d1 ed 7a 3e a0 23 88 bd 6c ca 33 bd 34 f0 b7 3d
       0.24504782 -0.0664742 -0.043894216 0.08981362
0001f0 b8 32 90 3e 51 3e 3b 3b 29 e0 ec 3d 02 7b 82 3d
       0.28163695 0.002857108 0.11566193 0.06371118
000200 fc 07 7f 3e 05 05 d0 3d 07 35 8b 3e 88 ce 7e bc
       0.2490539 0.101572074 0.27188894 -0.015552171
000210 6c 43 d5 bd a1 dc e4 bd b3 bc 0c bd ae ae b7 bc
       -0.1041325 -0.11174894 -0.034359645 -0.022422161
000220 69 31 27 3e a4 38 88 3d 2c 97 5c 3d 5d 3a 6c 3e
       0.16327442 0.06651428 0.053855106 0.23069139
000230 63 20 11 3e b6 06 b5 3d 0d b1 72 3d 25 48 db bc
       0.14172511 0.08839171 0.05925088 -0.0267678

bias_hh_l1 f4 [144]
000000 f1 9f 16 3e e6 97 93 bd 89 aa da 3d a9 f4 1a 3e
       0.1470945 -0.07206707 0.10677058 0.15132393
000010 55 34 d3 bc 27 67 44 bd a0 69 28 3e 80 4d 26 bd
       -0.02578179 -0.047949936 0.16446543 -0.040601254
000020 d8 cc a6 3d 04 27 a8 bc 91 14 10 3e f1 44 8e 3e
       0.081445396 -0.020526417 0.14070345 0.27786973
000030 49 2a 5f 3e f9 a3 5a bd a3 88 11 bd e6 63 c5 bd
       0.21793474 -0.053379033 -0.035530698 -0.09638195
000040 ed 11 da 3d 36 83 0f 3d 13 af 94 bd 91 4b 1c bd
       0.1064795 0.035037242 -0.07259955 -0.038158003
000050 61 df 82 bd 02 7e 1b 3e a9 ea b4 3b c5 01 75 3e
       -0.063902624 0.15184787 0.0055211377 0.23926456
000060 f5 1d 5a 3d f8 34 f5 bd 4e 4c 47 bd d6 f7 4d 3e
       0.053251226 -0.119729936 -0.048656754 0.20114073
000070 50 4d 45 bc 13 32 0e 3e bd 39 84 3e ee fb 5d bd
       -0.0120423585 0.1388629 0.258253 -0.054195337
000080 ed 76 1d 3e 38 07 2d 3c 66 fc e3 bd ba a8 dc bd
       0.15377398 0.010560803 -0.111321256 -0.107743695
000090 f1 67 43 be e6 cd fe bd 90 e5 24 be 12 28 dd 3d
       -0.19082619 -0.12441616 -0.16103196 0.107986584
0000a0 e0 d6 cd 3c de 1b 19 3e dc c5 ea bd 0c 9e 01 3e
       0.025126874 0.14952037 -0.1146352 0.12657946
0000b0 14 44 37 3d ee 95 da 3d bb 77 dc bd 40 24 a7 bd
       0.04474266 0.10673128 -0.10765024 -0.08161211
0000c0 22 2f c6 3d 5a 4b 2c 3e 7f 01 b5 bd 77 6b 68 3b
       0.096769586 0.1682562 -0.08838176 0.0035464445
0000d0 cf 35 f8 3c 34 d2 c2 3d 88 22 a9 3c 40 9a c2 bd
       0.030299095 0.09512749 0.020646349 -0.09502077
0000e0 af b6 fa bd df 95 30 3e dc 9a 32 3d b9 96 a5 3c
       -0.122418754 0.17244671 0.043604717 0.020213472
0000f0 c2 b8 4d bd 43 63 00 be a9 5b 0f bd 83 ca 37 3e
       -0.050225027 -0.12537865 -0.034999523 0.17948346
000100 8a 14 0a 3e ee c2 19 be e4 34 bf bd 2b 68 8e bc
       0.13484398 -0.15015766 -0.0933626 -0.017383656
000110 b5 71 9f bd c3 01 ff bd 65 74 04 3e c2 cf 12 3e
       -0.0778536 -0.12451508 0.12935026 0.14337066
000120 ff e6 1a be 7a f8 42 3d 6d dd c5 bc d0 51 99 bd
       -0.1512718 0.047600247 -0.024153436 -0.074863076
000130 0f 02 f8 3d 9a 6b 37 3e 01 7e a7 bd 73 38 a3 bc
       0.12109768 0.1791214 -0.0817833 -0.019924378
000140 0d 21 00 be 7f 9b 29 3d 5a f7 13 3e 4d 4c 27 bd
       -0.12512608 0.04140806 0.14449826 -0.04084425
000150 5a bc 2b 3e 52 ba a9 bc 24 13 d5 3c dd 61 2a 3e
       0.16771069 -0.020718727 0.026010104 0.16638894
000160 be f5 10 3e 56 8a f2 bb 1a e5 b2 3c f2 43 e3 3d
       0.14156243 -0.007401745 0.02183776 0.11096944
000170 a6 06 b0 3d bb 70 85 3c c0 06 21 bd 80 4e 29 bd
       0.08595018 0.016289106 -0.039313078 -0.04133463
000180 9c 39 27 bd c2 3e 02 3e d3 76 01 be cd 8d 19 3e
       -0.040826425 0.12719253 -0.12642984 0.14995499
000190 82 c3 8b bd f1 f8 34 be 1f ce 4e 3d e6 84 4a be
       -0.068243995 -0.17673089 0.05048954 -0.19777259
0001a0 6d d5 0b 3e bf 39 49 3d e2 f2 02 be c2 53 bb bd
       0.13655634 0.049127337 -0.12787965 -0.09146835
0001b0 ec 79 76 3e d1 d3 70 bd 14 87 04 3e 30 1b a0 3b
       0.24069947 -0.058795754 0.12942153 0.0048860535
0001c0 74 3a cb 3d 77 54 06 3d cd 06 bc bd 2e 7e 6b 3d
       0.099232584 0.032795396 -0.09180985 0.05749338
0001d0 43 19 13 3e e7 31 40 3e 28 66 4f 3d 80 ae 1a bc
       0.14365105 0.18769036 0.050634533 -0.009441018
0001e0 a9 dd bb 3d 1f ec f6 3c a2 7e f7 3d 3d 87 f8 3d
       0.09173138 0.030141888 0.120847 0.1213517
0001f0 d4 49 73 3e 9c e3 73 bd fe 5e 10 3e e5 5c 26 3e
       0.23758632 -0.059543237 0.14098737 0.16246374
000200 85 b9 28 bd dc 9a a8 bd 7f 68 18 3e ba 0b 1a bd
       -0.04119255 -0.08232662 0.14883612 -0.03760884
000210 9c c2 9e 3c b0 76 92 bd 8f 46 71 3e 60 22 1d 3e
       0.019379906 -0.07151544 0.23562072 0.15345144
000220 8c 96 67 bd 30 6c c5 bd fd 12 b4 3d 76 42 46 3e
       -0.056540057 -0.09639776 0.08792684 0.1936129
000230 19 22 1c 3e c6 89 99 3c cc d8 94 3d 88 91 58 3d
       0.15247382 0.018742453 0.07267913 0.052873164

weight f4 [1, 36]
000000 63 99 36 3e 7b 5c 40 be 91 8f 2c be e6 36 17 3e
       0.1783195 -0.18785278 -0.16851641 0.14767036
000010 3a 8a 34 be ef 31 23 3e 42 6b a9 bd c5 21 53 3e
       -0.17630854 0.15937017 -0.08272411 0.20618351
000020 7f 58 f3 3d c4 ba 19 be a4 34 48 be e3 44 b2 bd
       0.11882114 -0.15012652 -0.19551331 -0.08704545
000030 66 c5 59 be a4 fd 42 be 6d 3b 4c be 4b e5 1b bd
       -0.21266708 -0.19042069 -0.19944544 -0.038060468
000040 64 a5 25 3e 41 8b 4e 3e 63 00 34 3e 71 a1 4f 3e
       0.16176373 0.20170309 0.17578273 0.20276429
000050 e1 ec 5a be b6 36 07 be 00 c4 52 be c6 36 0d be
       -0.21379425 -0.13204464 -0.2058258 -0.13790426
000060 78 9b 90 3d a3 58 3a 3e 11 31 69 3e 41 21 29 3e
       0.07060903 0.18197875 0.22772624 0.16516592
000070 27 2a b8 3d 3d 9d dc bd 4f 70 79 3e 6a 94 24 be
       0.08992415 -0.10772178 0.24359249 -0.1607224
000080 30 e6 45 be 40 f9 87 3e f1 5c 2b 3e 71 a1 a8 bb
       -0.19326091 0.2655735 0.16734673 -0.0051461984
