LSTM_spread_forecasting/models/CNN_LSTM_ICE_SHW.pth (torch, 76711 bytes, 13 tensors)

weight f4 [4, 1, 3]
000000 72 e1 f2 bc d3 4f 46 be cb b5 fb be 1d ac cc 3e
       -0.029648516 -0.19366388 -0.49162135 0.39975062
000010 74 22 10 3f 93 41 f0 3e ec 20 bc be 0f 61 cb 3e
       0.5630257 0.4692503 -0.36743867 0.39722487
000020 cd 9b 7f 3e 28 c9 89 be f9 7e 91 3e 84 86 40 3f
       0.24961777 -0.26911283 0.28417185 0.75205255

bias f4 [4]
000000 f6 73 94 be 57 0b 9e 3e d7 c0 ba 3e 93 ff a5 3d
       -0.2899472 0.30868027 0.3647525 0.081053875

weight f4 [8, 4, 3]
000000 7a 05 8a bd 62 43 ff 3c 78 a7 4f 3e 13 98 39 be
       -0.06739326 0.03116006 0.20278728 -0.18124418
000010 d9 00 b3 be fd 43 0e bd b5 65 79 3c f3 5e bc be
       -0.34961584 -0.034732807 0.015222003 -0.3679119
000020 44 b6 9d bd 88 27 49 be f1 84 87 be 9e 01 ef be
       -0.0770078 -0.19643986 -0.26468614 -0.4668092
000030 88 34 bc 3d 15 33 b4 3e 39 8a 74 3e 93 e0 c2 3d
       0.09189707 0.35195222 0.23880853 0.095154904
000040 2a dd 72 be 57 c0 62 3e 3c 72 df bd 1b 4f 16 3e
       -0.2371718 0.22143684 -0.1091046 0.14678614
000050 9f 8a a9 be e8 ea 9d 3c f2 8c 83 be 7a 89 9e 3c
       -0.33113572 0.019277051 -0.2569347 0.019352663
000060 c5 6d a3 3c 93 c3 b3 bd 8f e6 3d 3e 31 d3 0b 3c
       0.019949803 -0.08777537 0.18544982 0.008534239
000070 80 26 77 3d db 92 f8 3c 10 58 bf 3d 11 d3 ae 3e
       0.06033945 0.030343464 0.093429685 0.34145406
000080 d8 ed a3 3e e6 c9 30 bb 55 d1 09 3e 2e be 72 3e
       0.32017398 -0.002697581 0.1345876 0.2370536
000090 44 ea 6b bd 4d 3a 7d bd 3a 1e 64 be 1c 42 a6 bd
       -0.05759646 -0.061823178 -0.22277156 -0.08118078
0000a0 a4 a9 0c 3e f0 97 ae bd fc e7 53 3e c1 49 f6 3e
       0.13736588 -0.085250735 0.20693964 0.48103145
0000b0 84 7d 89 3e ff aa 7f be ec 18 e2 3e e1 e2 b0 3d
       0.26853573 -0.24967574 0.4415964 0.08637024
0000c0 0a 94 4f be 46 29 1b be 10 93 09 bd 13 fd 4b 3e
       -0.20271316 -0.15152463 -0.033587515 0.19920759
0000d0 60 f5 66 be 08 9a a2 be 08 cf b2 be d1 3b 6c be
       -0.2255454 -0.31758142 -0.34923577 -0.23069693
0000e0 bb 96 db bd 13 5e a8 bd 77 33 1c be ae 27 c8 be
       -0.10722109 -0.08221068 -0.15254007 -0.39092773
0000f0 a4 7e 3c be 5d 42 5b be 3e c3 11 be a0 c0 94 be
       -0.18407685 -0.21412034 -0.14234635 -0.2905321
000100 13 38 3d bd f7 77 74 be 78 40 03 3e c1 6f 85 3e
       -0.046196055 -0.23873888 0.12817562 0.26061824
000110 48 04 76 3e 6c 6e 85 be af 9a 34 3d 25 4a 35 bd
       0.2402507 -0.26060808 0.04409283 -0.044260163
000120 b8 39 57 be b5 a3 fc bc 9f d7 a6 be 68 40 30 3e
       -0.21018112 -0.03083978 -0.3258638 0.17212069
000130 f3 55 9d 3e d9 7d 69 3e cb 39 0c 3d 3f c2 08 be
       0.30729637 0.22801913 0.034234803 -0.13355349
000140 f1 8a fe 3e 7b 19 9c bc 18 7e 4e 3e 9b 7f bb 3b
       0.4971538 -0.019055119 0.20165288 0.005721999
000150 fa 9d 86 3e bf 93 9c 3e 76 f0 85 bd 4f 99 3d bd
       0.26292402 0.3058147 -0.06540005 -0.046288785
000160 27 f2 16 be 7d 2f c1 be d1 d7 96 3e d9 16 a0 be
       -0.14740811 -0.37731543 0.2946153 -0.3126743
000170 49 4f 41 3d f2 4b 66 3e 55 43 2a 3e 2f a6 04 3d
       0.047194753 0.22489908 0.16627248 0.032385048

bias f4 [8]
000000 e3 19 5d 3e 0b cc 5a 3d b0 38 49 3e 2a 64 25 bd
       0.21591906 0.053417247 0.19650531 -0.040378727
000010 8f 06 8b 3e a6 55 1f 3e 75 ab 86 3e fc f4 de 3c
       0.2715344 0.15560016 0.26302686 0.027216427

weight_ih_l0 f4 [144, 8]
000000 dd 7c 37 3e 64 c9 17 3d 18 0f 19 3d f9 41 00 3e
       0.17918725 0.037057295 0.03736791 0.12525167
000010 28 6a 34 3e b4 e5 55 bd e0 0a 9d bd 5a eb 84 bd
       0.1761862 -0.052221015 -0.0766809 -0.06490202
000020 2c 9e af 3c 97 10 65 3c 4b c3 52 3e c6 9e bb 3d
       0.021437727 0.013981006 0.20582311 0.09161143
000030 82 27 a0 3d 01 ef d4 3d b7 80 e8 3d db 5a 81 3d
       0.078200355 0.10397149 0.113526754 0.063161574
000040 fc 6c 9e bd 55 a7 10 bd fd 87 5b 3e 2c 73 91 3a
       -0.07735631 -0.03531583 0.21438594 0.0011096946
000050 75 32 05 3d 61 9f 83 bc 00 82 31 3e 10 e1 c3 3d
       0.032518823 -0.016067209 0.17334747 0.09564412
000060 4c 75 23 3e 67 bf 4c bd 3d 9a 59 3e 74 10 42 3e
       0.15962714 -0.049987223 0.21250243 0.18951589
000070 59 b9 ce 3d 70 ce 6b bd 67 6d a6 3c 63 a4 e7 bd
       0.10093946 -0.05756992 0.020315839 -0.11310651
000080 eb 66 91 bc 57 ca d8 bc 5e fb a4 bd 6a 3f 1f bd
       -0.01774927 -0.02646367 -0.08055757 -0.038878836
000090 a4 2f 00 3e f8 45 1f 3d 06 c7 41 3e a6 8e 8a bd
       0.12518173 0.038885087 0.18923578 -0.06765489
0000a0 a7 71 a9 3b e9 4d 9e 3e 39 8f c0 bc d2 04 10 3e
       0.005171019 0.30918816 -0.023505794 0.14064339
0000b0 ff d7 b9 3e f0 07 b0 3e 59 f2 44 3e a5 a1 43 3d
       0.36297604 0.34381056 0.19233073 0.047761578
0000c0 85 81 66 3d fd a2 10 3e 81 c5 83 bc 91 71 48 3d
       0.056275863 0.14124675 -0.016085388 0.04893643
0000d0 59 22 81 3e 74 9b 12 be 9c 08 76 bd 02 99 5b 3e
       0.25221518 -0.14317113 -0.060066804 0.21445087
0000e0 ef 94 4c ba d7 24 70 3e 7d 4c e1 3c 33 dd 97 3e
       -0.0007804175 0.23451553 0.027502293 0.2966095
0000f0 85 b8 a9 3e a2 29 55 3c f1 3e 97 3e 57 89 6c 3e
       0.3314859 0.013010414 0.29540208 0.23099266
000100 2c fd 1d bc b6 39 ad 3c 6f 2b 8d 3e d2 9f 95 3e
       -0.00964288 0.021145683 0.275722 0.29223496
000110 1f 4b 18 3e c1 41 f5 3c c1 18 0c 3e 0d 5b c8 3e
       0.14872406 0.02993858 0.13681318 0.39131966
000120 81 93 1b 3e 56 45 b4 bd be 55 8e bd 7c 60 18 bd
       0.15192987 -0.08802287 -0.06949948 -0.03720139
000130 dd 4a f6 bd 99 3c 38 3e 40 71 fd 3c 4d fe 7d 3d
       -0.12025998 0.17991866 0.03093779 0.0620101
000140 a0 45 0d bd 11 4f 2f 3e 64 f8 0a bd 35 87 ef 3d
       -0.034490228 0.17120005 -0.03392829 0.116957106
000150 0a ae 7e bd 15 0b 0e be 7f 13 1e 3e 73 00 ab 3c
       -0.062177695 -0.13871415 0.15437125 0.020874238
000160 2e 81 2d 3e c5 13 0a 3d 15 c7 1f 3e 7c 9e c3 3d
       0.1694381 0.03371026 0.15603288 0.09551713
000170 d5 85 3c 3e ce e9 d5 3d 58 46 85 3e 20 10 99 3e
       0.18410428 0.10444985 0.2603023 0.29895115
000180 f8 62 45 be 94 8a 84 be c4 18 49 bc f5 95 89 3e
       -0.19276035 -0.25886977 -0.012273971 0.2687222
000190 3b 22 69 3c db b1 48 3e bf 64 47 bd 75 3f 65 be
       0.014229353 0.19599096 -0.048680063 -0.22387488
0001a0 05 4a 64 3d 4e ee 1f 3e 00 96 04 3d 83 39 92 3e
       0.055734653 0.1561825 0.032369614 0.28559503
0001b0 c3 88 99 bd 98 03 81 3e 16 a1 30 3d 1e fb b0 3e
       -0.07496788 0.25198054 0.043122374 0.34566587
0001c0 36 63 37 3e 95 56 1e 3e 4e 60 29 3e 1f 89 58 bd
       0.1790894 0.15462716 0.16540644 -0.052865144
0001d0 5c 88 2b bd 16 4b ff bd 71 4f 9f 3d d8 be d2 3d
       -0.04187809 -0.124654934 0.07778824 0.10290307
0001e0 b2 72 99 bc eb eb 60 3d d1 67 78 3e e5 bf 9d 3d
       -0.018731449 0.05491249 0.24258353 0.077026166
0001f0 99 d6 68 be 09 12 46 3e 3f b7 3c 3e cf 90 38 3e
       -0.22738113 0.19342817 0.18429278 0.1802399
000200 92 93 39 bc a6 87 ba 3d 22 ac 19 3d 76 7d a4 3d
       -0.011326687 0.09107904 0.037517674 0.08031742
000210 fd 8a 8d be 1e 85 55 3e a0 7f c4 3d fe f8 ff 3b
       -0.27645102 0.20851561 0.09594655 0.0078116646
000220 ea 89 ad 3d 9a ec d0 3d 2d 71 88 bd 6d ea 9d bd
       0.08473571 0.10201378 -0.066622116 -0.07710729
000230 f9 7c 33 3e c1 fd 7b 3d e4 3f 28 3e ae 1b 79 3d
       0.17528142 0.061521295 0.16430622 0.060817413
000240 5e b4 3f bd 1b 63 a2 3d ac e4 49 3d cb f9 53 be
       -0.04680287 0.07929059 0.049290344 -0.20700757
000250 69 3f 87 bd 3b 30 0d bd c4 71 7a 3d 21 28 40 bd
       -0.066038914 -0.034469824 0.06114365 -0.04691327
000260 e9 b3 6c 3d e7 9d 08 3e f0 4b 2b be 07 33 e5 bd
       0.057788763 0.13341485 -0.16728187 -0.11191373
000270 42 f9 10 3e 7b 03 e7 bd 18 df 48 bd 30 1d 1f 3e
       0.14157584 -0.11279961 -0.049040884 0.15538478
000280 bb af 15 bd 73 af 4e bd 2a 53 6a 3e db e2 51 3e
       -0.036544543 -0.05046029 0.22883287 0.20496695
000290 02 e5 75 3e 2b f9 88 3e 36 1c bc 3d a7 7e 5e 3e
       0.24013141 0.267526 0.09185068 0.21728002
0002a0 5f e9 a6 bd dd 74 8a 3d d7 7a 80 3e ee cd ab 3c
       -0.08149981 0.06760571 0.2509372 0.020972218
0002b0 f7 18 06 bc da 4d 96 bd b9 a2 5e 3e 7f 93 c6 3b
       -0.008184663 -0.07339068 0.21741761 0.0060600634
0002c0 b1 27 19 3e c4 90 2d 3e 7d dd 4d 3e 21 b1 df 3d
       0.14956547 0.16949755 0.20104022 0.109224565
0002d0 88 ec 10 bc 1c 81 b1 3d 33 56 12 3e 21 f0 ef bc
       -0.008845456 0.08667204 0.14290695 -0.029289307
0002e0 7b 6c d5 3c 77 52 f5 3d ef 91 ad 3c 8c 2c f5 3d
       0.026052704 0.119786195 0.02118775 0.11971387
0002f0 37 5f e4 3d a0 26 1a 3e a3 75 2c 3d 60 f5 53 3d
       0.11150973 0.15053797 0.042104375 0.05174768
000300 30 bb 0e 3e 28 4e 7c 3e d3 71 57 3d 3f 52 66 be
       0.13938594 0.24639189 0.052598786 -0.22492312
000310 99 43 76 3d 88 11 72 3d 70 13 18 bd f8 f9 52 3e
       0.06012306 0.05909875 -0.037127912 0.20603168
000320 2b 94 1d 3d d0 f5 75 3e 10 b1 1d 3e 6b 40 c1 3c
       0.038471382 0.24019551 0.15399575 0.023590287
000330 56 8b 19 3d fa 3a e9 3d d4 aa 60 3e 28 c8 67 3e
       0.037486397 0.11388202 0.21940166 0.22634947
000340 d0 c8 54 3c 30 c7 84 bd 81 24 b2 3c 6f 99 b8 3d
       0.012987331 -0.064833045 0.021745922 0.0901364
000350 bf 01 8e 3b 89 03 ea bd 8f 87 b4 3c e9 5a 27 be
       0.0043337042 -0.114264555 0.022037296 -0.16343273
000360 74 75 16 3d d8 6e 9d 3c fc 06 72 3e 6b 4f 81 3d
       0.036733106 0.019217893 0.23635477 0.06313976
000370 3f 52 f4 3d 0a e1 9f 3d 3c 5c 01 3c a7 81 6b 3d
       0.1192975 0.07806595 0.007895526 0.057496693
000380 25 0c 6d 3d 8b fe 62 3d 2e 3c 41 3e fa f6 99 39
       0.05787291 0.055418532 0.18870613 0.00029366446
000390 b8 86 34 be ec 58 2a 3d 86 76 d4 3d 69 d0 89 3e
       -0.17629516 0.04158871 0.10374169 0.26916817
0003a0 1b 00 a8 bd d5 43 89 bd f6 29 85 bd cd 3f d3 3d
       -0.08203145 -0.06702391 -0.06502144 0.103149034
0003b0 ff 61 6f 3e c2 0a b4 3c 1b c5 ca bb bc 8d 0b 3e
       0.23377226 0.021977786 -0.0061880476 0.13628286
0003c0 5e d6 a0 3e 38 81 0b 3e b8 0a a5 bd 52 6f 72 3e
       0.3141355 0.13623512 -0.08058685 0.23675278
0003d0 6d f5 99 3d e4 66 c1 3d 55 01 d7 3d a3 de a8 3e
       0.075175144 0.09443453 0.10498301 0.32982358
0003e0 45 a5 16 3d 7e 29 27 bd 72 19 c2 3d 19 8a aa 3d
       0.036778707 -0.040811054 0.094775096 0.08327121
0003f0 1b db 03 3e ca 84 81 3c 5d a5 a9 bd 2f 8a da bd
       0.12876551 0.01581039 -0.08283494 -0.10670888

weight_hh_l0 f4 [144, 36]
000000 b1 21 41 3c 7c ea 4c 3e 38 ca 8a 3a c6 fe 67 bd
       0.011787818 0.20011324 0.001058883 -0.056639455
000010 87 f7 56 3e 52 2e 01 be 72 cf 06 3d 64 57 c5 3b
       0.20992862 -0.12615326 0.03291268 0.0060223807
000020 f8 73 95 3d 72 a8 00 be 39 91 4a bd e0 47 35 bd
       0.0729751 -0.12564257 -0.0494549 -0.044258
000030 fb d1 70 bd b1 28 0a be 20 3c b6 bd 36 bf 94 3d
       -0.058794003 -0.13492085 -0.08898187 0.07263033
000040 46 bf c6 bc a5 fa 86 3e 55 35 68 bc 2d 31 34 3e
       -0.024261128 0.26363102 -0.014172872 0.17596884
000050 11 83 e2 bd f8 05 e5 3d f6 cb 95 3d 31 36 d8 3c
       -0.11060155 0.11182779 0.07314293 0.026393028
000060 ec 3c 46 3e ae 57 21 3e e6 21 46 bd 63 8d 81 bd
       0.19359177 0.15756103 -0.04837217 -0.063257955
000070 ad c4 5c 3d 18 9b 19 3c 3d de 00 bd fe b9 2b bd
       0.053898502 0.009375356 -0.031461943 -0.041925423
000080 10 d0 21 3e 9d 7f 9c bc b5 dc 46 3c 3b 04 35 3d
       0.15802026 -0.01910382 0.012137582 0.044193488
000090 f1 a9 1e 3d 39 2d d8 3d be 6e c3 b9 89 66 dc 3d
       0.038736288 0.105555005 -0.00037275808 0.107617445
0000a0 8f 23 31 3e 6d 7d 05 bd 04 75 1a be 82 73 38 be
       0.17298721 -0.03259032 -0.150837 -0.18012813
0000b0 b9 13 0f be ac 67 1c be 07 9d 92 3d d4 f3 07 3e
       -0.13972367 -0.15273923 0.07158857 0.13276607
0000c0 40 56 db bb aa e3 06 3e af 40 fc bd 64 5e 28 be
       -0.0066936314 0.13172784 -0.12317025 -0.16442257
0000d0 ba 8f 01 be c1 ac 38 bd a2 a2 0b 3e 18 0b f1 3c
       -0.12652484 -0.045086626 0.13636258 0.029424235
0000e0 0f d7 03 3d 35 34 15 3e 78 37 65 bd a2 40 8b 3d
       0.032187518 0.14570697 -0.055961102 0.06799437
0000f0 18 1a b4 bd 0c 97 00 3e 14 e0 d5 3c 99 6a 94 3d
       -0.087940395 0.1255762 0.026107825 0.072468944
000100 d4 71 ce 3d 9d df c7 3d 1e 5d 35 3e 07 a9 47 be
       0.10080305 0.09759448 0.17711303 -0.19498073
000110 9b 03 f5 3d 5f 40 fe 3d be 54 40 bd a2 d4 02 3e
       0.11963578 0.124146216 -0.046955816 0.12776425
000120 ac 7b 44 be ae b4 fb bc 47 f7 44 be 92 c3 87 3c
       -0.19187802 -0.030725803 -0.19234954 0.016572747
000130 5a 3d 86 3d 1e 0f 8b 3d a8 04 64 3d c2 e4 d5 3d
       0.06554671 0.06789993 0.055668503 0.10444023
000140 ce 24 58 bc ec 47 3d be 3d 08 1d 3e 25 38 10 3d
       -0.013192369 -0.18484467 0.15335174 0.035209794
000150 0b 6d 5a 3e 60 ab 21 be 1e bd c9 bd 08 b6 c0 bd
       0.21330659 -0.1578803 -0.09850524 -0.0940972
000160 2c 7d 5a 3d fe 8d 99 3d 24 d5 8b bd c7 6d 0d 3e
       0.05334203 0.07497786 -0.06827763 0.13811408
000170 79 54 b7 3d 99 cc 1e 3e 76 5a 0c bd 7f c9 88 3b
       0.08951659 0.15507735 -0.034265958 0.004174411
000180 04 35 19 3d 2d f4 36 be d3 bb 95 3d 1b 0f 01 3e
       0.037404075 -0.17866583 0.07311215 0.12603419
000190 39 52 d1 3d d7 7d 1c 3e 42 89 46 3e 34 15 e8 bd
       0.10220761 0.15282379 0.19388297 -0.11332169
0001a0 b0 91 50 3c eb 5d 9a 3d 99 75 0a 3e b4 37 45 bc
       0.012730047 0.07537445 0.13521422 -0.012037206
0001b0 2d 7d d8 bd 50 b2 5f 3e 24 b4 ef bd 18 87 60 bd
       -0.105707504 0.21845365 -0.11704281 -0.054816335
0001c0 a5 62 27 3d 16 72 0c be 51 5a 01 bc 75 9f ab bb
       0.04086556 -0.13715395 -0.007895068 -0.0052375146
0001d0 22 30 3e 3d 4e 4e 44 be 40 c4 c7 bc 26 e1 de 3d
       0.04643262 -0.19170496 -0.024385571 0.108827874
0001e0 6b be c9 bd b8 36 44 bc d3 4c e3 3d 02 94 8e bc
       -0.098507725 -0.011975937 0.110986374 -0.01740456
0001f0 93 94 3a 3e a6 4f 50 bd fd 0e 71 bc 4b b7 df bd
       0.18220739 -0.05085721 -0.014713046 -0.10923632
000200 14 80 c5 3c c1 49 15 3e 47 e1 33 3d 26 84 00 3e
       0.024108924 0.14578916 0.043916013 0.1255041
000210 10 71 aa bc ee 55 8e bc 7f 3e d0 bd fb 37 22 be
       -0.020805866 -0.017374959 -0.1016817 -0.15841667
000220 2d f7 c2 3b f7 5d a8 bd 39 95 0e be 07 4b 45 3d
       0.005949876 -0.08221047 -0.13924111 0.048167255
000230 b8 22 51 3e 93 42 05 3e 74 cb aa bd aa 43 41 3e
       0.204234 0.13013677 -0.08339587 0.18873468
000240 57 0f 3e bc 0c a5 55 3e 74 c5 2a 3e ad 37 7f bd
       -0.011600337 0.20863742 0.16676885 -0.062308956
000250 a2 88 3c 3e 23 d6 dc 3d b8 ad 89 3d fc 39 6a 3d
       0.18411496 0.10783031 0.06722587 0.057184204
000260 5b 24 57 bd 6d 6b 3b be f7 64 19 3d a4 21 9a 3c
       -0.052524906 -0.18302698 0.037449803 0.01881487
000270 62 d7 d9 3d c0 f4 23 3e 32 b5 92 3d 8c 13 d4 3d
       0.10636784 0.16011333 0.071634665 0.10355291
000280 fe d0 91 bd 55 1d 18 3e 27 d8 f0 3d 88 9f 2a 3d
       -0.0711994 0.1485494 0.11759978 0.041656047
000290 15 99 f3 3b 40 9f ec 3d 0d ca a6 bd 24 ff 27 bd
       0.0074340203 0.11553812 -0.08144007 -0.041014805
0002a0 36 81 2b bd d7 69 82 3d bd 85 88 bd 22 fd 51 3e
       -0.041871272 0.063678436 -0.066661336 0.20506719
0002b0 12 d3 f5 bd c1 82 c1 3d 28 f3 e1 3c 34 d2 36 be
       -0.12003149 0.094487675 0.027581766 -0.17853624
0002c0 9b 88 05 3e cc 24 86 3d dc 60 2c bd e3 38 1a bd
       0.13040392 0.06549987 -0.04208456 -0.037651908
0002d0 3b ec 9f be 23 e9 26 3e 06 41 13 bc bf 7e 8a 3c
       -0.31234917 0.16299872 -0.008987671 0.01690614
0002e0 ea 81 fc 3d 1b 13 17 3e fd 6b 3d bd c5 43 d2 bd
       0.12329467 0.14753382 -0.046245564 -0.10266832
0002f0 3a 41 42 bd 73 85 17 be a4 30 7a 3e b2 fc d4 bd
       -0.047425486 -0.14797 0.24432617 -0.1039976
000300 71 9e a3 bb 5e 7c c5 3c b7 23 5c be 44 63 e6 3d
       -0.004993253 0.024107154 -0.21497999 0.11249402
000310 d0 dc 0b 3e 65 38 78 3e 3c 6e 40 3e db a4 a1 3e
       0.13658452 0.24240263 0.18792051 0.31571087
000320 1b ff ff bd 70 31 17 bd b2 62 fc bd 31 cf 2e 3e
       -0.124998294 -0.03691238 -0.12323512 0.17071225
000330 74 d9 34 3e 26 37 b7 3d 3e 22 e6 3d aa 1a 59 3d
       0.17661077 0.089460656 0.11237 0.053003944
000340 61 2c c1 3d 86 0b 56 3e 7a 72 1c 3d 13 c6 60 be
       0.09432293 0.20902833 0.03819511 -0.2195056
000350 b3 9b 30 3e f0 2c 01 3e f9 30 ca 3d 05 5e c7 bc
       0.17246895 0.12614799 0.09872622 -0.024336824
000360 56 f0 17 3e 88 4c af 3d 63 f4 57 be e9 1b 96 3d
       0.14837775 0.08559519 -0.2108932 0.07329542
000370 cc 65 2a bd eb 9c e3 3d a6 0d f1 bd e6 11 6a 3d
       -0.041600987 0.11113914 -0.11770181 0.057145976
000380 74 29 82 bd 54 aa f5 3d 57 95 81 3d 94 10 2a 3d
       -0.06355563 0.11995378 0.063273124 0.041519716
000390 c1 74 ad bd 82 96 4a 3d a3 59 c8 bd e3 bc 28 3e
       -0.08469535 0.04945994 -0.09782722 0.16478305
0003a0 47 04 f0 3d 1c 24 a2 3d 05 c7 07 3e 60 2c 88 3c
       0.11719566 0.079170436 0.13259514 0.016622722
0003b0 07 43 00 3d a0 7c b4 bd 06 c7 be 3d c6 bf 9a bc
       0.031313922 -0.08812833 0.093153045 -0.018890273
0003c0 9d 9e f9 3d d0 0d 56 3d 47 ac 1d be c4 95 29 be
       0.12188456 0.052259266 -0.1539775 -0.16561037
0003d0 c4 46 70 3b 0a fc 0b 3d b6 13 f6 3c ba a1 c8 3a
       0.0036663273 0.03417591 0.030038696 0.0015306987
0003e0 e9 52 9e 3d dd b0 21 3c 38 e0 92 3d 0d 1a 51 3d
       0.077306576 0.009868828 0.071716726 0.051050235
0003f0 34 05 77 3c 0d bc 76 3d 2f 4e 2b be 2c 80 e4 3c
       0.015076924 0.060237933 -0.16729043 0.027893148

bias_ih_l0 f4 [144]
000000 f9 21 1e 3e d4 a8 a2 3d 50 20 fd bd c4 92 f8 3d
       0.15442647 0.07942358 -0.12359679 0.12137368
000010 df 75 b7 3d 34 34 ca bc e7 81 2f 3e 45 d1 ba 3d
       0.08958029 -0.024683096 0.17139398 0.09121946
000020 4f 9d e8 3d 1c dd 4c 3c d5 77 82 3b d2 c5 bd bb
       0.11358129 0.012503888 0.0039815702 -0.0057914043
000030 b4 06 2c 3e c7 72 a0 3e 44 d6 88 3d 92 09 46 3e
       0.16799432 0.31337568 0.06681493 0.19339588
000040 5e 82 35 3e c9 e6 f7 3b 7a 1d ad bd 0d 6d c3 bc
       0.17725512 0.0075653535 -0.08452888 -0.02385571
000050 59 fb 28 3e 9a 47 b5 3d 18 45 64 3e 7a 81 df 3d
       0.16502132 0.088515475 0.22291982 0.109133676
000060 f1 5a dd 3c 73 a9 3f 3d 99 d4 56 3e 02 d5 56 3c
       0.027020903 0.04679246 0.20979537 0.013112308
000070 05 03 22 3e ec 29 a0 3d 70 b4 0d 3d 25 0c 1d 3e
       0.15821464 0.07820496 0.034595907 0.15336664
000080 c3 c4 5b 3e 0a 7e af 3d c0 50 a1 3e 56 f1 36 3d
       0.21461777 0.08568962 0.3150692 0.04466375
000090 37 8b 4c 3e e3 50 b7 3d a7 c3 81 3d 01 ca 24 3d
       0.19974981 0.08950975 0.06336146 0.04023171
0000a0 90 33 19 3e 9a b1 9e 3d 85 87 ee bd ef 20 7d be
       0.14961076 0.077487186 -0.11646942 -0.24719594
0000b0 f5 1d 11 be 12 11 22 bd 5f 8c 32 3e 82 8d a1 bc
       -0.14171584 -0.03956706 0.1743636 -0.019720796
0000c0 23 87 17 bd 07 9a c7 bd 31 af 0b 3e 92 25 63 be
       -0.03699411 -0.09746175 0.13641049 -0.221823
0000d0 80 95 a2 bd 60 17 63 3e 0a fc d5 3d b4 6e ec 3c
       -0.07938671 0.22176886 0.10448463 0.028861381
0000e0 22 37 56 bd 49 e2 de bd 0e f2 92 bd bb 40 72 bd
       -0.052298672 -0.10883004 -0.071750745 -0.059143763
0000f0 02 0a 1d 3e 0f a5 c8 3d 26 18 69 3d 6c 1f 15 3e
       0.15335849 0.097971074 0.056907795 0.14562768
000100 11 c0 c3 bd a4 3d f5 3d 60 16 f0 3d ea c4 49 3e
       -0.09558118 0.11974648 0.11723018 0.19704023
000110 a4 2d 1e bd b2 27 0b be a4 52 e8 bd c2 02 32 3e
       -0.038617745 -0.13589361 -0.113438874 0.17383865
000120 23 f9 30 be d7 69 f6 3d f1 cb 9f bd a8 d1 2a 3e
       -0.17282538 0.12031906 -0.078025706 0.1668154
000130 e2 ce d4 3d 87 9b 2f bd 7e 9d 2d be b2 4c 8d 3d
       0.10391022 -0.04287293 -0.1695461 0.06899394
000140 42 c5 77 bd 9e 15 90 bd f2 68 1d 3e 82 2b 2a bc
       -0.060490854 -0.07035373 0.15372065 -0.01038635
000150 31 70 d8 3d 35 f0 23 3c 8b 43 c3 bd fe ed 05 3c
       0.10568274 0.010006 -0.09534367 0.008174418
000160 88 77 70 3d 0d 18 d1 3c b2 4f bb 3c a4 a2 0f 3d
       0.058707744 0.025524164 0.02286515 0.035067216
000170 9f a8 1d 3d dc 7b 21 be d2 0d c0 3d 75 95 30 3e
       0.038490888 -0.15769905 0.09377636 0.17244513
000180 3c 91 3e 3e 1f d7 c9 3d 10 44 f7 bc bc d7 06 be
       0.1861009 0.09855484 -0.030183822 -0.13168234
000190 9a d6 2c be 15 b0 90 3d 31 14 7a 3b ae dc e1 bd
       -0.16878739 0.07064835 0.0038159008 -0.110284194
0001a0 23 c2 0a be 2b b7 bf 3d fa c8 34 3d ac 09 c6 3d
       -0.1355062 0.093611084 0.04413698 0.096698135
0001b0 73 44 40 3c 6c e2 ab bd 13 1b 39 3e 59 1a 4e 3d
       0.01173507 -0.08392796 0.18076734 0.050318096
0001c0 31 ab 1f 3e 4c 2e dc 3d 85 01 42 3e 41 9f 6a 3e
       0.15592648 0.10751018 0.18945892 0.22912313
0001d0 2a d3 bb 3e 59 00 aa bd 89 32 7e 3c d6 2d 5b 3e
       0.36684543 -0.083008476 0.015514978 0.21404204
0001e0 ca be 22 3e 35 a4 9f 3e 24 0b 95 3c fb 8e a3 3c
       0.15893093 0.31179968 0.018193789 0.01996564
0001f0 26 26 6a 3d d6 7f 62 3e 36 4b 14 bd 38 5b ac 3d
       0.057165287 0.22119078 -0.03620454 0.08415836
000200 d2 03 83 3e 9f cc 6d 3e 35 32 12 3d 76 fc 4a 3e
       0.25588852 0.23222588 0.035692412 0.19822869
000210 53 93 a6 3d eb 28 4f 3e 49 66 77 3d 09 f0 29 3e
       0.081335686 0.20230453 0.06040028 0.16595472
000220 c5 d0 3a 3e 84 5f cc bd c3 b0 83 3b f5 ba 72 bd
       0.18243702 -0.09979156 0.0040188744 -0.059260327
000230 30 93 84 3e 74 6e 81 3e 5d 3f d2 3d 09 30 ce bd
       0.25893545 0.25279582 0.10265992 -0.10067756

bias_hh_l0 f4 [144]
000000 b5 d2 18 3d 06 0e 9d 3d eb 8e 56 bd 86 dc 04 bc
       0.03731032 0.076686904 -0.05238239 -0.0081092175
000010 aa de 24 3e 42 30 ec bc 27 29 de 3d e5 46 07 3e
       0.16100565 -0.028831605 0.10847693 0.13210638
000020 97 8f 8c 3e 96 af 49 3e 7a 00 da bd ed a4 81 3c
       0.274533 0.19695887 -0.10644622 0.015825713
000030 36 be 13 3e d3 8e 99 3e f1 17 0e 3c 0a 50 12 3e
       0.14428028 0.2999178 0.0086727 0.14288345
000040 1c 06 57 3d 6f 30 e5 3c 23 41 c0 3c f2 19 08 be
       0.05249606 0.027977196 0.02346856 -0.13291147
000050 41 ad 84 bc 3d 86 2c 3e 5b 4f be 3a a2 5c 3c 3e
       -0.016195895 0.16848083 0.0014519499 0.18394712
000060 78 16 e5 3c 2a 88 34 3e 83 5a 04 3e 53 09 4c 3e
       0.027964815 0.17630067 0.12925152 0.19925432
000070 d6 67 2c 3e 55 6d ac bd 5b b8 3c 3d ca 8e 83 3c
       0.16836485 -0.08419291 0.046074253 0.016059298
000080 24 04 05 3d 8b 33 2b 3d d4 80 1c 3c f5 c3 72 bc
       0.032474652 0.041797202 0.009552199 -0.014817228
000090 3c 56 90 bd 91 90 92 bd 15 30 dd bd 70 b8 02 bd
       -0.07047698 -0.0715648 -0.108001865 -0.031914175
0000a0 d1 47 fb 3d 6e 76 dc bd b4 2d a5 3d e9 3d 66 be
       0.12269557 -0.10764776 0.08065358 -0.22484554
0000b0 2b f7 87 bd 52 a1 a9 3d 53 5d dc bd dc 45 fc bd
       -0.066389404 0.082827225 -0.10759988 -0.12318012
0000c0 bd c9 1c be a8 3f 89 bc 2e cd e7 bd 73 71 83 be
       -0.15311332 -0.016753986 -0.11318432 -0.25672492
0000d0 c4 18 b3 bd 90 fe 5d 3e b6 e4 86 3d bd a7 ed 3d
       -0.08744958 0.21679139 0.06586592 0.11604259
0000e0 fe 0a 00 3d a7 4f 2f 3c ce b3 3d be 71 09 a4 3d
       0.031260483 0.010700143 -0.18525621 0.08009613
0000f0 05 1d 80 3c dd dc d6 3c 91 68 92 bd 68 0a af bd
       0.015638838 0.026228363 -0.07148851 -0.08546907
000100 94 63 c4 bd ac ad a5 3d 28 4f e9 bd 16 2a 20 3e
       -0.095893055 0.08089766 -0.11392051 0.15641055
000110 a2 54 15 3d 82 6c 31 3c 10 f6 b4 bd fe 34 38 3b
       0.036457665 0.010829093 -0.08835995 0.0028107758
000120 56 0c 07 3e 5f 37 1e 3e 6a 2a 2f be e3 b6 c2 bc
       0.131883 0.1545081 -0.17106023 -0.023768848
000130 c6 13 0d 3e 43 82 cb 3d a2 24 1a be 8e 88 c6 bd
       0.13777074 0.09936955 -0.15053037 -0.096940145
000140 f4 22 4b 3d 13 8e 2f bd 44 bd bd 3c 8b ba 9f bd
       0.04959388 -0.042860102 0.023161538 -0.07799252
000150 71 33 c2 3d 5e 19 8a bd 90 1a 84 bd 82 8c e7 3d
       0.09482468 -0.0674312 -0.06450379 0.113060966
000160 fb 60 8a 3d 4e ab 1f bd 95 09 06 3e 19 e2 31 3e
       0.06756779 -0.03898173 0.13089593 0.17371406
000170 d8 d3 9d 3d 29 81 97 3d 54 70 b4 bd 11 9b 12 3e
       0.077064216 0.07397682 -0.088104874 0.14316966
000180 b6 10 07 3e d7 e6 c9 3d 1e 5b 9b bd b0 dd 32 bd
       0.13189968 0.09858482 -0.075857386 -0.04366845
000190 1a 8d 89 3d cd d9 c7 3d 89 a4 3a bd c7 f6 ac 3d
       0.06716366 0.09758339 -0.04556707 0.084455065
0001a0 f2 ef 8d 3d 53 87 ea 3d 2b 9e db bc 58 49 b3 3d
       0.069305316 0.11451592 -0.026808819 0.087542236
0001b0 86 aa 26 3e 50 6b 5e 3c f2 f5 b0 bc c6 2c 46 3e
       0.16275987 0.01357539 -0.02160165 0.19353017
0001c0 76 c1 2d 3e 9e e1 69 3e b3 89 83 3d 54 c9 8c 3e
       0.1696833 0.22839972 0.064227484 0.2749735
0001d0 b6 ca 98 3d 20 a2 1d 3d 46 e0 96 bd 76 25 16 3e
       0.07460539 0.038484693 -0.073669955 0.14662728
0001e0 71 5e 07 be 3a c6 91 3e 8a 42 55 3e 86 52 12 bb
       -0.1321962 0.28471547 0.20826164 -0.002232702
0001f0 b5 fb d1 bd 83 8a 2d 3d b3 59 d7 bc d0 bf 5a 3c
       -0.102530874 0.042368423 -0.02628789 0.013351396
000200 af 40 55 3e 51 e0 70 3c f2 3f 0e 3e 0e 71 1a 3e
       0.20825456 0.014701919 0.1389158 0.1508219
000210 f4 34 18 bc 52 47 12 3e 34 6e 21 bd 63 3a 8b 3e
       -0.009289969 0.14285019 -0.03941174 0.27192983
000220 cc ab 0b 3e 9a f9 22 3e c7 23 aa bd 72 ff 34 3e
       0.13639754 0.15915528 -0.08307605 0.1767557
000230 38 0b ca 3d 10 8c 81 bc 47 28 a4 3e ed 43 37 3e
       0.09865421 -0.015813857 0.3206198 0.17897005

weight_ih_l1 f4 [144, 36]
000000 b3 b8 bd bd 5a 0e 0b 3e 02 ff 0a be 4d b6 e1 3d
       -0.09263744 0.13579693 -0.1357384 0.11021099
000010 dd 7f 5b 3e 7f 87 99 bd 93 bd 97 3c cf 0c 84 bc
       0.21435495 -0.07496547 0.018523013 -0.016119389
000020 1e 15 91 3c 25 a8 50 be e4 48 c9 bd af 08 8b 3d
       0.017710265 -0.20376642 -0.09828356 0.06788766
000030 68 27 eb 3d 4b d1 cf bd e9 de 9c bd 8f 08 03 bd
       0.114821255 -0.10147341 -0.07659704 -0.031990584
000040 91 fa 1c bd 58 28 a0 3c 11 ba d8 3d aa 04 4d 3e
       -0.038324896 0.019550487 0.10582364 0.2002131
000050 67 07 07 3d 16 9b 0f be 5b 82 a6 3d 6a 47 73 bc
       0.032966044 -0.14024004 0.08130332 -0.014848569
000060 7c 14 39 3e 80 f8 b5 3d 4c db c8 3b c4 5b 87 bd
       0.1807422 0.08885288 0.006129658 -0.066093
000070 6c 67 20 be 92 0b 6a bd f9 45 3d 3e ed e4 d3 bd
       -0.15664452 -0.05713994 0.18483724 -0.103463985
000080 90 c8 3f 3d 07 3c 07 be db 78 fa bc 59 76 10 3e
       0.04682213 -0.13206492 -0.030575207 0.14107646
000090 dc 73 4d bd 99 40 79 3e fe 6a cf bc 17 76 74 3e
       -0.05015932 0.24341048 -0.025319573 0.23873173
0000a0 5b 3a 25 3e eb f5 2b be c7 f2 03 be 11 1f b7 3d
       0.16135542 -0.16793029 -0.12885581 0.08941472
0000b0 c5 09 ed bd 5d 39 78 be f9 f3 6c 3d 41 5d 92 bd
       -0.11574129 -0.24240632 0.057849858 -0.07146693
0000c0 13 9c bd 3d a0 dc 43 be fc 31 3d be 68 74 7d 3d
       0.092582844 -0.1912713 -0.18476099 0.06187859
0000d0 70 8c 4e 3e 53 c6 74 3e cb 79 d8 3d 2f 5f c3 bc
       0.2017076 0.2390378 0.10570105 -0.023849098
0000e0 42 8a a1 3d c5 a7 ae 3d 09 4f 70 bd e6 1a ec 3d
       0.07887699 0.08528093 -0.058669124 0.11528568
0000f0 44 8b 85 3e 4a 45 ec bd 45 cf 6d be 4e be 96 bd
       0.26082814 -0.11536653 -0.23223598 -0.073605165
000100 2f 37 d5 bc 21 a9 11 3e 5b f6 49 bd 40 32 08 bc
       -0.02602729 0.14224674 -0.04930721 -0.008312762
000110 fd c1 d9 3d 80 e3 e3 bd b4 07 0c bd 39 b7 08 bd
       0.106327035 -0.111273766 -0.034187034 -0.03337786
000120 ca 77 64 3d 1d b4 96 3d 71 cb c3 bc 46 67 f5 bd
       0.055778302 0.07358573 -0.02390072 -0.119825885
000130 aa f9 1f 3e a9 a3 01 3e d8 9d 1b be 6e ec b6 3d
       0.15622583 0.12660088 -0.15196931 0.08931814
000140 d8 04 d6 3d 95 78 0b 3c 72 e8 a5 bd f1 8d a7 bd
       0.104501426 0.008512636 -0.08100976 -0.0818137
000150 73 95 89 3d fa 1c cd 3d e4 f0 f0 bd 51 ff 46 bd
       0.06717958 0.100152925 -0.11764696 -0.048583332
000160 68 04 97 3d db 28 1e 3d ce 47 fc bc 7c bf ef bd
       0.07373887 0.03861318 -0.030795958 -0.117064446
000170 bf d0 89 3c c7 c8 af 3d cf 19 3b 3d f1 ae ba bd
       0.01682317 0.08583217 0.04567891 -0.09115399
000180 18 65 e4 bd 6d ae df 3d 80 e1 3c be 01 b9 49 3d
       -0.111520946 0.10921941 -0.18445396 0.0492487
000190 96 47 8c 3d f8 79 12 bc 51 eb 7a 3d f2 08 0c be
       0.068495914 -0.008940212 0.06125957 -0.13675287
0001a0 83 0d 94 bc 9b f2 1b 3e 59 43 0e 3e 5a a9 17 3e
       -0.01807285 0.15229265 0.13892879 0.14810696
0001b0 d4 ac 6e 3c cc 1f ce 3d ff cf dd 3d 3d 2a 2c 3e
       0.014567573 0.100646585 0.10830688 0.16812988
0001c0 25 7a 1e 3e 0f 04 c2 3d b5 94 c6 3d 23 b6 97 bc
       0.15476282 0.0947343 0.09696332 -0.018519467
0001d0 58 41 9e 3d 1f 17 9f 3d 87 06 af 3d 07 a6 71 be
       0.07727307 0.07768082 0.08546167 -0.2359849
0001e0 60 20 21 3e a3 ff 6d 3c 78 96 1e 3e cd 61 eb bc
       0.15735006 0.014526281 0.15487087 -0.028733158
0001f0 d9 d9 b1 bd ee b2 d7 3b 4a 54 a7 bd 42 d6 92 3b
       -0.08684129 0.0065826094 -0.08170374 0.004481108
000200 1a 37 55 3e f9 16 0b bd 84 b1 45 3d 45 4f 24 3e
       0.20821801 -0.033957455 0.048264995 0.16045864
000210 bd 10 82 3d c7 3a 37 3e 05 83 9e bd 9d 32 00 3e
       0.06350849 0.17893516 -0.07739834 0.12519307
000220 b8 2a 49 be e8 e7 4f bd d0 aa 87 be 72 63 d4 bd
       -0.19645202 -0.050758272 -0.26497507 -0.1037053
000230 75 4a 81 bc 9c e7 4f 3e 26 a8 28 be 87 9a d9 3d
       -0.015782574 0.20303196 -0.16470394 0.10625177
000240 c3 a3 3f be 2b e6 36 bd cc 98 c4 bd 9e 2c 1e 3d
       -0.18714814 -0.0446531 -0.09599456 0.03861677
000250 df 31 f7 3c cf b4 e8 bc 56 43 2b be de 0a 1b bd
       0.030175148 -0.028406529 -0.16724905 -0.03785216
000260 8c 51 0f be 32 b1 be bd ed 8a cf bd 34 ad bb 3d
       -0.13995951 -0.09311141 -0.1013392 0.09163895
000270 4e 1a 47 3e 4b 31 20 be 3e f9 3f bd dc 0e 8c bd
       0.19443628 -0.15643804 -0.046868555 -0.06838772
000280 2e d2 79 3a a2 d4 06 3e 05 10 04 3d fe f0 54 3b
       0.00095299154 0.1316705 0.03224184 0.0032492275
000290 5d 69 74 bd c5 18 93 3e e4 4b 90 3d 24 f6 2a bd
       -0.059670795 0.28729835 0.07045725 -0.041738644
0002a0 55 04 23 3e 97 d9 7d ba d6 ca 23 be cd eb c9 bd
       0.15919621 -0.00096836075 -0.15995345 -0.098594286
0002b0 4e 75 1b bd 7d d1 80 3d 39 dd ce 3d 8e c6 bd 3d
       -0.037953667 0.06289957 0.101007886 0.09266387
0002c0 9d 66 4b 3e 42 1d 11 3d 44 3d d0 3d 78 3a 17 3d
       0.19863363 0.035428293 0.101679355 0.036920995
0002d0 cf 89 6f be 28 14 3b 3e 5e 2a f8 bd e3 d3 15 3d
       -0.23392414 0.18269408 -0.12117456 0.036579024
0002e0 5e 9d 01 3e 3c bb c6 bc fa ab 14 3d d2 bb a1 3d
       0.12657687 -0.024259202 0.036296822 0.07897152
0002f0 cf 91 90 bc 02 2f be 3d a9 e5 8a bc 16 51 b6 3d
       -0.017647652 0.0928631 -0.016955214 0.08902185
000300 22 f2 e5 bd ff 05 c7 bd 7e a0 5f be b8 bc dd 3d
       -0.11227824 -0.097179405 -0.21838567 0.10827011
000310 97 08 0e 3c eb 05 07 bd 38 cc 41 3d b1 cc 80 bc
       0.00866904 -0.03296463 0.0473139 -0.015722604
000320 b5 c8 40 be e8 82 4b 3d e3 dd 81 bd dc 85 cf 3d
       -0.18826564 0.04968539 -0.0634115 0.101329535
000330 0f 6f 16 3e 5f 4a 79 3d 3e 75 4d bd db 25 c2 bd
       0.14690803 0.06086194 -0.05016064 -0.094798766
000340 94 52 56 bd 52 dc 41 3d 31 98 8b 3d c3 2d cb bd
       -0.052324846 0.047329254 0.068161376 -0.09920838
000350 dd bb 86 3c 0f 40 f1 3d 2c 9b 93 3d fb dc d3 bd
       0.016447002 0.11779796 0.07207331 -0.10344883
000360 a4 88 1e be 5e d8 5b 3e 51 d8 73 3d 06 31 e4 3d
       -0.15481812 0.21469256 0.059532467 0.11142163
000370 bd 13 d7 bd 62 3f 5c be 92 69 01 3a f3 6f a5 3e
       -0.10501812 -0.21508554 0.00049366907 0.32311973
000380 10 74 48 bd 24 38 66 3c 47 78 6b bd 9b 5e 25 bd
       -0.04893881 0.014051471 -0.057487752 -0.040373426
000390 e5 13 f2 3c 55 31 06 be ce ba f7 bd 76 3b 9b 3d
       0.029550502 -0.13104756 -0.12096177 0.07579701
0003a0 90 04 45 3e b4 a6 62 bc b9 2f e4 3d 7b 04 b0 bd
       0.19240022 -0.01383369 0.11141915 -0.085946046
0003b0 b0 5e a0 bd a1 db ba 3c fd f7 c8 bd 8e 84 f4 3c
       -0.0783056 0.022809805 -0.09812925 0.029848363
0003c0 72 e9 27 3e 13 76 41 be e8 95 c2 bd d8 b5 c9 bd
       0.16397646 -0.18892698 -0.095012486 -0.09849137
0003d0 bf ae 2c 3d 82 22 d3 ba 93 d7 25 3d 29 00 0c 3d
       0.04215884 -0.0016108307 0.04048879 0.03417984
0003e0 cb db 95 bc cd 68 6e 3d 76 ba 94 3d 18 39 60 3d
       -0.018293282 0.058205415 0.07262127 0.05474195
0003f0 6c f9 4a 3d ea 3c eb bd 8d 7d 72 bd fa a2 d4 3d
       0.049554273 -0.11486228 -0.059201766 0.10382648

weight_hh_l1 f4 [144, 36]
000000 1d 07 10 bd 8d 0a da bd 16 4b f6 3c 8c 5f 99 bd
       -0.035163034 -0.10646544 0.0300651 -0.07488927
000010 01 cc a0 bd d0 d5 c0 3d 25 ab 81 bd 6c 03 8a 3d
       -0.07851411 0.094157815 -0.06331471 0.06738934
000020 65 c9 4a bc 9f 61 31 bd 9b fb b6 3d c2 33 ab 3d
       -0.012377118 -0.04330599 0.08934709 0.083594814
000030 f1 77 63 3d 99 62 88 3d bf a5 4e bd 3e 06 07 3e
       0.055534307 0.06659431 -0.050451037 0.13185975
000040 a3 69 ec 3c 87 c9 2b 3e 78 0a 25 3e 58 88 ab 3d
       0.028858965 0.16776095 0.16117275 0.08375615
000050 11 84 16 3d ac ae d6 bd ec 5c ee 3d da 8e 83 bc
       0.036747042 -0.10482535 0.11638817 -0.016059328
000060 dd 70 8f bd 2a 8d a4 bd ac d1 d4 bd c4 12 5e be
       -0.07003949 -0.080347374 -0.10391554 -0.21686846
000070 a3 e9 94 bc 52 84 e7 bd 9c cc 74 3c 67 aa 17 bd
       -0.018177813 -0.11304535 0.014941361 -0.037027743
000080 24 35 2a 3e 49 36 73 bd c4 12 25 be 7a 93 74 bd
       0.16621834 -0.059377942 -0.1612044 -0.059710957
000090 42 0e 44 3e 23 17 62 3d a3 3f 03 3d 30 1d 36 be
       0.19146064 0.055197846 0.03204311 -0.17784572
0000a0 87 9e bc 3c 87 60 45 3e be 5d da bd bf c9 92 bd
       0.02302481 0.19275104 -0.10662411 -0.07167386
0000b0 5e 39 9b 3d d0 89 54 be 79 c0 41 bd 28 53 27 be
       0.07579301 -0.20755696 -0.047302697 -0.16340315
0000c0 99 5a 0a 3e 41 92 24 3e cd 53 13 bd 10 78 0d 3e
       0.13511123 0.16071416 -0.03596859 0.13815331
0000d0 df 34 b7 3d fa 26 13 3e 60 55 31 3e cf 9f b9 3d
       0.08945631 0.14370337 0.17317724 0.09063684
0000e0 05 0c ef 3d 9b e1 72 3c e4 da 62 bd 44 bd 41 3e
       0.116722144 0.014824296 -0.05538453 0.18919855
0000f0 0b d8 f7 bc 9e 5f 32 3d 0a 80 4e b9 94 2d 81 3b
       -0.030254385 0.04354822 -0.00019693389 0.003942201
000100 42 33 93 be ac 2c 93 be 00 09 dc bd 3d fd 3c be
       -0.28750044 -0.2874502 -0.10743904 -0.18455978
000110 ea dc ac bd f2 8b 53 3d 76 88 8a bc 84 1e 85 be
       -0.084405735 0.051647134 -0.016910773 -0.25999844
000120 90 1a b8 3d 54 9e 49 be fa 88 dc bc b3 40 ce 3d
       0.089894414 -0.19689304 -0.026920784 0.10070934
000130 06 5b bc 3d e1 b8 1d bd cb fa 87 bd fc a7 16 be
       0.09197049 -0.038506392 -0.06639632 -0.14712518
000140 77 69 22 be 19 fb 8d 3c 2b 9b a6 3d b7 b7 20 be
       -0.15860544 0.017331647 0.08135065 -0.15695082
000150 bc dc 2d 3e 8a fe 35 bd 70 63 76 3d 30 e1 19 be
       0.16978735 -0.0444322 0.060153425 -0.15027308
000160 16 fe 48 3e 6a f0 f4 bd 82 1f 91 3d 96 04 c9 3d
       0.19628176 -0.11959918 0.07086088 0.09815328
000170 6b 67 bc 3d db 56 ed bd 47 d6 71 bd 06 ae 0c bd
       0.09199413 -0.11588832 -0.05904224 -0.03434565
000180 ba 72 2f 3e b5 cb 4b 3d e4 5f e0 3d 3a 0f 52 be
       0.17133608 0.049754817 0.1095579 -0.20513621
000190 98 19 ba 3d c5 2b da 3d 19 2b ef 3d a9 9d 8d 3d
       0.09086913 0.106528796 0.11678142 0.06914837
0001a0 a2 96 e7 bd 74 ad 3c 39 52 0c ef bd 76 6b 56 bd
       -0.11308028 0.00017993693 -0.11672272 -0.052348576
0001b0 5c 71 ce 3d cf 9f d1 3d ca df 11 bc 71 6f 02 bc
       0.10080215 0.10235559 -0.008903453 -0.00796114
0001c0 8a 45 d6 3d 9a 37 ed 3d 7a 6e 8b bd ad 39 ee 3d
       0.10462482 0.11582871 -0.06808181 0.116320945
0001d0 5a bb 16 be 6d d6 34 3d 41 73 9b bd bc 7d f6 3d
       -0.14719906 0.044149805 -0.07590342 0.12035701
0001e0 7a 7c 0e 3e f1 0b fc bd 1f 37 3f be c9 f1 39 3e
       0.13914672 -0.12306965 -0.18673371 0.1815864
0001f0 da ce cf 3d e3 4c 70 3d 98 7a 11 3e 23 c0 90 3d
       0.10146876 0.058667075 0.14206922 0.07067897
000200 ef 83 0c 3e b2 4d 5e bd 56 e5 2c be 59 93 f8 3c
       0.13722204 -0.054273315 -0.1688436 0.030343698
000210 c0 18 fa 3d fc 73 2b 3e 1e 64 a5 3d 86 3b 11 be
       0.12211752 0.16743463 0.080757365 -0.14182863
000220 23 e3 4d be 80 02 04 3e e5 0f 32 be 53 17 40 3d
       -0.20106177 0.12891579 -0.17388876 0.046897244
000230 75 c1 c4 bd 69 ac 18 3e 0a a0 59 bb 72 38 97 3d
       -0.096072115 0.1490952 -0.0033206963 0.07383813
000240 23 5a c4 3d 88 c6 13 3d a3 e1 7d bd 15 7a b0 bd
       0.09587505 0.036078006 -0.061982762 -0.08617035
000250 d3 69 61 bd d6 65 ea 3d 18 ac 8d 3d ba 59 2f be
       -0.055032562 0.11445205 0.0691759 -0.17124072
000260 c7 87 46 3d 55 51 c6 3d 27 4a d6 bd d9 2f bb bd
       0.04846933 0.096834816 -0.10463362 -0.091399856
000270 c0 e3 47 bc ed a4 0e 3e 85 6a 28 3d 39 02 14 3e
       -0.012200296 0.13930102 0.04111721 0.14453973
000280 da 85 5e 3d bb 74 a0 3d cf 83 a3 bd ac f9 66 bd
       0.05432687 0.078347646 -0.07984125 -0.05639045
000290 4d 14 60 3d 7a 9f 7d 3e f0 65 0b be df 01 02 3e
       0.05470686 0.24767867 -0.13613105 0.12696026
0002a0 20 f0 be 3d 30 f4 a4 bd 6d 68 63 be 64 9f 96 3d
       0.09323144 -0.080543876 -0.22207804 0.0735462
0002b0 e5 8b 52 bd 8f 2f 4c be da 56 c6 bd c3 6a a1 bb
       -0.051402945 -0.19940017 -0.09684534 -0.004926057
0002c0 e8 e7 46 bc 4a 2e 15 bd f9 cf b0 bd 58 4f 3b be
       -0.012140252 -0.036421098 -0.08633418 -0.18291986
0002d0 e8 65 4a 3e 37 f6 b7 3c bb cc 23 be 07 ea 29 be
       0.19765437 0.022456272 -0.15996067 -0.1659318
0002e0 87 b9 77 bd e3 8a f5 bd fd d1 0b 3e 7d b7 e4 bd
       -0.060479667 -0.11989381 0.13654323 -0.1116781
0002f0 98 36 89 3d 5a 84 af bd 96 ce ff 3d 72 36 2e be
       0.06699866 -0.08570166 0.12490575 -0.17012957
000300 25 9d 45 be fb 78 47 bd 82 c5 eb 3d 5c 31 87 bc
       -0.19298227 -0.04869936 0.11512281 -0.016503029
000310 c2 66 17 3e 25 65 bd 3d a5 8e b9 bd 9a 4e 29 bd
       0.14785293 0.092478074 -0.090604104 -0.041334726
000320 0a d3 e4 bd 25 91 46 3e de 73 8c bc dc 04 0d 3e
       -0.11173065 0.19391306 -0.017145094 0.13771385
000330 fe c2 db 3c 1c ec 7e 3d 9d f3 22 bd 90 39 62 be
       0.026826378 0.06223689 -0.03978311 -0.22092271
000340 7d d8 a0 bc cf f2 2a 3d 45 1e 23 3d c5 eb 25 be
       -0.01963448 0.041735467 0.03982379 -0.1620322
000350 b5 b3 92 bb 5a 54 1e 3e ed 52 0b be 1e 3f 95 3d
       -0.004476989 0.15461865 -0.13605852 0.07287429
000360 a9 51 23 3e cc bc 4f bc fa 50 10 3d d7 5d 26 be
       0.1594912 -0.01267929 0.035233475 -0.16246735
000370 22 44 71 3d 11 b8 eb 3d 33 83 d7 3c 53 6c 35 be
       0.058902867 0.11509717 0.026307678 -0.17717104
000380 15 32 0a bd 15 dc 40 bd d2 72 ee 3d d1 3f 34 bc
       -0.03373917 -0.047084887 0.11642994 -0.011001543
000390 f3 ad 95 bc 1a 83 5a 3e 8b b5 03 3e bd e0 00 be
       -0.018271422 0.21339074 0.12862222 -0.12585731
0003a0 89 7a d3 bd 0d 0b e1 3d 6c 4d 33 3e 5b e8 1b 3e
       -0.10326106 0.10988436 0.17510003 0.15225355
0003b0 0c 16 d4 bc 4d 52 3b 3e 40 0b 21 bc 17 c9 9b bd
       -0.025889419 0.18293114 -0.009829342 -0.07606714
0003c0 69 18 6b bc ba bd fa bd 65 ed 4f be 36 05 e3 3d
       -0.014349082 -0.12243219 -0.20305403 0.11084978
0003d0 35 4d c5 bd 90 88 ee bd 1f a8 1b be e1 84 62 3d
       -0.09633867 -0.11647141 -0.15200852 0.055302504
0003e0 13 5e b8 3d 2e e0 62 bd f0 bb fd bc df c3 4a be
       0.09002318 -0.055389576 -0.030973405 -0.19801281
0003f0 1b 40 c9 3c 0f 50 4b bc de 22 5a 3d 01 57 1e be
       0.0245667 -0.012409224 0.05325591 -0.15462877

bias_ih_l1 f4 [144]
000000 a7 b3 78 bd 86 d7 39 bd f7 d5 8b bd bc fc 0a be
       -0.060718205 -0.045371555 -0.0682792 -0.13572973
000010 af 31 f4 3c 58 8f c1 3d 76 33 9d bd e7 82 59 3d
       0.029808847 0.09451169 -0.07675831 0.053103354
000020 e9 89 03 bd a0 2e 4c 3e f1 7a 25 3d d0 07 a8 bd
       -0.032113943 0.19939661 0.04040045 -0.08204615
000030 d3 74 e3 3d b6 fc 2e 3d b3 2c 49 bd 54 70 9b 3c
       0.11106267 0.042721473 -0.049114894 0.01897446
000040 77 bb 9d 3d a9 4b 3d 3e c9 ef 1f 3e 9f 63 c6 3d
       0.07701772 0.18485893 0.15618815 0.0968697
000050 12 d6 24 3e 2f e7 4d 3e 80 6f 5b bc 42 c7 42 3d
       0.16097286 0.20107721 -0.013393283 0.04755331
000060 25 64 8d 3d e3 33 e8 3d 4c 02 b8 bb 4e dd 7d bd
       0.06903867 0.113380216 -0.005615508 -0.06197863
000070 67 97 c0 bd 80 cc 04 3d 93 16 42 3e f4 8c 65 3e
       -0.09403878 0.03242159 0.18953924 0.2241705
000080 59 1f 08 3e a0 81 af 3e 20 ef ee 3d 2b 4e 44 3e
       0.13293208 0.34278584 0.11666703 0.19170444
000090 53 be f1 bd 05 7c be ba e5 7a 34 3e ac 15 ce 3d
       -0.118038796 -0.001453281 0.17625006 0.10062727
0000a0 01 eb f8 bc 30 87 6d 3d c8 6b a3 bd c6 e3 28 3e
       -0.030385496 0.057990253 -0.07979542 0.16493139
0000b0 ac cb f2 39 dd 67 3c bc 3a c0 40 3a b0 2d ae bc
       0.00046309584 -0.011499372 0.0007352863 -0.02126202
0000c0 69 41 b3 bd 6c 6d 42 bd 83 d8 18 3e ce 46 ed bc
       -0.0875271 -0.047467634 0.14926343 -0.028964426
0000d0 8b d0 ef 3c 96 00 14 3e 92 10 23 3e 7d a8 b1 3a
       0.029274246 0.14453349 0.1592429 0.0013554242
0000e0 00 93 6b 3d 97 b7 b5 3c 4b 8a c0 39 d3 14 df ba
       0.057513237 0.022182269 0.0003672413 -0.0017019756
0000f0 bb 0f 1c 3e 34 3d d9 3d cc 06 1e 3e 84 2c ae 3d
       0.15240376 0.10607377 0.1543228 0.085045844
000100 1c a2 95 bd 76 cb 85 bd 1a 41 1d 3e 80 1d 00 be
       -0.073063105 -0.06532948 0.15356866 -0.12511253
000110 8d 75 06 be 35 3b 50 be 1c 18 be bb 86 e3 a3 bd
       -0.1313078 -0.20335086 -0.005801214 -0.08002381
000120 b0 78 8b 3c 08 7b 07 3e 1f a8 30 3d e3 c5 8c bd
       0.017025322 0.13230526 0.043129083 -0.068736814
000130 11 88 fc bd 17 11 18 be 6e bb 28 bd 28 e1 bf bd
       -0.1233064 -0.1485027 -0.041194372 -0.09369117
000140 5b 3b 32 3d 67 24 5c bd 02 97 04 3d ab aa 0a be
       0.043513637 -0.053745653 0.032370575 -0.13541667
000150 fe 7d 31 bd d7 3c 1b 3e 1b 63 08 be 4a b0 cd bc
       -0.043333046 0.15159927 -0.13319056 -0.025108475
000160 2f dc 6d bd 7c 44 42 3d 23 7d 26 3d 74 e0 17 3d
       -0.05807131 0.047428593 0.040646683 0.03707929
000170 60 9e df 3d 45 ed b6 bb 56 b0 d6 3d 9e 92 80 bd
       0.109188795 -0.005582484 0.10482852 -0.06277965
000180 dd 08 28 bc c5 43 03 3e 79 b8 0c be a9 98 0a be
       -0.010256019 0.12818821 -0.13742246 -0.13534798
000190 c4 fd 83 3d f0 48 a1 bc 0a ad a2 3b e2 0f e9 37
       0.06444886 -0.0196881 0.0049644755 2.778316e-05
0001a0 27 5d 1f 3e 9d 34 1a be 4f 9a f7 bc d6 2c 05 be
       0.15562879 -0.15059133 -0.030224947 -0.13005385
0001b0 ea 11 6c 3e 0a e9 5a 3e 5c a3 84 3d 87 cf 28 3e
       0.23053709 0.2137796 0.06476471 0.16485415
0001c0 6b 0c 3f 3e cd ce 69 bd 10 84 65 bd c8 98 4b 3e
       0.18657081 -0.057081986 -0.056034148 0.198825
0001d0 1b 4c 1d bc bb 2f 31 3e 63 6a fb bd 76 19 19 3e
       -0.0096006645 0.17303364 -0.12276151 0.14951119
0001e0 9e fa 7f 3b 6c 33 97 bd 02 0c 8c 3d 24 92 ed 3d
       0.0039059292 -0.07382855 0.06838228 0.1160014
0001f0 41 e4 56 3e c6 d9 12 3e 27 7c d4 3d a1 c5 0a 3b
       0.2098551 0.14340886 0.10375243 0.0021174925
000200 87 8d e7 3d 19 9e 22 3e 13 d0 ae bd e2 e5 d4 bd
       0.11306291 0.15880622 -0.08535781 -0.10395409
000210 8e 1e 20 3e 5f 90 c1 3d a7 0e 3a 3e 1a 98 ea 3d
       0.15636656 0.09451365 0.18169652 0.11454792
000220 d6 56 4f 3e 16 f9 24 bd 21 36 a7 bd df 02 4c bd
       0.20247969 -0.04027661 -0.08164621 -0.049807426
000230 52 66 ba bc 54 0d c1 3e 27 fd 2c bd 5d 90 34 3e
       -0.022753868 0.3770548 -0.042233612 0.17633195

bias_hh_l1 f4 [144]
000000 61 7e 49 3e cd 6a cd bc 79 4c 19 3d 86 57 b7 bd
       0.19677116 -0.02507534 0.037426446 -0.08952241
000010 a9 d5 b0 3d f0 de d1 3d e4 a5 9c 3c d7 db 66 bd
       0.086345024 0.102476 0.019122072 -0.056362
000020 70 37 1d 3e a6 eb b0 3d 51 d4 2b 3e be 7e 26 3d
       0.15353179 0.08638696 0.16780211 0.040648215
000030 d4 18 35 3d d5 66 25 3e 29 a2 d9 bc 3f 4f 05 3e
       0.04421313 0.16152509 -0.026566582 0.13018511
000040 c6 a7 21 3e d2 9a 26 3e 0c f9 84 3a 8d e8 12 3c
       0.15786657 0.16269997 0.0010145023 0.008966577
000050 80 bd e5 3d 42 be 8d bd 6e 22 58 3d 6f 3f a9 bb
       0.11217785 -0.069210544 0.05276721 -0.0051650326
000060 56 3d 8e 3e d4 e5 5e 3c 5d 23 72 3d 4b 05 22 bd
       0.2778117 0.0136046 0.059115756 -0.03955583
000070 6b f6 82 3c 04 f7 6b bd 96 1a 4b 3e 9d f2 06 3d
       0.015986642 -0.05760862 0.1983436 0.032946218
000080 fe 7a 0e bd fc d2 3b 3e ab 33 73 bd b5 7b 26 bd
       -0.034785263 0.18342203 -0.059375446 -0.04064532
000090 b2 0c 24 3d 6c cf a1 bd 2f d2 17 3e f7 8d 8c bc
       0.04005117 -0.07900891 0.14826272 -0.017157538
0000a0 69 a5 e1 3c e6 dc 49 3c a5 20 15 3e 7e 5b 35 3e
       0.027544694 0.012320733 0.14563234 0.17710683
0000b0 e7 5f 20 3e 90 d3 a7 bc d6 3e 43 3d e2 d5 f4 3d
       0.15661584 -0.020486623 0.047667347 0.119548574
0000c0 32 59 5d bd 5b 27 9f 3d ec 25 ab 3d 01 bf ff 3c
       -0.05404014 0.07771178 0.083568424 0.031219007
0000d0 e6 3e e9 3d 74 0f e9 3c 51 87 c1 bd 95 db 04 be
       0.1138895 0.028449751 -0.09449638 -0.12974389
0000e0 27 1f 4e bd 25 d6 a8 3d 5f 47 ea bd 7a b9 61 3d
       -0.050322678 0.0824397 -0.11439394 0.055108525
0000f0 a6 d6 ea bc 3c 47 35 3e 5c 59 ad bc c1 ee 09 3d
       -0.028666805 0.17702955 -0.021160774 0.03367496
000100 c6 2c 8b bd 0f a8 e6 3d 15 71 e5 bd 26 3d 8e 3d
       -0.06795649 0.112625234 -0.11203209 0.06945257
000110 b0 d9 b0 3d 9f a2 39 be bf 30 4c bd e3 9e 14 3e
       0.086352706 -0.18128441 -0.049851175 0.14513735
000120 c7 61 81 3d 7b eb 2c be 95 78 34 be bf bf 33 bc
       0.06317478 -0.16886704 -0.17624123 -0.010971009
000130 53 5f 1e be 22 d0 22 3e dc 3f ec bd 6d e3 d0 bd
       -0.15466051 0.15899709 -0.11535618 -0.10199628
000140 f2 66 bc 3d 4a 1e a0 bd 60 e0 11 3b 04 89 b1 bd
       0.09199323 -0.07818277 0.0022258982 -0.08668712
000150 e6 05 eb 3d bc 7d 7e 3d 87 5b f0 bd 81 09 f0 bd
       0.114757344 0.06213163 -0.117362075 -0.11720563
000160 52 dd 27 3e 2d 83 02 3e a1 5b f8 bd 6e eb c7 3c
       0.16393021 0.12745352 -0.12126852 0.024404254
000170 c7 46 f3 bc 4b 20 e0 bc d0 53 04 3d 97 47 0a 3e
       -0.029696835 -0.027359148 0.032306492 0.13503872
000180 a5 a6 e8 bd 1c 34 ac 3d 45 13 f4 bd ac f4 1f be
       -0.1135991 0.084083766 -0.11917738 -0.15620679
000190 6b 1a 2c be ac 38 30 be 70 dd a1 bd 69 ec a1 bd
       -0.16806953 -0.17209119 -0.07903564 -0.0790642
0001a0 d5 81 b4 bd 96 f4 68 bb 71 ec 43 bc c4 06 e2 bd
       -0.08813826 -0.0035546175 -0.0119582275 -0.11036447
0001b0 63 99 2f 3e 19 60 7f 3d b9 c7 f3 3d b1 ad 9c bd
       0.17148356 0.062347505 0.119033284 -0.076503165
0001c0 35 43 f1 3d 39 89 48 3e 63 cb e8 bd 46 77 66 3d
       0.11780397 0.19583596 -0.11366918 0.05626609
0001d0 e7 73 4a 3c f7 bd 53 bd 87 0e d5 ba f1 27 22 3d
       0.012356735 -0.051694836 -0.001625494 0.039588872
0001e0 db cf 00 3e d9 c6 29 bd 4d 2a 5a 3e 30 16 8c bd
       0.1257929 -0.0414494 0.21305199 -0.068401694
0001f0 f9 25 9d bc 9e ae 31 3d 84 f4 f2 bc 13 7c 46 3e
       -0.019183146 0.04337942 -0.02965761 0.19383268
000200 8b 5b 50 3e ef 96 59 bd 55 81 d4 bc 52 d6 82 bc
       0.20347421 -0.053122457 -0.025940577 -0.015971337
000210 1e e0 06 bd e9 29 f4 3c 52 51 96 bd 36 40 ac bd
       -0.03292858 0.02980514 -0.07339729 -0.08410685
000220 ec 5d 6a 3d fb 44 90 3b 66 7f 36 3e 75 58 66 3d
       0.057218477 0.0044027544 0.17822036 0.056236703
000230 bc 9c 14 38 8e 23 39 3e aa e7 7a 3d 25 14 76 bd
       3.543192e-05 0.1807997 0.06125609 -0.060077805

weight f4 [1, 36]
000000 fd 2d 81 be 10 45 9a 3e 09 58 e6 3d 37 f2 44 3e
       -0.252304 0.30130816 0.1124726 0.19233023
000010 de 76 14 be 1f fa 4f 3e 99 21 0d be a4 d3 be 3d
       -0.14498469 0.20310257 -0.13782348 0.09317711
000020 44 ae 01 3e 3e df 2e be b2 9f 5b 3e ab 88 56 3e
       0.12664133 -0.17077348 0.21447638 0.20950572
000030 6a e2 05 be 40 3e 80 3d a0 9c 27 be c7 ec 87 be
       -0.13074651 0.06261873 -0.16368341 -0.26547834
000040 98 75 01 be 7f 17 f5 3d fe 1f 5e 3e 17 03 98 3d
       -0.12642515 0.11967372 0.21691892 0.07422464
000050 f1 e1 50 3e 1d e0 51 be f3 24 c4 3d 34 99 5b be
       0.2039869 -0.20495649 0.0957736 -0.21445161
000060 03 d2 7e be 64 77 65 be 84 f5 35 3e ac 22 ce 3d
       -0.248848 -0.22408825 0.17769438 0.10065207
000070 84 b3 65 3e 03 c7 80 3d 58 83 39 3e e7 86 24 3e
       0.22431761 0.062879585 0.1811651 0.16067086
000080 37 11 43 3e 64 6b 47 be cb 96 78 3e 46 4e e9 bd
       0.19049536 -0.1947456 0.24276273 -0.113918826
