LSTM_spread_forecasting/models/LSTM_ICE_SHW.pth (torch, 427511 bytes, 13 tensors)

weight_ih_l0 f4 [288, 1]
000000 16 fc c8 3d 2a 39 7a 3e d5 4e 27 be 15 2f f5 3d
       0.098137066 0.24435869 -0.16338666 0.11971871
000010 e0 b9 f7 bc fb 77 00 be cb a2 4e 3d a4 3e 6e bc
       -0.03024 -0.12545769 0.05044822 -0.014541302
000020 98 6e dc bb fd 4f 4a 3d 45 be 22 3d 54 6d 83 bb
       -0.006727051 0.04939269 0.039732236 -0.0040108357
000030 50 06 f5 bd aa 09 51 3e 6d ab 2e 3d 5d e4 c3 bc
       -0.11964095 0.20413843 0.042643953 -0.023912603
000040 0f 8d b0 bc 1f 83 86 3d 44 0f 19 bd 76 57 62 bc
       -0.021551637 0.06567978 -0.037368074 -0.013814798
000050 f0 5c a2 bd 64 3f 9a bd 72 42 ac bd f4 22 32 bd
       -0.07927883 -0.07531622 -0.08411111 -0.043490365
000060 72 8e 18 bd b8 21 da 3d 4a e3 59 bd 7e d6 13 3d
       -0.03724522 0.106509626 -0.053195275 0.036093228
000070 30 02 a7 bd 6b 0b f6 3d 90 67 bf bd bb 11 09 bd
       -0.08154714 0.120138966 -0.09345925 -0.033464175
000080 68 d4 60 3d e4 74 8c bc 26 30 bf 3c d5 77 b3 3d
       0.054890066 -0.017145582 0.023338389 0.087630905
000090 37 9a e6 3d cf 6b 7e bd 89 49 36 3e 5b aa 31 be
       0.11259883 -0.062114533 0.17801489 -0.17350142
0000a0 65 ba bc 3c 71 11 53 bd 35 0a 9f 3c 44 08 0f be
       0.023038099 -0.051530305 0.019414047 -0.13967997
0000b0 fb 98 aa bd f8 b6 89 3b 20 14 c1 3d c6 1a 29 be
       -0.0832996 0.00420272 0.09427667 -0.1651412
0000c0 70 d5 2e be 08 c6 f7 3a d1 54 c5 3c 9f 3d d2 bc
       -0.17073607 0.0018903622 0.024088295 -0.025664149
0000d0 10 fa 2e 3d 0e 90 94 3c 41 f3 cd 3d 26 eb 19 3e
       0.042718947 0.018135097 0.100561626 0.15031108
0000e0 9b 49 5e 3d 0c de 30 bc b4 86 0b 3e e6 af 44 3d
       0.054269414 -0.010795128 0.13625604 0.048019312
0000f0 e3 c4 8d 3d 10 fe 73 3c b0 e2 58 3c dc 80 fd 3a
       0.06922319 0.014892116 0.01323764 0.0019340771
000100 5e bf e0 bd 7d 7c fb 3c 5d c1 29 be b7 96 bd 3c
       -0.109740004 0.03069901 -0.16577668 0.023143156
000110 f1 5b f3 3d bb 07 fd 3d 34 fe 0c 3e 35 da d3 bc
       0.11882771 0.1235499 0.13768846 -0.025860885
000120 48 89 46 3d 1b 5a 2e 3e c8 3e 9c bc c2 2b b9 3c
       0.048470765 0.1702656 -0.019072905 0.022603873
000130 72 ee 93 bd 8a a7 74 bd f0 95 9b 3c b9 37 af 3c
       -0.07223214 -0.05973009 0.018992394 0.021388875
000140 d0 99 20 3d 37 1e 34 3e 4e 6a 1a 3e 51 6b c5 bd
       0.039209187 0.17589651 0.15079615 -0.096396096
000150 91 ae c0 bd 59 2f 2c 3d 33 d1 57 3d 98 49 ff 3c
       -0.09408296 0.04203734 0.052689742 0.031163022
000160 59 61 88 3d 8d 37 e3 3d b3 57 a5 bc 44 82 73 3d
       0.066591926 0.1109458 -0.02018342 0.059450403
000170 b3 2e e2 bd 03 9c 4a bc 77 ad e3 bd 34 36 99 3d
       -0.110440634 -0.012366298 -0.1111707 0.074810416
000180 80 29 ab 3c 75 9d de 3b 51 f4 89 bd 98 33 e7 3d
       0.020893812 0.0067936727 -0.06736053 0.112891376
000190 66 c6 c1 bd 1e 0d f0 3d 5a 4d 38 3c 79 96 c4 3c
       -0.094616696 0.11721252 0.011248911 0.023997532
0001a0 bd b2 d3 3c 44 15 c5 bd e1 4a 23 be 37 45 da 3c
       0.025842065 -0.09623197 -0.15946533 0.026644332
0001b0 ff ed 07 3e 54 3a 80 3d 3b fe 05 3e 41 b2 13 bc
       0.13274382 0.06261125 0.13085262 -0.009014667
0001c0 85 73 67 3d 35 44 ea 3b 25 13 70 3d 91 60 d0 bd
       0.056506652 0.007149244 0.058612008 -0.101746686
0001d0 3a de a1 3c 56 67 71 bd ea c9 1c 3d b0 02 c1 bd
       0.019759286 -0.05893644 0.038278498 -0.09424341
0001e0 b5 fd 18 be 08 cc 5e 3e d9 a2 bc bd b0 cd 28 3e
       -0.14940532 0.21757519 -0.09210748 0.16484714
0001f0 ad 1d 97 bc 01 17 68 bd 13 72 bf 3d 09 73 af 3d
       -0.018446768 -0.056662563 0.0934793 0.08566863
000200 de 31 d6 bd 13 6b eb bd b6 03 2e 3e 99 27 c3 bb
       -0.1045873 -0.11495032 0.16993603 -0.005955648
000210 46 ef 1f bd 12 48 1f be 36 6e 04 3e c8 bc 97 bd
       -0.03904655 -0.15554836 0.12932667 -0.07409054
000220 76 b7 bb bd 0e a8 b9 3d 00 b8 41 bd 81 ad 2f 3e
       -0.09165852 0.09065257 -0.047294617 0.1715603
000230 da 37 48 3d 88 06 2e 3e 93 be 07 3d ec 73 91 3d
       0.04888139 0.16994679 0.03314073 0.071021885
000240 65 68 12 be b0 69 c6 bd 76 7a 10 3e e8 b2 19 3e
       -0.14297636 -0.09688127 0.14109215 0.15009654
000250 2e e9 04 be 8e bc 13 be c6 85 98 bd 90 44 3d be
       -0.12979576 -0.14427397 -0.0744739 -0.18483186
000260 ac 6a 8a be 97 be 1b be f8 ab af bd c3 36 25 be
       -0.2703451 -0.15209423 -0.08577722 -0.16134171
000270 67 f9 29 3e 76 ae f8 3d d2 40 42 3d 11 77 2a bd
       0.16599046 0.12142651 0.0474251 -0.041617457
000280 55 48 3d 3e b2 35 16 be c4 44 a8 bd 3a d8 f0 bd
       0.18484624 -0.1466892 -0.08216241 -0.11759992
000290 71 73 46 be d1 f1 68 be 32 af 08 3e bd 27 38 3e
       -0.19379975 -0.22748496 0.13348082 0.17983909
0002a0 15 e6 d1 bd b4 e7 1b 3e 60 40 06 be a9 a6 ba 3d
       -0.10248963 0.15225106 -0.13110495 0.09113819
0002b0 57 42 00 be f8 10 f1 bd 54 f4 4d 3e 8c 3b e2 bd
       -0.12525307 -0.11770815 0.20112735 -0.11046514
0002c0 4f ef 8a 3d b7 cb 21 be 4e e1 85 3a 01 72 7f 3e
       0.06783926 -0.15800367 0.0010214241 0.24945833
0002d0 0a 8a 02 3e 48 86 1a be 8d cf b6 3d 47 8e 93 bd
       0.1274797 -0.15090287 0.08926306 -0.072048716
0002e0 17 17 fb bd 4d 7d 0c 3e d5 d5 e7 3d c6 ca 2f 3e
       -0.122602634 0.13719673 0.11320082 0.17167196
0002f0 d6 4f f2 3d 97 bf 01 be 18 ff 02 be a5 e2 a2 bd
       0.11831634 -0.12670742 -0.12792623 -0.07953385
000300 26 85 e1 3d 08 71 4a 3e 0f 4f 31 be 33 37 c1 3d
       0.11011724 0.1976968 -0.17315315 0.094343565
000310 9b 32 ef bd 61 90 52 be 6c e2 3b 3e 70 d6 32 3d
       -0.11679574 -0.20562889 0.18348092 0.043661535
000320 13 22 0a bc c3 72 07 3e 5c 61 fb bc 3d 8b 89 bc
       -0.0084309755 0.13227372 -0.030686073 -0.016790027
000330 ed 84 18 bd 17 78 31 3e 3a 5c d7 bd c3 7b d0 bd
       -0.037236143 0.17330967 -0.10515638 -0.10179856
000340 7a 05 83 bd de ea 1b 3e c5 95 d3 bd 20 df 3f be
       -0.06397529 0.15226313 -0.10331301 -0.18737459
000350 ce 8f 10 be 16 bc 38 3e a3 60 3f 3e 2f df 33 3e
       -0.14117357 0.18040499 0.18689208 0.17565607
000360 27 ed 29 3e a9 63 89 3e ba 03 50 be 91 91 79 3d
       0.16594373 0.26833847 -0.20313922 0.06092984
000370 1d 13 6a be 51 d2 d5 bd a0 45 f1 3d 97 6e a2 bd
       -0.22858854 -0.10440505 0.11780858 -0.079312496
000380 25 68 c2 3d c3 51 ef 3d 00 dd ed 3c d1 4a 00 bd
       0.0949252 0.11685517 0.029036045 -0.03132135
000390 c1 88 91 bc dc c6 86 3e 8e 16 59 bd a7 77 5e 3e
       -0.017765405 0.26323593 -0.053000025 0.21725331
0003a0 f1 d7 ae 3c f5 78 73 bc e8 74 fa bd e1 f4 51 3d
       0.021343203 -0.014860381 -0.12229329 0.051258925
0003b0 d2 da c0 3c 10 92 0c be ae b8 bd bd c9 7a 94 bd
       0.023541842 -0.13727593 -0.092637405 -0.07249982
0003c0 7e 70 b0 bd f5 ad 74 3e 4b bd 09 3d e2 67 44 3e
       -0.08615206 0.23894484 0.03362779 0.19180253
0003d0 e7 1e 24 bd cf 32 c2 3d 3e 2e f9 bc 22 ff d1 3d
       -0.040068533 0.09482347 -0.030417558 0.10253741
0003e0 bf 00 0f bd a6 99 4b bd 96 5d 0c 3d 5a d3 1b 3e
       -0.03491282 -0.049707077 0.034268938 0.15217343
0003f0 40 d5 29 3e bc c9 0e 3c 24 fa 91 3d c2 44 11 be
       0.16585255 0.008715089 0.07127789 -0.14186385

weight_hh_l0 f4 [288, 72]
000000 b0 be 7e bd 99 5b 1e be 4b 18 c2 bd 94 75 b2 bd
       -0.062193573 -0.15464629 -0.0947729 -0.087138325
000010 78 a4 6d 3d 02 7d 7a bd 78 e8 7b bc 4b 27 80 bd
       0.058018178 -0.061154373 -0.015375249 -0.062574945
000020 60 f7 61 3d 6e 8b b0 bc 54 12 73 3d 17 bd ac bd
       0.055167556 -0.02155086 0.05934365 -0.084345035
000030 24 cd 21 be 8b 57 d9 3c dd cc 56 3d 61 a2 07 3d
       -0.15800911 0.026531002 0.052441467 0.03311384
000040 b2 33 98 3d bc ed f1 bd dd d2 42 3e 46 1c 1a bd
       0.07431735 -0.11812922 0.1902575 -0.03762462
000050 85 45 8f bd 8d 43 5c bd f7 cf 45 be 43 d9 08 3d
       -0.06995682 -0.05377536 -0.19317614 0.033410322
000060 c9 ac ec bc a6 5c de 3d 27 f6 54 3e b5 ec 50 3d
       -0.028890984 0.10857515 0.20797025 0.05100699
000070 b1 ba bf 3c 55 4a 0f 3d 0e ab d0 bc 2c a9 be bb
       0.023404451 0.034982998 -0.02547219 -0.0058185067
000080 61 eb 9c bb 14 2d 4f 3c 08 fb ee bd 6f 86 f5 3d
       -0.0047888015 0.012645025 -0.11668974 0.11988532
000090 dd 78 ff bc bf f9 99 3d 86 0e ee 3d 5d 4f 41 3e
       -0.031185562 0.075183384 0.11623864 0.18877931
0000a0 09 31 dc 3d 75 da 9d bd 12 97 96 bc 68 2f 9f bd
       0.1075154 -0.07707683 -0.018382583 -0.07772714
0000b0 76 b8 00 3e 38 82 e0 bd c2 ea 32 3d 48 80 3e 3e
       0.12570366 -0.10962337 0.043680914 0.18603623
0000c0 b3 07 3b bc 99 21 10 3e 0c 0a 82 bd 04 21 ab 3b
       -0.01141541 0.14075316 -0.063495725 0.0052224416
0000d0 31 70 98 bc 72 2f d8 3a 4d c9 10 3e 51 09 a0 3d
       -0.018608185 0.0016493632 0.1413929 0.07814277
0000e0 09 04 58 3e f0 ae 83 bd 68 ff 86 bd 42 f4 01 3e
       0.2109529 -0.06429851 -0.065916836 0.12690833
0000f0 ee 79 a6 bd 77 15 1e 3d 45 0a 77 3d 8d 67 5d 3c
       -0.08128725 0.03859469 0.06031253 0.013513458
000100 7a 74 cd 3d 17 ba 88 bc e9 f0 00 3e 90 27 de bd
       0.10031982 -0.016690297 0.125919 -0.1084739
000110 ff 06 3c bc f6 7d a2 bc 5b a0 9d 3d ab dd ce 3d
       -0.011476277 -0.019835453 0.07696601 0.101008736
000120 ef f1 69 bd dd 3a 2c be f2 3e 0d 3e 39 16 98 3d
       -0.05711549 -0.1681933 0.13793543 0.07426114
000130 e0 46 46 3d e2 95 46 be a2 57 ef bd 0d 6c 8f bc
       0.048407435 -0.19393113 -0.116866365 -0.017507577
000140 02 b4 26 be 93 92 9d bd 38 e2 20 be 33 c0 8d bd
       -0.16279605 -0.076939724 -0.15711296 -0.06921425
000150 a8 28 80 3d 9c c4 9a 3a c6 7f f5 3d 13 c0 1f be
       0.062577546 0.0011807862 0.119872615 -0.15600614
000160 1c e6 4b 3d 10 1c 62 3d 31 dd 02 3e 2a c1 a5 bd
       0.049779996 0.055202544 0.1277969 -0.08093484
000170 ca 99 8d bd 64 67 36 3d ff e0 0c bc ba 64 8e 3c
       -0.069140986 0.044532195 -0.008598565 0.017382015
000180 31 aa 26 3d db 43 28 bc f5 4f 7b bd 87 07 00 3e
       0.04068965 -0.010270084 -0.06135555 0.12502871
000190 a2 80 ff 3c d5 61 77 bd f9 ee 2b 3e fa 27 52 bc
       0.031189267 -0.060396034 0.1679038 -0.012826914
0001a0 36 27 83 3d d8 0e ae 3d d8 d4 a1 bd e5 de 14 3e
       0.06403963 0.08498925 -0.07901925 0.14538153
0001b0 52 a0 ca 3d 07 7d 4a bd 46 05 67 3c 9d d2 85 bd
       0.0989386 -0.04943564 0.014100378 -0.06534312
0001c0 66 25 81 bd 03 6f 06 3e c9 f1 1c 3e 71 0d 1b 3c
       -0.06305961 0.13128285 0.15326609 0.009463654
0001d0 49 7f 10 bd ee a9 8e bd 03 d2 ac bd e1 b5 fb 3d
       -0.03527764 -0.06966005 -0.08438494 0.1229055
0001e0 c8 08 e9 3d 43 85 5c 3d f7 57 d1 bd 43 96 8f 3c
       0.11378628 0.053838026 -0.10221856 0.017527705
0001f0 f5 f6 21 be 9a 5a 29 bd 8c 10 b7 3d 36 e8 9a bc
       -0.15816863 -0.04134617 0.08938703 -0.018909555
000200 21 22 11 bd 1e 88 ca 3d 84 e4 b5 bc c7 b7 1d 3e
       -0.03543294 0.098892435 -0.022203691 0.15402137
000210 65 14 3f be 83 59 87 bd 82 0a 80 3d 24 34 0f bb
       -0.18660124 -0.0660887 0.06252004 -0.0021851147
000220 4a 9f 61 3b 1c 9e f4 3d e0 49 13 3d 8d b2 ba bd
       0.003442722 0.119442195 0.035959125 -0.09116087
000230 20 58 d6 bd 6a f6 07 bd 2c 1b c1 3d a5 2e a1 3c
       -0.10466027 -0.033193983 0.09429011 0.019675562
000240 39 5c b4 bd b2 84 19 be cd 80 9c bd 93 ec f6 3d
       -0.088066526 -0.14992025 -0.07641754 0.12056842
000250 1e 99 3e 3e 86 9c 41 bd c7 d3 24 be b2 1f 87 bd
       0.18613097 -0.047268413 -0.16096412 -0.06597842
000260 33 33 93 bd 4d 31 fe bd 28 ed 01 3d 21 ae 29 3c
       -0.071875 -0.12411747 0.03172031 0.010356457
000270 5a b7 8d bd 7f 6f 9b 3d f8 a6 5b 3e bf 68 58 bc
       -0.06919737 0.075896256 0.21450412 -0.013208567
000280 b9 d4 a6 3c cd 06 c2 3d d0 62 84 3d a7 d8 d9 bb
       0.020365106 0.094739534 0.064641595 -0.0066481414
000290 8b 05 13 3c 1e c8 10 bd bd f0 31 3d e9 0c e8 3d
       0.0089734895 -0.035347097 0.043442477 0.113305874
0002a0 03 02 8a 3d 0f 6e 95 bb 26 f1 36 3d 73 d6 ed 3b
       0.06738665 -0.004560239 0.04466357 0.0072582304
0002b0 50 59 cb 3d 54 9e ee bd 66 ed 30 bc e2 70 ce bd
       0.099291444 -0.116512924 -0.010798788 -0.100801244
0002c0 4a c6 19 be a6 88 d4 3d 33 27 07 be 58 66 3d bd
       -0.15017048 0.10377626 -0.13198547 -0.04624018
0002d0 0f 0d 81 bd f1 71 e8 3b bc 31 16 3e cb c5 15 3e
       -0.06301319 0.007093661 0.1466741 0.14626233
0002e0 a2 f2 ba 3c 17 47 10 be 24 bd 78 3b 49 d8 a0 bd
       0.022820774 -0.14089619 0.0037954533 -0.07853753
0002f0 e1 70 e0 3d 4e db f0 bd 3b d0 6f 3d e2 d4 41 bc
       0.1095903 -0.11760579 0.058548193 -0.01183054
000300 4d 88 e1 bc 53 e3 4d 3e 4c aa 9e 3d c5 35 0d 3e
       -0.027530814 0.20106249 0.07747325 0.13790043
000310 3d 9b d9 bb bc c5 16 bc a4 91 13 3e c2 83 1f 3e
       -0.0066408203 -0.009202417 0.14411026 0.15577605
000320 cf f7 57 bb 9e 1e 1f be f6 ad 00 be ad 8d 50 3e
       -0.0032954102 -0.15539023 -0.12566361 0.20366545
000330 b4 64 a0 bd 06 77 41 bd 98 36 53 bd da c7 05 3e
       -0.078317076 -0.04723265 -0.051565737 0.13064519
000340 44 a1 28 3e cf bb b4 3d 40 ff 84 3d bc 76 21 bd
       0.16467768 0.08824884 0.064939976 -0.039419875
000350 15 74 b7 bd 6e d6 8b 3d 22 a1 07 3d ea de 8f bd
       -0.08957688 0.068280086 0.033112653 -0.07024939
000360 0a 79 0c 3d ff eb 55 3d 7f 1f f3 3c 03 2f 05 3e
       0.03429512 0.052227017 0.029678104 0.13006215
000370 f9 18 79 3e b5 4a d3 3c 0b 98 53 be 2f 90 69 3d
       0.24325933 0.025792459 -0.20663469 0.05702227
000380 dc d2 c7 bd 8b 94 20 3a 83 24 0e be 84 57 07 3d
       -0.09757015 0.000612565 -0.13881116 0.033042446
000390 b4 bb 18 3d 29 b6 e9 3d d2 15 2e 3e 40 7a 0c be
       0.037288383 0.114116974 0.17000511 -0.1371851
0003a0 da 64 40 3d dd 00 fa 3d 20 d1 4c 3e c8 6d 4c bc
       0.04697118 0.12207196 0.2000165 -0.012477346
0003b0 fa 3b 2a bd 89 ec d2 3c 9f 33 a5 bd 06 13 e0 bd
       -0.041561104 0.025747554 -0.080664866 -0.109411284
0003c0 3f 6c 45 3e 10 3c a5 3b 23 1b da 3d 26 fb 94 3d
       0.19279574 0.0050425604 0.10649707 0.07274465
0003d0 3b 82 2a bd b5 1d b0 3d 89 6d cf bd fd 75 6f bd
       -0.041628104 0.08599416 -0.10128314 -0.05846213
0003e0 dd 2d 27 bd 47 08 02 3e 5f b9 1d be 33 46 3a 3c
       -0.040815223 0.1269847 -0.15402745 0.011369276
0003f0 a0 a0 5b 3d 13 12 8e bd 0a 39 4a bc b6 88 0a 3e
       0.05361998 -0.06937041 -0.012342701 0.13528714

bias_ih_l0 f4 [288]
000000 ed 06 b2 3d 26 00 a4 3d 4d 13 b9 3d d3 61 51 3e
       0.08692727 0.08007841 0.090368845 0.20447473
000010 fe c6 27 3d 44 90 4b 3d 69 08 8a 3d e9 65 90 3e
       0.040961258 0.04969813 0.06739885 0.2820275
000020 57 d4 b5 3e 0d 1f e4 3d eb a5 b5 bc bd 49 52 3d
       0.35513565 0.11138735 -0.022173842 0.051339854
000030 57 2e d6 3d 45 c4 2c 3d 6d 41 83 bd c2 52 c3 3d
       0.104580574 0.042179365 -0.06408963 0.09537269
000040 bf 69 e2 3d 4f e0 0f 3e 0b dd 0f 3d 0a 5e 2c 3e
       0.11055326 0.1405041 0.035122912 0.16832748
000050 84 ad 28 3e b0 52 51 3e a0 b5 d8 bb e8 c1 b9 3e
       0.16472441 0.20441699 -0.0066134483 0.3628075
000060 ef 64 d6 bb ea 8c 43 3e 16 99 09 3d 4e 08 76 bb
       -0.006542794 0.19096723 0.03359326 -0.003754157
000070 fa 30 08 3e 73 30 ff 3c e2 f5 0f 3e b1 4f 41 3d
       0.13299933 0.031151032 0.1405864 0.04719514
000080 7c 1b 99 3d a7 a7 ae bd e1 f3 4b 3d 72 32 f5 3d
       0.07475945 -0.08528071 0.049793128 0.11972512
000090 54 0b d4 3b 77 39 8e 3c 9d ea 99 3c 99 99 15 bd
       0.006471077 0.017361386 0.01878863 -0.036523435
0000a0 2b 7e ff 3d 84 79 01 3e 70 a6 8e 3d 9a 0f 2b bd
       0.124752365 0.12644011 0.06965339 -0.041762926
0000b0 21 8a 25 3e 1a 70 8d 3e a8 13 0f 3e c5 46 2e bd
       0.16165973 0.2762459 0.13972342 -0.04254796
0000c0 14 91 ed 3d 87 b0 0a 3e 25 7e ad 3d 0c 13 fe bb
       0.11599937 0.13543902 0.08471326 -0.0077537354
0000d0 98 10 f8 3d 8b 56 cc 3d a4 42 3d 3e 97 77 ba 3d
       0.1211254 0.09977444 0.18482453 0.09104841
0000e0 01 1a b0 bd 6f 7b 06 3e a7 d4 f7 3c ef 9f 20 3d
       -0.0859871 0.13133024 0.030252768 0.039215025
0000f0 60 23 cd 3c ee fd a2 3c ca 1f 84 3c 0a 79 92 3d
       0.025041282 0.019896474 0.01612844 0.071519926
000100 1b 9f a8 3c 12 5a 81 bd 1f 17 99 3d d3 5c 65 3e
       0.02058368 -0.06316008 0.07475113 0.22398691
000110 69 21 4e 3e b2 c1 ac 3d c9 4c 89 3d 61 01 43 3e
       0.20129932 0.08435382 0.06704099 0.19043495
000120 de d2 5f 3c 2c 47 00 3e b0 ba 7a bd 52 5f 8d 3d
       0.0136611145 0.1252715 -0.061213195 0.069029465
000130 52 b8 21 bc c1 d1 09 bd 38 0d df 3d df 2c 17 bd
       -0.009870606 -0.033647303 0.10891193 -0.036908027
000140 e5 f4 3e be 62 a2 1c 3b 03 b0 60 3d bf 1d 68 3d
       -0.18648107 0.0023900499 0.054855358 0.056668993
000150 9c 04 ef 3c 05 bd 3a 3d fb 83 7a bd 5e 40 ce 3d
       0.029177003 0.04559042 -0.061161023 0.10070871
000160 7c bb 85 bb 91 90 b8 3b 92 b1 68 bd 14 e8 2c bb
       -0.004081188 0.005632468 -0.05680997 -0.0026383447
000170 8d 9e 50 3c 84 43 f6 bc 63 0e 28 bb 95 fc d0 bd
       0.012733114 -0.03006149 -0.002564334 -0.10204426
000180 5b c3 51 3d db 48 59 3d 32 de 9d bd 45 9c 2f 3d
       0.051211696 0.053047996 -0.07708396 0.04287364
000190 e9 67 15 3c 59 61 9e 3d 9c 6a 34 be a7 11 d9 bd
       0.009119012 0.07733411 -0.17618793 -0.1059907
0001a0 e7 bc 03 3e 76 27 8b bc b5 21 31 bc db 2d 19 be
       0.1286503 -0.01698659 -0.010811259 -0.14958899
0001b0 65 0d 8a bd c9 fb 28 3d fb 5e c7 bd ed 64 5d 3d
       -0.06740836 0.041255746 -0.09734913 0.05405133
0001c0 9d ef c6 bd a0 c9 93 3b 97 ed 62 3c 75 7a 14 be
       -0.09713671 0.0045101196 0.013850591 -0.14499839
0001d0 52 7d 76 bc e5 32 3a be ec 13 07 be 67 91 9f bd
       -0.015044527 -0.18183477 -0.13191193 -0.07791405
0001e0 8a c5 f9 bd 4c 98 ca bd 49 47 c0 bd e6 62 c1 3d
       -0.12195881 -0.098923296 -0.093885966 0.094426915
0001f0 a0 4d b7 bd 6b 06 bf 3c cd a1 86 bd 7b 4b dd bd
       -0.08950353 0.02331849 -0.0657383 -0.108054124
000200 58 84 eb 3d 59 63 d6 bc 47 f3 e4 3d 71 a4 b4 3c
       0.11499852 -0.02617042 0.11179214 0.022051068
000210 1e 00 23 bd c0 39 0d be ff 32 9e 3c 73 1d 87 3d
       -0.039795034 -0.13791561 0.019311426 0.06597414
000220 26 b3 98 3d 03 1b b9 bc c1 2e a2 bd 18 34 b6 bc
       0.07456045 -0.022595888 -0.07919074 -0.022241637
000230 7e d9 ec bd b4 87 8b bd 8a 70 1a bd aa 03 01 be
       -0.11564921 -0.06812993 -0.037704982 -0.12599054
000240 9e e3 0c bd e1 ac f4 bd 3e 59 c7 bd ac 8d 82 3d
       -0.03439676 -0.119470365 -0.097338185 0.06374678
000250 16 54 78 38 83 0b d6 bc fe aa 04 be 41 03 a6 3b
       5.920612e-05 -0.026128536 -0.12955853 0.005066306
000260 cf e5 ce 3d 6e 90 92 bd 6e b7 3e bd 4c 93 a8 bd
       0.10102426 -0.07156454 -0.04656165 -0.0823122
000270 84 04 0d 3d d0 d1 bf 3d c4 ba 97 3d 01 28 8b bd
       0.034428135 0.093661904 0.074086696 -0.067947395
000280 9d b5 bd 3c 26 63 91 3d 67 91 a3 3d 9b fe d2 bb
       0.023157889 0.07098989 0.07986718 -0.0064390427
000290 fa 6f 0e be c9 82 a6 3a 12 b5 e3 39 2c b4 cd bd
       -0.13909903 0.0012703772 0.00043431722 -0.10044131
0002a0 36 5f a4 3d 6d e7 49 3d c2 9e b2 3d bd 15 59 3d
       0.080259725 0.04929297 0.08721687 0.052999247
0002b0 db d2 ca 3d d7 2d 23 bd 12 c0 50 3c 74 61 3b 3d
       0.09903499 -0.03983864 0.012741106 0.045747235
0002c0 0c 7c b5 bd 18 b5 ff 3c 8b f5 04 be 13 ce c7 bc
       -0.08861551 0.031214282 -0.12984292 -0.024390256
0002d0 20 6c 60 3c d0 74 dc bd ee 92 f7 3d fe e4 a4 3d
       0.013697654 -0.10764468 0.120885715 0.08051489
0002e0 13 cf 87 bd 58 db 92 3d 79 09 c7 3d 04 69 50 bc
       -0.06631293 0.07170743 0.09718604 -0.01272035
0002f0 3b 3d 5a 3c c3 32 03 3c 6c c1 a8 bd 8e 87 a5 bc
       0.013320263 0.008007708 -0.08240017 -0.02020624
000300 15 70 cd 3b 02 4a 13 bd b1 d5 8e 3d 42 4a da 3d
       0.0062694647 -0.03595925 0.06974352 0.10658695
000310 71 9c ab 38 d9 87 ba 3c 78 29 8a 3c e5 bf 6b bd
       8.183055e-05 0.022769855 0.016865477 -0.05755605
000320 cc c6 de 3c 0b 18 3d bd 9e 05 fa bd 0d cc a7 bc
       0.027194403 -0.046165507 -0.12208103 -0.020483041
000330 02 bd 2f bd a5 3b 35 bd 5d b5 44 3d 4d a6 d2 3d
       -0.04290486 -0.044246335 0.048024524 0.102856256
000340 e4 c1 14 3d 0e 95 b4 3d fd ab 33 3d 83 dd d5 bd
       0.03631772 0.088174924 0.043865193 -0.10442641
000350 9f 72 9f 3c ea e4 30 bd 9e 40 29 3d e7 58 30 3d
       0.019463835 -0.04318706 0.04132139 0.043053534
000360 bf 93 b1 3d 82 00 01 bd 06 00 bc 3d 84 c2 1a 3e
       0.086707585 -0.031494625 0.09179692 0.15113264
000370 de d9 fa 3c ca c5 61 3d fe cd 22 bd c9 fa 4b 3e
       0.030621465 0.055120267 -0.03974723 0.19919886
000380 c4 33 9a 3e 59 7f cd 3c c1 5f 7f 3d d4 a9 4b 3e
       0.3011762 0.025085138 0.062347177 0.19889003
000390 56 bd 63 3d cb 8c 4a 3a 9a 35 04 bd c0 d0 21 bd
       0.055600487 0.0007726668 -0.03227768 -0.03950572
0003a0 58 4d 19 3e ab f8 4e 3d b5 54 ad bc 50 c8 3e 3e
       0.1497091 0.050530117 -0.021158556 0.186311
0003b0 15 d1 02 3e 10 35 a4 3e 56 83 46 bd 65 37 68 3e
       0.12775071 0.32071733 -0.048465095 0.22677381
0003c0 7c ef 0d 3d b9 66 53 3d a3 fd 8c bd 57 11 0c bd
       0.03465222 0.051611636 -0.06884315 -0.034196224
0003d0 d0 86 96 bc 6f cd 51 3e 41 e8 82 3e f6 b4 05 3e
       -0.01837483 0.20488523 0.2556782 0.13057312
0003e0 23 d3 d3 3b 6a 92 b0 3d 5f cd e4 3c c7 b4 76 3e
       0.0064643784 0.08621676 0.02792996 0.24092399
0003f0 30 fb 92 3d 73 a8 01 3e 59 76 75 3c 91 34 fd 3d
       0.071768165 0.12661915 0.01498183 0.12363542

bias_hh_l0 f4 [288]
000000 2f c8 13 3e c3 88 ea 3d 3f c2 f3 3d 57 63 73 3d
       0.14431833 0.114518665 0.11902284 0.05942091
000010 be be 9d bb 37 b0 3a 3d eb a6 20 3d 0d 67 33 3e
       -0.004813998 0.045578208 0.039221685 0.1751978
000020 21 8c a6 3e d7 ce 88 3c ec 7b 3f bd ad 8d a6 bc
       0.32528785 0.016700191 -0.04674904 -0.020331228
000030 f8 c1 a1 bc d8 91 88 bd 9a ab 30 3d c0 20 af 3d
       -0.019745812 -0.066684425 0.043132402 0.085511684
000040 27 15 0b 3e b5 b7 be 3d 98 40 e4 bc c5 20 62 3d
       0.13582288 0.09312383 -0.027862832 0.055207033
000050 f1 e0 13 3e a0 7e 11 3e 15 59 8b 3d 1f 69 4b 3e
       0.14441277 0.1420846 0.068041004 0.1986432
000060 6d a6 7a 3d ca 88 00 3d 07 43 aa bd cc 84 69 bd
       0.061193872 0.031380452 -0.08313566 -0.05701141
000070 16 f1 94 bd bd a9 4d 3e c0 aa a3 3e d0 d7 96 3d
       -0.07272546 0.20084281 0.3196621 0.07365382
000080 db 05 cd 3d e0 b1 90 3d 1c 25 ad 3b ce 86 00 3e
       0.100108825 0.07065177 0.005283965 0.12551424
000090 35 61 f1 3b 3b a5 46 3e 23 6e ce 3d 95 e3 f2 3c
       0.0073663243 0.19398968 0.10079601 0.029649535
0000a0 1e a3 b6 3d f6 16 d9 3c 55 ea f9 ba dd b3 cd 3d
       0.08917831 0.026500206 -0.0019067029 0.10044072
0000b0 79 25 76 3d 48 2a c1 3e f4 7b 02 3e 82 d4 f7 3d
       0.06009433 0.3772757 0.12742597 0.121010795
0000c0 4c ed 57 bd 72 45 de 3d 32 ac 07 3e 0b 5a da 3d
       -0.05271654 0.108530894 0.13249281 0.106617056
0000d0 66 4b 42 3d e1 db 77 3e ef 99 0e 3e 58 b6 9d bd
       0.047435187 0.24204971 0.13925909 -0.07700795
0000e0 f9 c1 de bc 7b c1 86 bd e9 c9 89 3d 95 d8 7f bd
       -0.027192103 -0.06579872 0.067279644 -0.062462408
0000f0 e1 d0 87 3d 61 c1 3e 3e ae fc d8 3c ca fc 00 3e
       0.06631637 0.18628456 0.026487675 0.12596431
000100 07 1a 19 3b 92 f4 e9 3d 92 46 1e bd cc ab 89 3e
       0.002336146 0.11423601 -0.03864152 0.26888883
000110 6a 37 b3 3d b9 77 3c 3e 40 f3 01 3e bd 01 90 3e
       0.08750804 0.18405046 0.12690449 0.28126326
000120 22 ea 0c be 8a 63 61 3b 40 00 d1 3c 10 ec 56 bd
       -0.1376119 0.0034391605 0.025512815 -0.05247122
000130 80 ce ca bc 09 e5 5f bd c0 a6 4d bc 2f 42 b2 bb
       -0.02475667 -0.054661784 -0.012551963 -0.0054400186
000140 1d 91 f8 bd 20 97 bb bd 42 aa 47 3d db 2b 55 3d
       -0.12137053 -0.09159684 0.048746355 0.052043777
000150 7b a3 f7 bd c4 13 c2 bd 0f 29 d7 ba 87 bf bb 3c
       -0.12091728 -0.09476426 -0.0016415435 0.022918476
000160 f4 41 0a be e1 92 e2 3c e6 68 2f 3d b4 4d d8 bd
       -0.13501722 0.027657928 0.04282465 -0.10561696
000170 e5 18 08 be de ad 1e be 0f d7 c6 3c 0b f9 0c be
       -0.13290747 -0.15496013 0.02427247 -0.13766877
000180 8b db 37 3d 1a 75 02 3e 14 f4 bb 3d 26 8c ac 3d
       0.044887107 0.12739983 0.091774136 0.08425169
000190 8c 61 a6 3c e0 e6 da bc c7 97 9c bd 17 eb 8e 3d
       0.020310186 -0.026721418 -0.07646137 0.069784336
0001a0 d1 03 a6 3c 84 75 71 3d b6 a5 30 3d 45 d0 ae 3c
       0.020265492 0.058949962 0.043126784 0.021339545
0001b0 47 69 7f 3b 7e 89 9b bd db f8 84 bd c2 fd 15 3d
       0.0038972662 -0.07594584 -0.06492778 0.036618955
0001c0 ff 31 14 be e6 f6 58 3d c1 8e ca bd 97 67 d8 3b
       -0.14472197 0.052969836 -0.098905094 0.0066041457
0001d0 f4 34 cf 3d d3 7f b9 bc bd 1d 85 bd c0 4e f1 bd
       0.10117522 -0.02264396 -0.06499813 -0.117825985
0001e0 c8 ca 86 bd a9 41 b5 bd 33 e3 c0 bd 0c 82 0c 3e
       -0.06581646 -0.08850414 -0.09418335 0.13721484
0001f0 70 0c 87 bd e5 2d 05 be 0a 50 30 bd 94 2b 92 3c
       -0.06594169 -0.13005789 -0.04304508 0.017843045
000200 c0 dc eb 3d 7d 01 ce bc be 76 86 bd 63 a9 10 3d
       0.11516714 -0.025147194 -0.06565617 0.03531779
000210 28 d6 59 bb 10 3c 95 bc 57 50 8d bd 26 53 f9 bd
       -0.003323922 -0.018217117 -0.06900089 -0.121740624
000220 8d d1 07 3d 54 06 4b 3d af 61 75 3d e0 67 3c 3d
       0.033158828 0.04956658 0.05990761 0.0459975
000230 72 41 f8 bd 3a f8 b5 bd 38 2b 0f be bf 41 a0 bd
       -0.12121858 -0.08885236 -0.1398133 -0.0782504
000240 29 3d 3e 3d 01 15 08 3d 0f 29 ac 3d 9c 6c 3e 3c
       0.046445046 0.033223156 0.08406269 0.011622574
000250 a5 93 93 3c ab 04 13 bd 4f 84 e3 bd 3c b8 52 bd
       0.018014738 -0.035893124 -0.1110922 -0.05144523
000260 be 87 8b bd 06 b5 98 bc f2 a9 a8 bd 7b 6b 23 3c
       -0.06813 -0.018641006 -0.082355395 0.009974356
000270 5b c3 00 3d 32 da 95 3d b2 79 01 3e a5 70 bf bd
       0.031436305 0.07317008 0.1264408 -0.09347657
000280 f8 72 f4 3b fa 32 3b bd 2b 01 ae 3d e8 9d e1 bc
       0.0074599944 -0.045702912 0.084963165 -0.027541116
000290 f2 ca b0 3d cb 43 e3 ba f5 97 6d 3c ad a6 d0 3d
       0.08632459 -0.001733893 0.014501561 0.10188041
0002a0 f2 c8 55 bc 45 3e fd 3c 00 bb 2f 3d f0 f3 8f 3d
       -0.013048397 0.030913481 0.042902946 0.07028949
0002b0 16 2c df bd 95 42 42 3d 08 83 ed bc 33 30 a4 bd
       -0.108970806 0.04742678 -0.028993145 -0.08017006
0002c0 64 fd e6 bd 9f a7 80 3d 64 b1 0c be 78 b8 a1 3d
       -0.11278799 0.06281971 -0.13739544 0.07896513
0002d0 d9 42 5d bd 82 66 46 3d de 01 fa 3d 50 9d 26 3d
       -0.05401883 0.048437603 0.122073874 0.04067737
0002e0 d1 05 b0 3c 05 a3 99 bd 0e a5 44 3b 26 e6 63 bd
       0.021487148 -0.07501797 0.0030005607 -0.05563941
0002f0 b0 6d 2e bd 7b 79 48 bc 81 36 56 3d 22 b3 9f 3d
       -0.042585075 -0.012235994 0.052298073 0.07797839
000300 1c 84 03 bd db a9 9d 3d 65 b4 b4 bd 78 ed c7 bc
       -0.03210841 0.07698413 -0.0882347 -0.024405226
000310 9d 7e ac bd 15 f6 c1 bd 5f 7e 61 3d e2 28 ee 3d
       -0.08422587 -0.094707645 0.055052157 0.116288915
000320 0f 84 03 3e 39 08 ec 3c 38 ba f6 bd ff 08 b2 3d
       0.12843345 0.028812515 -0.12047237 0.08693122
000330 0b 7b cc bd 5e e6 98 3d 73 69 2a bd f6 51 a7 bd
       -0.09984406 0.07465814 -0.04160447 -0.0816993
000340 d7 f5 29 bd 85 b7 75 3d dd 9b b3 3d 1e 76 0b 3d
       -0.041494217 0.05998947 0.08769963 0.034048192
000350 da 96 cb bd 82 84 ab 3d 0c 67 b2 3d 7f b3 26 3d
       -0.09940882 0.08374883 0.08711061 0.040698525
000360 e4 e1 80 3c 93 be 0b 3e cc e3 f2 3c b5 e3 34 3e
       0.015732713 0.13646917 0.029649638 0.17664988
000370 36 c5 9e 3d ed 33 8e bc 0b 04 93 bd ec 57 93 3e
       0.07752459 -0.017358745 -0.071785055 0.28778017
000380 b9 f2 61 3e ea a5 a2 bb 82 32 b6 3d 70 49 35 3d
       0.22065248 -0.004963626 0.08896352 0.04425949
000390 6f 27 e9 bc e0 0e 31 3d 91 a1 54 3d cb 35 c3 bd
       -0.028461186 0.043227077 0.051911894 -0.095317446
0003a0 08 69 9e 3e f0 53 bc 3d 42 e6 a1 3c ca 4c 0e 3e
       0.30939507 0.09195697 0.019763116 0.1389648
0003b0 7e 81 60 3e 84 f7 1f 3e 9f f9 1a 3e 26 2d 21 3e
       0.21924397 0.15621763 0.15134285 0.15739879
0003c0 aa e5 1a 3e 08 24 3e 3e 4f e8 71 bd 01 41 be bd
       0.15126672 0.18568432 -0.059059437 -0.09289742
0003d0 b8 f4 59 bd 5f 7e 48 3e 31 5e 18 3e 41 fb f2 bc
       -0.053211898 0.19579457 0.14879681 -0.029660823
0003e0 e7 dc 6b 3d 3e f6 a5 bc b6 ef 00 3e 3a d5 10 3e
       0.057583716 -0.020259019 0.12591442 0.1414384
0003f0 d9 04 29 3e 08 70 2b 3e ef 49 5c 3d 82 94 05 3e
       0.16505755 0.16741955 0.053781446 0.13044932

weight_ih_l1 f4 [288, 72]
000000 fa 45 d4 3d 32 b5 37 be 0d 13 5e be 62 2a 65 3d
       0.103649095 -0.17940214 -0.21686955 0.055948623
000010 c3 7c a6 3c bc 06 bd 3d b6 bb 55 3d 09 53 5c bb
       0.020323163 0.092298 0.05218097 -0.0033618829
000020 5b 71 de 3d 03 88 9d bd d9 00 6c 3c c1 51 b9 3d
       0.108614646 -0.07691958 0.014404499 0.090487964
000030 14 97 70 3d 21 cf b7 3d 1c 73 a0 bd 76 30 30 3c
       0.05873783 0.089750536 -0.07834455 0.0107537415
000040 cd 23 8a bd 92 62 cf 3d f7 0b a4 3d 87 12 29 bd
       -0.0674511 0.10126223 0.080100946 -0.041277435
000050 16 62 4f bd 88 7c c8 3d f9 41 09 be 45 1a b8 bd
       -0.05063065 0.097893775 -0.13404073 -0.089893855
000060 ec d5 ac 3d 3a 02 33 3e 84 80 74 bd b5 02 14 3c
       0.0843924 0.17481318 -0.059692875 0.0090338485
000070 f9 2a 8b 3c dc eb 15 3c 41 77 40 bd 55 b6 20 3d
       0.016988264 0.009150472 -0.04698873 0.039236385
000080 97 2a 21 be 70 d1 df bb 9a 80 20 3d 18 fc 0c 3c
       -0.15738903 -0.006830387 0.039185144 0.008605026
000090 34 4d ae bd 2f 87 09 bd 43 92 6e bd 70 99 ef bc
       -0.08510819 -0.033576187 -0.058244955 -0.02924797
0000a0 91 d3 ad 3d 7e bb 02 bc fa 44 43 3d 4d 27 a0 bd
       0.08487619 -0.007979272 0.047673203 -0.07819996
0000b0 ba 96 94 bd 09 bf 0d 3e 18 5b 8b bd 13 64 22 3e
       -0.07255311 0.13842405 -0.06804484 0.15858488
0000c0 90 7b 9c bc ba 20 e9 3d bb ba 23 3e 3c c7 07 bd
       -0.019101888 0.11383195 0.15989201 -0.03314899
0000d0 0e 54 aa 3d e6 51 5c bd 44 25 91 bd 39 95 d9 3d
       0.083168134 -0.053789042 -0.07087186 0.10624165
0000e0 46 8f 26 3d bb 2a 5c 3d ac a2 42 be 80 06 c2 3d
       0.04066398 0.05375169 -0.19007367 0.09473896
0000f0 14 06 f6 3b 1b 17 84 3c 7c 4f 6e bd b5 bc dd 3d
       0.007508049 0.016124299 -0.05818127 0.10827009
000100 e2 8a a8 3d 42 10 62 bd 41 af e0 3d e9 22 a6 bc
       0.08229615 -0.055191286 0.10970927 -0.020280318
000110 b6 a2 1e 3c 2f 1d f1 bd db 63 a2 3c 61 28 58 bd
       0.009682348 -0.117731445 0.019823005 -0.052772883
000120 9f 43 de 3c 78 1a 02 be 45 13 af bd 4c 62 6c 3d
       0.027131854 -0.1270541 -0.08548597 0.05771093
000130 af a5 42 bd eb 14 1d be c8 95 1b be 3b 79 e2 bc
       -0.04752129 -0.15340011 -0.15193856 -0.027645698
000140 13 30 67 3d 64 ab 0c be fa a8 fc bd 38 56 96 bd
       0.05644233 -0.13737255 -0.12336917 -0.07340664
000150 99 e1 51 bd 6e df 95 3d b9 bd 81 bd 69 d6 03 be
       -0.051240537 0.073180065 -0.06335015 -0.1287476
000160 96 39 c4 bc 9a c4 45 3d f1 d2 01 bd 57 87 b4 bd
       -0.02395324 0.048283197 -0.03169531 -0.088148765
000170 6f d5 b4 3d 82 04 ee bd 2a 75 1e 3b c7 3d 73 bb
       0.08829772 -0.116219535 0.0024178722 -0.003711568
000180 03 6e 56 3d e6 98 1c 3e 08 5b 9e bd 82 66 8c bb
       0.05235101 0.15292701 -0.077322066 -0.004284681
000190 36 f9 a5 bd 7d 06 00 3d 18 96 b8 bc a8 cf 6e 3d
       -0.08104174 0.031256188 -0.022532508 0.058303505
0001a0 e1 58 70 bd 6d 3f ad bd 06 34 af bd b1 51 09 3e
       -0.05867851 -0.08459363 -0.085548446 0.13410069
0001b0 97 1b 9e bb dc 3e 1d 3d 35 48 3d 3d 88 9b 26 bd
       -0.0048250663 0.038390025 0.04621144 -0.04067567
0001c0 61 23 ff bb 39 f7 70 bc 15 e5 16 3e ec db 21 3c
       -0.0077862 -0.01470738 0.14735825 0.009879094
0001d0 4f 5c f6 3d 03 3d 17 3d 69 22 8c bc 8f ca 28 bd
       0.12029325 0.03692342 -0.017106252 -0.0412088
0001e0 01 9e a0 bc ac 95 cb 3d ca f2 f9 3d 72 26 e7 3d
       -0.019606592 0.09940657 0.122045115 0.1128663
0001f0 46 bd 80 bd 76 58 6f bd 33 35 1a 3e 7d 81 8b 3d
       -0.06286101 -0.058433972 0.15059356 0.06811807
000200 eb 6e 56 bd 94 f8 aa 3d 6b 82 ab 3c 16 a0 5b bd
       -0.052351873 0.08348194 0.020936212 -0.053619467
000210 5c 59 f4 bc 44 fb 8e bd 40 f1 1b bd 06 87 b9 bd
       -0.029827766 -0.06981519 -0.03807187 -0.09058957
000220 d8 fc 55 bd 3b 05 8c bc bf 00 4d bb 99 61 29 bc
       -0.052243084 -0.017092338 -0.0031280962 -0.0103382105
000230 6c ad 89 3d f7 ed 63 3d d1 36 de 3d 08 1b f6 3d
       0.06722531 0.055646863 0.10850299 0.120168746
000240 f0 5d fe 3c 56 2f bb bd ad ca 8e bd 33 b1 f5 bd
       0.031050652 -0.09139888 -0.06972251 -0.11996689
000250 51 6a ac bd f5 7a 11 3e 31 d9 7e 3c 7b d5 d2 3a
       -0.08418716 0.1420706 0.015554712 0.0016085351
000260 e9 25 4c bd 22 a4 52 3d 5e e4 eb 3d 87 e3 c0 3c
       -0.04984084 0.05142606 0.11518167 0.023545993
000270 36 6a 61 bd 6a a8 9d 3c f3 12 bb 3d 08 22 60 3c
       -0.05503293 0.019245345 0.09134474 0.013679989
000280 f8 82 1d be 6a e6 9d bd 15 0c 63 bc 22 5a c6 3b
       -0.15381992 -0.077099636 -0.013857861 0.006053225
000290 88 44 0f 3d b1 63 71 3d a3 f1 5e bd 26 32 68 3b
       0.034977466 0.058932964 -0.05442966 0.0035430281
0002a0 30 f3 9c 3d a2 ee a3 3d 10 59 d8 3d 28 b6 76 bd
       0.07663572 0.080045 0.10563862 -0.06023231
0002b0 4b 7e 22 bc 5f 53 9c bc bc 5f 59 3d 12 98 fd 3d
       -0.009917806 -0.019082723 0.053069815 0.12382521
0002c0 7e 54 14 3d 90 f2 82 3c f6 8a 88 3d 09 c9 ef bc
       0.03621339 0.015984803 0.0666713 -0.029270666
0002d0 a7 db e2 3d 99 98 50 3d b5 20 2e 3d fa a6 3a 3d
       0.110770516 0.05092678 0.04251166 0.045569398
0002e0 c6 ee 1c 3e 66 0c e9 3c d8 c9 80 bd 9b c5 d5 3d
       0.1532546 0.028448295 -0.06288499 0.10438081
0002f0 ba fc 2d 3a 9d 5a 80 3d 73 83 b6 3d 30 86 03 bd
       0.00066370855 0.06267283 0.08911791 -0.032110393
000300 d7 ce b2 3d 72 44 c6 3d 32 2f 72 3d 9f 86 b0 3d
       0.08730858 0.09681024 0.05912704 0.08619427
000310 43 c9 08 3d a7 80 60 3d 6d ce 97 bd 63 a1 5a bd
       0.033395063 0.054810192 -0.074124195 -0.053376567
000320 f5 1f b4 3d 9a e9 3d bd 75 fd 0f be 94 f1 17 bd
       0.08795158 -0.046365358 -0.1406153 -0.03709562
000330 c4 96 91 3c 2d a2 a3 3d b6 96 fa bd df c1 1a bc
       0.017772086 0.07989917 -0.12235777 -0.0094456365
000340 69 fe 76 bd c2 0b 35 3d 1c 21 9f 3d 10 6a 0b 3e
       -0.06030122 0.044200666 0.07769987 0.13614678
000350 1f 20 f3 3d 48 a6 af bd e4 fa 24 bd 4d 8c 9a bd
       0.11871361 -0.085766375 -0.04027833 -0.075462915
000360 06 e3 2f 3e 33 48 e2 bd ca 05 33 bd 8e ae bf bd
       0.17176446 -0.11048927 -0.043706693 -0.093594655
000370 8e e7 81 3d 16 c2 fa 3d 2b 85 97 bd 2f a2 44 3e
       0.06342994 0.1224405 -0.07398447 0.19202493
000380 9c 91 13 3d 57 e0 9a 3d ec 1e 12 3c 91 5d 1c bd
       0.036027536 0.07562321 0.008918505 -0.03817517
000390 02 ed 0b bb 0f b2 a0 3d 76 ba 39 bc 9e c2 90 bd
       -0.0021350984 0.07846462 -0.01133596 -0.0706837
0003a0 ac d2 86 bd ec e8 f0 3b 50 de 0c 3e 26 66 f7 3d
       -0.06583151 0.007351985 0.1375668 0.1208003
0003b0 18 69 01 3e dd 84 13 bd 1d f5 03 bd 20 74 0e 3d
       0.12637746 -0.03601538 -0.03221618 0.034778714
0003c0 bc 98 1b 3e 05 39 a6 3d e3 3e ea bc 49 8f 25 bb
       0.15194982 0.08116344 -0.02859444 -0.0025262407
0003d0 49 b5 98 3d 1d bb 4a 3e ed e4 05 3d ec 52 b6 3d
       0.074564524 0.1979794 0.032689024 0.08902535
0003e0 f9 9b 5d bd 41 21 22 bd bc 96 42 bd 77 82 b2 3c
       -0.054103825 -0.039582495 -0.047507033 0.021790726
0003f0 55 89 d9 3c b7 92 0c 3e bd a0 d7 3d 67 ba fe 3c
       0.026554743 0.13727842 0.10528705 0.031094743

weight_hh_l1 f4 [288, 72]
000000 f3 4f 4b bd 69 0e 68 3d 28 b0 6c 3d 00 35 50 3d
       -0.049636792 0.056654368 0.057785183 0.050831795
000010 d6 e2 a8 bc 0b 98 8d 3d 24 dc 87 3c 55 31 8f 3d
       -0.020615976 0.069137655 0.016584463 0.06991831
000020 5e 50 fb 3b c8 8e 0e 3c a3 a5 ed bd 19 32 bc 39
       0.0076694926 0.008701034 -0.11603858 0.0003589548
000030 5c f2 34 3d 4e 11 0e 3d d5 38 0e 3d ea ca 05 3e
       0.044176444 0.03468447 0.034722168 0.13065687
000040 56 49 cf bc b3 e0 e3 3b 30 a4 dc 3d 63 f8 c0 bd
       -0.025303524 0.0069542765 0.10773504 -0.09422376
000050 1c c8 77 3d 90 c1 1d be c8 85 92 3d f3 8f 26 be
       0.060493574 -0.1540587 0.07154423 -0.1626585
000060 c2 c6 1d bc 43 14 9d 3d cc 61 fb bc d8 b1 0e 3d
       -0.009629907 0.0766988 -0.030686282 0.034837574
000070 00 b5 d3 bd 8e aa 19 3e 09 e8 8c bd 44 b1 cd bd
       -0.103372574 0.15006468 -0.06880195 -0.10043576
000080 80 a5 75 3d 79 4e f0 3c 9a 59 45 bd 5f d1 4f 3e
       0.059972286 0.029334294 -0.048181154 0.20294712
000090 4f 78 63 bc 91 f7 3c 3c e0 c9 0b be 86 6b 9e bc
       -0.013883664 0.011533634 -0.13651228 -0.01933838
0000a0 71 d2 b3 3d 16 40 53 bd af 41 6c 3d ca 8b e0 bd
       0.08780373 -0.05157479 0.05767983 -0.10964163
0000b0 47 b5 5f 3d 75 3f 19 bd a7 5b 15 3e b9 46 db bd
       0.05461624 -0.037414033 0.14585744 -0.10706849
0000c0 0d 74 e8 3d 69 23 c9 3d 5d 21 f9 bd 9f d6 d4 bc
       0.1135026 0.09821207 -0.12164567 -0.025981246
0000d0 18 3a 9a 3b f2 46 7c 3d a4 f9 2b bd 7e f8 18 3c
       0.0047066323 0.061591096 -0.041986123 0.009336589
0000e0 bb e7 c2 bd 10 ad cc bc 7f 1d 15 bc 21 2c dd bd
       -0.09516855 -0.024984866 -0.009101271 -0.107994325
0000f0 bf ad ca bd 82 07 4b 3c 59 3f 7d bd 26 bb 9b 3d
       -0.09896421 0.012391927 -0.06182799 0.07604055
000100 83 6e 7c 3d dd a8 d0 bc 77 a7 af 3a aa 93 52 bc
       0.06162883 -0.025471145 0.0013401349 -0.012852589
000110 9f a4 28 3d 69 8d 12 3d 22 33 f1 3d 17 6f f4 bc
       0.04117262 0.03577939 0.11777331 -0.029838128
000120 cf 16 93 3d 58 16 a6 3d 88 4d 92 bd 47 3d ff 3c
       0.07182085 0.081097305 -0.07143694 0.031157149
000130 65 3a e4 bd 00 79 9f bd ce 28 09 3d 3a 07 bf bd
       -0.111439504 -0.07786751 0.03348618 -0.0932755
000140 4d 38 3e 3d a8 4e 0d 3e ce 45 11 3d 14 f6 07 bb
       0.04644041 0.13799536 0.03546696 -0.002074604
000150 0c 80 79 bc 83 a0 0a 3e 3f 8a 25 3d 8a dc a9 3d
       -0.015228283 0.13537793 0.040415045 0.082940176
000160 39 91 08 be 7f 21 7d bd 71 df 70 bd 64 8f b9 bd
       -0.13336648 -0.061799522 -0.05880684 -0.09060553
000170 2c de a8 bd dd 12 26 be 2b 11 0b be 3e 32 92 bd
       -0.08245501 -0.16218133 -0.13580768 -0.07138489
000180 21 06 07 3e e4 bd e4 bd 8e c7 c6 bd 39 29 1a bd
       0.13185932 -0.11169031 -0.09706031 -0.03763697
000190 49 e8 90 3d f3 6f 46 3d 31 8a 77 3d ba e3 a9 bd
       0.07075555 0.048446607 0.060434524 -0.082953885
0001a0 30 31 dc 3d 4e 69 a5 bd 8e f9 cb bc 3f 65 96 3c
       0.10751569 -0.08076726 -0.02489927 0.018358825
0001b0 75 24 63 bd 40 59 0c 3d 7c 35 07 be f6 c3 b2 3c
       -0.05545469 0.034264803 -0.13203996 0.021821957
0001c0 e7 91 c0 bd bc 98 84 3d f9 68 79 bd b8 3b 07 be
       -0.09402829 0.06474444 -0.060891125 -0.13206375
0001d0 82 0e 66 bc 6c 39 cb bd 89 ee 0d 3d 33 51 0e 3d
       -0.014041545 -0.09923062 0.034651313 0.034745406
0001e0 87 03 0f bd 3c 23 76 bd 95 f0 43 bd a5 fb 22 bd
       -0.034915473 -0.060092196 -0.04783686 -0.03979077
0001f0 eb cf c0 bd 0c c7 6a bd 4d 2e c1 bc 85 03 8e 3d
       -0.09414657 -0.057318732 -0.023581648 0.06934265
000200 56 f2 ea 3d d8 07 bc bd bb 9d 65 39 c8 a8 e5 3d
       0.11472003 -0.091811836 0.00021897901 0.11213833
000210 d4 e0 e3 bd 69 30 8b bd d5 6e 04 3d c9 17 80 bd
       -0.11126867 -0.06796343 0.03233226 -0.06254537
000220 61 cc c5 3d 95 8d af 3d 59 f3 53 bd 75 0c e9 bd
       0.09658123 0.085719265 -0.051745746 -0.11379329
000230 1e 23 80 3d 79 33 fa 3d f3 88 dc 3d 1d 5c 83 bd
       0.06256698 0.12216849 0.107683085 -0.064140536
000240 cd 0e 95 3d 82 0b e5 3d 84 ca 5a 3c 54 af 7c 3c
       0.07278214 0.111838356 0.013353948 0.015422661
000250 37 d9 23 3c 76 e9 15 3d 88 99 79 3d a5 81 b3 bd
       0.0100005185 0.0365996 0.060937434 -0.08764962
000260 c5 a6 ae 3d c7 09 9b bb 02 1a d4 bd 5c 2a a3 bd
       0.085279025 -0.00473139 -0.10356523 -0.07967064
000270 c7 bf 88 3c c4 a3 5c 3d 1b cb 8d 3c e2 fb c1 bd
       0.016693009 0.053867117 0.017308762 -0.09471871
000280 d9 c5 94 bd c9 0a f0 3d f5 30 83 3d 30 dc bd bc
       -0.07264299 0.11720807 0.06405822 -0.023176283
000290 ae 6b 5c bd 49 b5 2e bd 6a 55 c1 bb cd 59 25 be
       -0.05381363 -0.042653356 -0.0059000747 -0.16147538
0002a0 f4 db d5 3d b5 12 8a bd c4 ee 15 3d 44 f3 0b 3e
       0.10442343 -0.06741849 0.036604658 0.13667017
0002b0 84 b6 d3 bb c8 0c 9d 3d ec 22 6a bd 70 24 b2 bd
       -0.0064609665 0.076684535 -0.05716221 -0.08698356
0002c0 84 ff e5 3d f9 4d 81 bd cf 6e 0f be 75 2c be 3d
       0.11230376 -0.063137 -0.14007114 0.09285823
0002d0 b5 e4 86 3d d2 67 aa bd 6d e6 70 bd f1 03 72 3d
       0.06586591 -0.083205834 -0.0588135 0.05908579
0002e0 bd b4 7b bd 4f 95 cb bd 19 91 67 3c 45 e6 3c bd
       -0.061451662 -0.09940588 0.014133715 -0.04611804
0002f0 2d 51 16 3d 16 c4 08 be 74 ba 48 bd 12 72 62 3d
       0.03669851 -0.13356051 -0.04900594 0.055284567
000300 00 8d 0e 3d 2c c2 53 bb 9c f4 42 bd ec 25 10 be
       0.034802437 -0.003231178 -0.04759656 -0.14076966
000310 ac e4 06 be 2f 94 db 3d 3b ff 6b 3d 00 7e d7 bc
       -0.13173169 0.10721623 0.057616454 -0.026305199
000320 ba 19 88 3d 63 37 35 bd 69 61 b8 3c 76 a4 36 bd
       0.06645532 -0.044242274 0.022507386 -0.044590436
000330 d9 2c bb bd 55 67 c9 3d 0d 31 4d bd 0d 5e 2b 3d
       -0.091394134 0.09834162 -0.050095607 0.04183774
000340 ee 5b e1 3d bd a1 c7 bd 28 c4 00 bd 20 cf 36 bd
       0.11003862 -0.09747646 -0.03143707 -0.044631124
000350 fe 9e 04 be b0 ce fd bb 24 06 98 3d 09 a4 84 bd
       -0.12951276 -0.0077455863 0.07423046 -0.064766
000360 53 db e8 bc c2 45 6d 3d 93 22 16 3e c3 f1 ab 3c
       -0.028424894 0.057927854 0.14661627 0.020989304
000370 0e 2c c2 3d d7 b0 21 3d 59 66 1a bd c7 30 b5 bd
       0.09481059 0.03947529 -0.037695263 -0.08847194
000380 e4 7b df bd 1c c6 e2 3c a4 df 2e bd 5a 3c 25 bd
       -0.10912302 0.027682357 -0.04269375 -0.04034076
000390 8f e8 56 3d 52 27 a5 bd bd fb 0c 3c 55 3f bf bc
       0.05246788 -0.080641404 0.008604941 -0.023345629
0003a0 69 a2 94 3c 59 54 3b bc 67 0e a4 3b 07 b5 ab 3d
       0.01814385 -0.011433684 0.0050065997 0.083841376
0003b0 67 49 5a 3d 5b 35 72 bd f9 2a 9f 3d 76 35 fc 3c
       0.05329266 -0.059132915 0.07771868 0.03078721
0003c0 27 02 00 3e 70 1a 62 3d cf ef 7e bd a2 0d db 3d
       0.12500821 0.055200994 -0.062240418 0.1069596
0003d0 b2 f2 bf bc ef ff f2 bc d6 9c 93 bd f0 89 2c 3d
       -0.023431156 -0.029663054 -0.072076485 0.042123735
0003e0 d2 5f 3f 3d 57 31 25 3d 27 f9 3f 3d 0b 38 80 bd
       0.04672224 0.040330257 0.04686847 -0.06260689
0003f0 e7 54 96 bd bd a0 e2 3c c4 a5 ac 3d d7 d6 15 3e
       -0.073404126 0.027664537 0.08430055 0.14632736

bias_ih_l1 f4 [288]
000000 ba 24 1d 3d 6e dc 0a bd 55 4a 2b 3d 9e e8 db 3d
       0.038365103 -0.033901624 0.041818935 0.107377276
000010 08 90 85 3d fc 2e 20 3e 8e 81 46 3d 03 c9 ee bc
       0.065216124 0.15642923 0.048463397 -0.029148584
000020 2a 88 17 3e d2 18 3b 3d 0c 9d 8e 3d 0f b1 84 bd
       0.14798036 0.045677967 0.06963548 -0.06479084
000030 98 c1 e2 3d d1 30 8f bd fd 26 e9 3d 55 8a 2b 3e
       0.11072081 -0.06991733 0.113843895 0.16751988
000040 d2 e9 0b 3d fa fd 57 3b de f0 f9 3d bf f0 64 3d
       0.034158535 0.0032957778 0.12204145 0.055893656
000050 16 bc 05 bd 54 c2 8e bd 9a 73 80 3d 02 57 85 bc
       -0.032650076 -0.06970659 0.06272049 -0.01627684
000060 21 ab 92 bd b7 58 3d 3d ef 02 4a 3d 78 a5 8b 3d
       -0.071615465 0.046227183 0.049319204 0.0681867
000070 c4 c7 be 3d 43 b0 51 3c 0f 85 83 bd 3d 5a 3a 3e
       0.09315446 0.012798372 -0.06421863 0.18198486
000080 eb a8 4f 3d 5a 55 41 3e df ff a1 3c 77 c2 de 3c
       0.050698202 0.18880215 0.01977533 0.027192337
000090 be d5 a4 bd 26 fd 17 3d cc 96 d7 3c 9a 37 5b 3c
       -0.080485806 0.037106656 0.026317023 0.013379956
0000a0 7f ed 5e bd 19 da 1f 3e 3f e0 de 3d bc 18 98 3c
       -0.054425713 0.15610541 0.10882615 0.018566482
0000b0 43 f7 39 3e 7b 58 24 3d 8c 29 f1 bc 00 b4 00 bd
       0.18160729 0.040123444 -0.029438756 -0.03142166
0000c0 99 76 de 3d 12 23 0d bd 40 22 fd 3b c3 6a c5 3d
       0.108624645 -0.034457274 0.00772503 0.09639504
0000d0 4f f9 f3 bc 61 36 e3 3b dc 80 a1 bd ba 4d 45 3e
       -0.029781966 0.0069339727 -0.07885906 0.19267932
0000e0 02 72 91 3d d9 06 aa bc 9a 5d 9a bc bf 8e a5 3d
       0.071018234 -0.020755218 -0.01884346 0.08083867
0000f0 34 5b d6 bb 7f 9e 84 bd dd 58 c0 3d 3e a9 3b 3d
       -0.006541634 -0.06475543 0.09391949 0.0458157
000100 8e 21 00 3e eb 5d dd 3b 0d 5d 74 3c f5 35 ca 3c
       0.125128 0.0067555807 0.014914763 0.024683932
000110 1c a2 34 3c 4c ca 91 3d 72 e2 d0 3d c2 7e b7 bc
       0.011024978 0.07118663 0.10199441 -0.02239931
000120 be 31 bd 3d 45 89 b0 3d 2e 81 c3 bd 98 38 c5 3d
       0.09238003 0.08619932 -0.095461234 0.09629935
000130 20 49 7c 3d 43 74 c2 bd d6 04 9e 3d 49 ab 08 be
       0.061593175 -0.094948314 0.07715766 -0.1334659
000140 48 60 13 3c fa f3 24 be 02 62 40 3d 0d 32 ae 3d
       0.008995123 -0.16108695 0.046968468 0.0850564
000150 b1 ca cc bb 08 67 1c 3c 0d 84 6b bd 5c 4d d9 3d
       -0.0062497486 0.009546049 -0.05749898 0.10610458
000160 c5 c8 76 3d fe e8 61 bd d1 8b ae bd f7 4f 0d be
       0.060250062 -0.05515384 -0.085227616 -0.13800035
000170 bd e8 b5 3d 7c 51 d4 3c ca e0 c1 bd a5 63 aa 3c
       0.08882282 0.025917761 -0.09466703 0.020799467
000180 1e 9b 94 bc e7 81 93 bd ee f8 8d bb 27 3c 42 3d
       -0.018140372 -0.07202511 -0.0043326532 0.047420647
000190 11 91 4a 3d f8 de aa 3d 66 c9 bc 3d fa 8f b7 3c
       0.049454752 0.08343309 0.09218101 0.02240752
0001a0 71 28 a7 3c aa 2f b3 bd 6e 4b 7d bd 65 19 4e 3d
       0.020405026 -0.087493256 -0.061839513 0.050317187
0001b0 b6 14 4d bd c9 86 65 b9 5e ad ae 3d 1c ea 88 bd
       -0.05006858 -0.00021889353 0.08529161 -0.06685278
0001c0 61 a1 8a 3d 18 1d e7 bd ed 88 8c bd 98 5d 43 3c
       0.06769062 -0.11284846 -0.06862054 0.01192417
0001d0 c7 42 15 be 18 28 1c bd eb 1f c2 3d 7a ba ab 3d
       -0.14576255 -0.038124174 0.09478744 0.08385177
0001e0 af 30 d2 3c 71 60 e4 3d 26 4d 83 3c f1 4b b6 bc
       0.02565798 0.11151207 0.016027998 -0.022253009
0001f0 81 59 1e 3e 78 35 b9 3d 3a 8d 73 3d 8d 55 15 3e
       0.1546383 0.090434015 0.059460856 0.14583416
000200 42 96 a3 bb 57 95 93 3c 40 d6 7a 3d e5 60 0b be
       -0.0049922774 0.018015547 0.06123948 -0.13611181
000210 b1 a6 21 3c 72 5c eb bd c8 d0 c5 3d 77 3f 01 bd
       0.0098664025 -0.11492242 0.096589625 -0.031554665
000220 f1 32 ab bd 1c 09 b1 3d 70 ac dd bd 71 26 4a 3d
       -0.08359326 0.086443156 -0.108239055 0.049353067
000230 97 46 d3 3d 44 f8 62 bd 31 b8 41 3d 9f 86 db bd
       0.10316198 -0.055412546 0.0472948 -0.10719036
000240 f6 77 7a 3c e0 09 d6 3d 1d 4c a8 3b 33 8e cb bd
       0.01528739 0.10451102 0.0051360265 -0.09939232
000250 38 c6 80 bc 5b fe d4 bd 92 62 b1 3d 8a cb a0 3d
       -0.015719518 -0.10400077 0.08661379 0.07851322
000260 ae 7c 93 bc 18 95 73 3d b7 65 2e 3d 50 94 e1 bd
       -0.018003788 0.05946836 0.04257747 -0.110146165
000270 7a b0 37 3d 11 a9 f0 bc 5d 5f 49 3d 29 8a 83 3d
       0.044846036 -0.029377492 0.04916321 0.06422836
000280 64 c1 c7 bd 8a d0 1b bd 03 07 3e 3d f5 f5 88 bb
       -0.09753683 -0.038040675 0.046393406 -0.004179711
000290 2b 79 d5 3c b6 d9 a5 bc c2 f8 d8 bd 76 05 e8 bc
       0.026058754 -0.020245414 -0.10594322 -0.028322916
0002a0 26 53 9f 3d a0 76 c5 bb 25 9a 96 3d 67 69 77 3d
       0.07779531 -0.006026104 0.073536195 0.060403254
0002b0 db 69 bd 3b 4e d5 f2 3d 70 61 d2 bd 6d ef 02 3d
       0.005780441 0.11857091 -0.10272491 0.031966615
0002c0 67 6d e9 bc 41 5d bc bc 6f 55 81 3d b8 f2 12 bd
       -0.02849455 -0.022993686 0.06315123 -0.035876006
0002d0 72 ad 83 3d 5a 20 2d bd 16 d1 87 bd e2 59 63 3d
       0.064295664 -0.04226718 -0.06631677 0.05550564
0002e0 00 9b cf bb a5 ae 4b bd cd e2 41 3c 26 98 a9 bd
       -0.006335616 -0.0497271 0.011833859 -0.08280973
0002f0 24 bd 35 bd fb f3 dd bc 49 55 76 3d 6a 52 59 3d
       -0.04436983 -0.027093878 0.060139928 0.05305711
000300 aa 43 8c 3d 9e 86 ba 3d 4a 78 ce bd e9 9d 82 3c
       0.068488434 0.091077074 -0.10081537 0.015944438
000310 00 44 93 bc 55 3e 90 bc 33 02 97 3d 07 8d 97 bc
       -0.01797676 -0.017607847 0.07373466 -0.018499864
000320 d6 2e a0 3d bf 73 9e bd aa 86 ba 3c bc bb bb bd
       0.07821433 -0.077369206 0.022769291 -0.09166667
000330 20 37 15 3d bc 67 89 3d 89 5f 91 bd 25 0d aa 3c
       0.036429524 0.06709239 -0.070983 0.02075822
000340 98 d7 86 bd 5d d7 ec 3c 13 6a 50 3d f0 ae 7d 3c
       -0.0658409 0.028911287 0.05088241 0.015483603
000350 c5 a8 b1 bc bc be ab 3c 6f 85 74 bb ad c7 45 3d
       -0.02168692 0.020964973 -0.0037310978 0.04828613
000360 ae 56 fa 3d 0d 95 cc 3d 01 d3 63 3d 55 67 90 bc
       0.12223564 0.09989367 0.05562115 -0.017627398
000370 b7 71 e2 bb d7 66 17 3d 04 75 e9 3d 14 14 46 bb
       -0.0069105285 0.03696331 0.11399272 -0.003022437
000380 54 95 56 bc 02 b2 d2 3c 92 4e 62 3d d1 cf 83 3d
       -0.013097126 0.025719646 0.05525071 0.06436122
000390 fc be e8 3c 21 41 3a bd 71 57 df 3d 45 21 00 3e
       0.028411381 -0.045472268 0.1090535 0.12512691
0003a0 49 ad ea 3b eb c2 9f 3d 60 e5 ae 3d 56 ff 1b 3d
       0.0071617705 0.078008495 0.085398436 0.038085304
0003b0 9d 90 d9 3d f9 73 99 3d fc 9b 0b 3e 53 3c 9a bd
       0.10623286 0.07492823 0.13633722 -0.07531037
0003c0 aa ee 52 3c cb e9 a1 3d 45 f2 f1 3d c0 9d 08 3c
       0.012874285 0.079059206 0.11813787 0.008338392
0003d0 af f3 33 3d 10 f8 b7 bd 5a d6 05 bc b7 36 5d 3a
       0.043933567 -0.08982861 -0.008168781 0.0008438634
0003e0 bc 3a 49 bd 64 b0 29 3e 43 00 f5 3d af 04 b2 bd
       -0.04912828 0.16571194 0.119629405 -0.086922996
0003f0 79 14 b6 3d 57 be c3 bc 29 2f 28 3c 5d 4d 5f bc
       0.088906236 -0.023894472 0.01026515 -0.013629285
