LSTM_spread_forecasting/models/LSTM_AMZN_DPZ.pth (torch, 427518 bytes, 13 tensors)

weight_ih_l0 f4 [288, 1]
0	0x3c196038	0.009361319
1	0x3db7ddbd	0.0897784
2	0x3e0d8e00	0.138237
3	0x3e402078	0.18762386
4	0x3cd5ceab	0.026099524
5	0xbe7c0977	-0.24612986
6	0xbd05d159	-0.032670353
7	0x3d105115	0.035233576
8	0xbc9a4f42	-0.018836621
9	0xbe060e7b	-0.13091461
10	0xbc6affbd	-0.014343199
11	0x3dfbb126	0.12289648
12	0x3ccc10ab	0.024910292
13	0xbe1c3ec1	-0.15258314
14	0x3d7cddb5	0.061734874
15	0x3da77dba	0.08178277
16	0xbd883ff6	-0.066528246
17	0x3ddc4e95	0.10757176
18	0x3d1d8947	0.038460996
19	0x3d7dbf38	0.06194994
20	0xbd235b32	-0.039881893
21	0xbca07486	-0.019586813
22	0x3bb8363a	0.0056216987
23	0x3c9fcd34	0.019507028
24	0xbddcbd92	-0.10778345
25	0x3da8e454	0.08246675
26	0x3d45f08b	0.048325103
27	0xbc9c264f	-0.019061236
28	0x3ab5bfac	0.0013866327
29	0x3dbf0ea5	0.09328965
30	0x3d058991	0.032601897
31	0xbd41909c	-0.04725705
32	0x3e1580bc	0.1459989
33	0x3e57f22d	0.21088476
34	0x3e13b52e	0.14424583
35	0x3d94058a	0.07227619
36	0x3da74159	0.08166761
37	0xbdb676d0	-0.089093804
38	0x3d4c7a49	0.049921308
39	0x3e06f573	0.13179569
40	0xbc6182ac	-0.013764065
41	0x3e11b6f7	0.14229952
42	0xbdff941e	-0.12479423
43	0xbd9060e9	-0.07049734
44	0x3d7dbd62	0.061948188
45	0xbc49e8e5	-0.012323593
46	0xbdbca458	-0.092110336
47	0x3d0b2e62	0.03397978
48	0x3dfb9c5c	0.122856826
49	0x3dcb8b08	0.099386275
50	0xbb9e249a	-0.0048261406
51	0x3e14f37f	0.14546011
52	0xbdada601	-0.08478928
53	0x3d975ea9	0.07391102
54	0x3d3dfdd0	0.046384633
55	0x3e19ace1	0.15007354
56	0xbaf70657	-0.0018846494
57	0xbdde3359	-0.108496375
58	0xbe0b61f1	-0.1361158
59	0x3ddffa8a	0.109364584
60	0x3e2d14e5	0.16902502
61	0x3dbd1fa3	0.0923455
62	0x3e103029	0.14080872
63	0xbc937be3	-0.01800341
64	0xbd0ef4f1	-0.034901563
65	0x3dad6030	0.08465612
66	0x3e024457	0.12721382
67	0x3e029b8d	0.1275465
68	0x3dac87d9	0.084243484
69	0x3dc179e6	0.094470784
70	0x3b53c183	0.0032311387
71	0x3bb6f9d8	0.005583983
72	0x3e1fc000	0.15600586
73	0xbdb5bfaa	-0.08874448
74	0x3e0e1437	0.13874899
75	0x3df4ca05	0.11952595
76	0x3d547c34	0.05187626
77	0xbdce438f	-0.100714795
78	0x3be747dc	0.007058127
79	0xbd049eaa	-0.032377876
80	0x3d26a91f	0.04068863
81	0xbd3786e8	-0.04480639
82	0x3d01192d	0.03151815
83	0xbd6e50d2	-0.058182545
84	0x3d37a760	0.044837356
85	0xbb63f27d	-0.0034781985
86	0xbdb43a20	-0.08800149
87	0x3de91c8d	0.11382399
88	0x3d2a1472	0.041523404
89	0xbc66bc7f	-0.014083027
90	0x3dbe6c76	0.09298031
91	0x3dd8a5ae	0.10578476
92	0xbd9aa84c	-0.07551631
93	0x3ca3299d	0.019917304
94	0x3d525250	0.05134803
95	0xbdd4e8e3	-0.10395982
96	0x3d8e0343	0.06934216
97	0xbd60f852	-0.054924317
98	0xbcd3dc4d	-0.025861884
99	0x3db03bcf	0.086051576
100	0x3e06847a	0.13136473
101	0xbd6dc9c2	-0.05805374
102	0x3dbffb03	0.093740486
103	0xbc8790bc	-0.016548507
104	0xbd3ef6c7	-0.046622064
105	0x3d5795e2	0.052633174
106	0x3de9ee16	0.114223644
107	0x3d822c96	0.0635616
108	0xbd76668d	-0.060156394
109	0x3d219763	0.039451014
110	0xba037d68	-0.00050159404
111	0xbde18afa	-0.11012836
112	0xbe03133d	-0.12800308
113	0xbdb4fa12	-0.088367596
114	0xbdf87a4c	-0.12132701
115	0xbcf459a6	-0.029827904
116	0x3cc06716	0.023486655
117	0x3dadf6ac	0.084943146
118	0x3e083ccc	0.13304442
119	0xbe0b7e90	-0.13622499
120	0x3ce17b24	0.027524538
121	0xbde6bdd9	-0.11266679
122	0x3e02085e	0.12698504
123	0x3dd2466f	0.102673404
124	0x3da3e95b	0.080034934
125	0xbcafe801	-0.021472933
126	0x3e0528dc	0.13003868
127	0x3e2b00d7	0.16699539
128	0x3bce95e2	0.0063044885
129	0xbe300937	-0.17191015
130	0x3c0afcac	0.008483093
131	0x3d405a3d	0.046961058
132	0x3d5bb58b	0.05363993
133	0x3d693c9a	0.05694256
134	0x3d81030f	0.062994115
135	0x3d6d58b0	0.057945907
136	0xbdbd7227	-0.092502885
137	0x3cb17c9d	0.021665866
138	0x3e09b6b4	0.13448602
139	0x3e1ead25	0.15495737
140	0x3e147cda	0.14500752
141	0x3cdf3c07	0.027250303
142	0x3ddcda02	0.10783769
143	0xbdad8182	-0.08471967
144	0x3e09904e	0.13433954
145	0x3e0598a7	0.13046513
146	0xbd9fe170	-0.07806671
147	0xbd7a019d	-0.061036695
148	0xbe77d43a	-0.24202052
149	0xbe0b2c35	-0.13591082
150	0xbe2b89ee	-0.16751835
151	0xbdf90bd6	-0.12160461
152	0x3de9bd4b	0.11413058
153	0x3e289152	0.16461685
154	0xbd9cbcc6	-0.07653193
155	0x3d69e33e	0.05710148
156	0x3daad2e5	0.08341006
157	0x3cf6d5b1	0.030131193
158	0x3e1fc0b6	0.15600857
159	0xbe0ed9c5	-0.1395026
160	0x3e21c743	0.15798669
161	0x3e281943	0.16415887
162	0x3e1794d2	0.14802864
163	0xbe25f5f0	-0.16207099
164	0x3da00cf8	0.078149736
165	0xbe1823c9	-0.14857401
166	0xbdf655d8	-0.12028092
167	0xbcf5a9ec	-0.029988252
168	0xbddd9e85	-0.10821251
169	0xbe329e40	-0.1744318
170	0x3d438733	0.047736358
171	0xbe1b254e	-0.1515095
172	0x3dc587c3	0.09645035
173	0x3d06e207	0.0329304
174	0xbdf8b3f7	-0.121437006
175	0x3e2bca65	0.16776426
176	0x3e12d3b0	0.14338565
177	0x3dca9eb4	0.098935515
178	0x3d6e0580	0.058110714
179	0xbe5e66db	-0.21718924
180	0xbe0559fd	-0.13022609
181	0x3ca72d9d	0.020407492
182	0x3dde5051	0.10855163
183	0x3dc32a48	0.09529549
184	0x3e10c0ca	0.14136043
185	0x3df506ac	0.11964163
186	0x3e2cebe2	0.16886857
187	0x3e3ff535	0.18745883
188	0x3e65a494	0.22426063
189	0xbe059a7b	-0.13047211
190	0x3dff47bf	0.12464856
191	0xbe0fbe7f	-0.14037512
192	0x3e374f37	0.17901312
193	0xbe1bb47b	-0.15205567
194	0xbe154791	-0.14578082
195	0x3da988b1	0.08278025
196	0x3e2d3a2f	0.16916727
197	0xbe035e64	-0.12828976
198	0x3c0d1ef2	0.008613335
199	0x3e1ff7ca	0.15621868
200	0xbdee87aa	-0.116469696
201	0x3e191738	0.14950264
202	0x3d3bf040	0.045883417
203	0x3e0a87e8	0.13528407
204	0x3d633f08	0.055480033
205	0xbe17941b	-0.14802592
206	0xbdf6e01f	-0.120544665
207	0x3e1b35d2	0.1515725
208	0xbe023b4e	-0.12717935
209	0xbe0a5928	-0.13510573
210	0xbe02e9a3	-0.12784438
211	0xbdf13337	-0.117773466
212	0xbe01d86e	-0.12680218
213	0xbe02ac50	-0.12761045
214	0xbe6cbf52	-0.23119858
215	0xbdd65592	-0.1046554
216	0x3c99f777	0.018794758
217	0xbcc9229b	-0.024552634
218	0x3e26816b	0.16260307
219	0x3d17a7f4	0.037025407
220	0x3dab04d7	0.083505325
221	0xbe682e8b	-0.22674005
222	0xbd773e30	-0.06036204
223	0x3d4d857d	0.050176132
224	0xbc6b26ea	-0.01435254
225	0xbe3a4acf	-0.181926
226	0x3e32e9d0	0.17472005
227	0xbddceb95	-0.10787121
228	0xbe1be84e	-0.15225336
229	0xbe0cb299	-0.13740005
230	0xbddb9d7f	-0.10723399
231	0x3cd3cb61	0.025853815
232	0xbe0b8c4e	-0.1362774
233	0x3cda2d22	0.02663285
234	0xbd5a8b20	-0.053355336
235	0x3d6dd301	0.058062557
236	0x3d18ec24	0.037334576
237	0x3dbea042	0.093079105
238	0x3dde5ac1	0.10857154
239	0x3be0b842	0.0068579027
240	0xbe385f93	-0.18005209
241	0xbd2ae152	-0.04171879
242	0x3dfbad28	0.12288886
243	0xbd1ab8f1	-0.03777403
244	0x3d17c741	0.037055258
245	0xbcf76348	-0.030198708
246	0x3dcd89b1	0.10036028
247	0xbd8de825	-0.06929044
248	0x3df0d12a	0.11758645
249	0x3dacd334	0.08438721
250	0x3dfc406d	0.12316976
251	0x3d88b8c3	0.066758655
252	0xbdbbd75c	-0.09171936
253	0xbad71fa0	-0.0016412623
254	0xbc1dee98	-0.009639405
255	0x3c88c30e	0.016694572

weight_hh_l0 f4 [288, 72]
0	0xbd4806ac	-0.048834488
1	0x3d836f2a	0.06417687
2	0x3bd39bee	0.0064577973
3	0x3d7d0733	0.061774444
4	0x3d6645af	0.0562188
5	0x3dec8757	0.115492515
6	0xbdd57172	-0.104220286
7	0xbcf35a4f	-0.029706148
8	0xbdd3b81b	-0.1033785
9	0x3c1ef505	0.009701972
10	0xbe2053c9	-0.15656962
11	0x3d9e79e1	0.0773809
12	0xbd8b5c95	-0.06804768
13	0x3e2ed7eb	0.17074554
14	0xbcf53b10	-0.02993539
15	0xbd533239	-0.051561568
16	0x3cf99395	0.03046588
17	0xbd06dfa8	-0.03292814
18	0x3e00b0f1	0.12567498
19	0xba4b5f79	-0.0007758062
20	0x3ca71ec1	0.020400407
21	0xbd84191b	-0.06450101
22	0x3d221f68	0.039580733
23	0x3d4b0031	0.04956073
24	0xbbe4f37b	-0.006987033
25	0x3d38fbbb	0.045161944
26	0xbcf26ef4	-0.029593922
27	0xbcbcc713	-0.023044145
28	0x3e06741d	0.13130231
29	0xbdad6a95	-0.084675945
30	0x3d88c1cf	0.06677591
31	0x3c84188c	0.016124986
32	0x3d9d76b1	0.07688654
33	0x3d11a37c	0.0355563
34	0xbc0b1d94	-0.008490939
35	0xbcc5824a	-0.024109978
36	0x3d5931c3	0.053025972
37	0x3d459d91	0.04824597
38	0x3d10cb77	0.03535029
39	0x3dc3d5a4	0.09562233
40	0x3d5e75df	0.05431163
41	0x3d76fb64	0.06029834
42	0xbdb42cd8	-0.08797616
43	0xbda1e1c9	-0.07904393
44	0x3d83644c	0.064156145
45	0xbdadb548	-0.08481842
46	0x3d96b776	0.07359211
47	0x3defef02	0.11715509
48	0xbd2b52f7	-0.04182717
49	0xbd035835	-0.032066543
50	0xbdf3bae9	-0.11900885
51	0x3ddce2a2	0.10785414
52	0xbd45a7c8	-0.04825571
53	0xbe1312a2	-0.14362577
54	0x3e14fa57	0.14548622
55	0x3de2b782	0.110701576
56	0xbd434833	-0.047676276
57	0xbdfcfe01	-0.12353135
58	0xbdbab2b9	-0.0911612
59	0xbd202abb	-0.03910325
60	0xbd8ee178	-0.069765985
61	0xbd80a66e	-0.06281744
62	0xbaccc0d0	-0.0015621427
63	0xbda4357b	-0.08018013
64	0x3dbb6dc0	0.091517925
65	0xbc6b080b	-0.014345179
66	0xbd256b3e	-0.040385477
67	0x3da69b3b	0.081350766
68	0x3ccb2f57	0.024802847
69	0x3d65f4b5	0.056141574
70	0xbdc2c3c5	-0.09509996
71	0x3d87fcda	0.066400245
72	0x3deffb73	0.11717882
73	0x3de4dfe7	0.111755185
74	0xbdb51f9d	-0.088439204
75	0xbd991804	-0.07475284
76	0xbdc4eb7d	-0.09615228
77	0x3d461005	0.04835512
78	0x3d945f53	0.07244744
79	0xbc29a83a	-0.01035505
80	0xbdaa0afb	-0.083028756
81	0x3d0433cc	0.03227596
82	0x3c33938f	0.010960474
83	0x3d9fbb21	0.07799364
84	0xbd86cc21	-0.06581903
85	0x3d43169b	0.04762898
86	0xbd8d9f84	-0.06915191
87	0x3d8a5aa2	0.06755568
88	0xbdb060d5	-0.08612219
89	0x3c252fff	0.010082244
90	0x3ce382fe	0.027772423
91	0xbe0be4ad	-0.13661452
92	0xbdd6f19e	-0.104953036
93	0xbda5c2a8	-0.08093768
94	0x3db786eb	0.089612804
95	0x3e05af2d	0.13055106
96	0xbbdc142a	-0.006716271
97	0xbde354c1	-0.1110015
98	0x3e08f7c6	0.13375768
99	0x3dc4d419	0.09610767
100	0xbda92ce9	-0.08260519
101	0x3d354a9d	0.04426061
102	0x3d66398c	0.056207225
103	0x3ce8fd44	0.028441079
104	0x3d125300	0.035723686
105	0x3dbdbf06	0.092649505
106	0x3d440943	0.047860395
107	0x3cf164d4	0.029467024
108	0x3dd5b29c	0.10434458
109	0x3c318c0c	0.010836612
110	0x3cbe7887	0.023250831
111	0xbc059a40	-0.008154452
112	0xbe010129	-0.12598099
113	0x3d81a232	0.063297644
114	0xbda88b8c	-0.082297415
115	0xbc303014	-0.01075365
116	0x3c685d99	0.014182472
117	0xbd9372e2	-0.071996465
118	0xbcba3521	-0.022730412
119	0xb82ecf48	-4.167788e-05
120	0x3db03572	0.08603944
121	0x3c480589	0.012208351
122	0xbd939e5b	-0.07207938
123	0xbd40e228	-0.04709068
124	0xbd4690ab	-0.04847781
125	0x3c6ff803	0.014646533
126	0x3d458ff9	0.048233006
127	0xbc97a52c	-0.018511377
128	0xbdcb6112	-0.09930624
129	0x3cb007ba	0.02148806
130	0xbd9ec933	-0.077532195
131	0xbd89456e	-0.06702696
132	0x3e0ee1f5	0.13953383
133	0xbc45d9ec	-0.012075882
134	0xbdd13c06	-0.10216527
135	0xbcb1b485	-0.021692524
136	0x3ca5c742	0.020236615
137	0x3d186f14	0.037215307
138	0xbddb7e42	-0.10717441
139	0x3d9bbd21	0.07604433
140	0xbd6e57c7	-0.05818918
141	0xbdcbbbba	-0.099479154
142	0x3d62dc3c	0.055385813
143	0x3df0071d	0.11720107
144	0x3d84a9ec	0.064777225
145	0xbc9aa797	-0.018878741
146	0x3cea5652	0.028605614
147	0xbd20c102	-0.039246567
148	0x3d80ef73	0.06295671
149	0x3e2a460f	0.16628288
150	0xbd637dc6	-0.05553987
151	0xbd08c60c	-0.033391997
152	0x3d58fa34	0.052972987
153	0xbdef168e	-0.11674224
154	0x3d02889c	0.031868562
155	0x3dfbbd72	0.12291993
156	0x3bd9a54e	0.0066420203
157	0xbd4f7eef	-0.050658163
158	0xbe06df91	-0.13171221
159	0x3e1c8e82	0.15288737
160	0xbac5b2e0	-0.0015083216
161	0xbde4911c	-0.1116049
162	0xbd980791	-0.07423318
163	0xbda8aacb	-0.08235701
164	0xbde1992b	-0.110155426
165	0x3da2d1c6	0.07950167
166	0x3d7085d0	0.058721364
167	0x3e03f073	0.12884693
168	0xbd618953	-0.055062603
169	0x3c8cd8fd	0.017193312
170	0xbdee06e5	-0.11622409
171	0x3ded6a8a	0.11592586
172	0x3d386647	0.045019414
173	0xbdd11d84	-0.10210708
174	0xbd0d7fd2	-0.034545727
175	0xbe22aa65	-0.15885313
176	0xbdcf209e	-0.10113643
177	0xbda084e7	-0.07837849
178	0x3df7aafc	0.120931596
179	0xbd115f74	-0.03549142
180	0x3cce7d73	0.025206303
181	0x3d31528e	0.04329162
182	0x3d7d4faf	0.06184357
183	0xbdb8dd4b	-0.09026583
184	0xb8398ed2	-4.424045e-05
185	0xbd97ff20	-0.07421708
186	0x3d0073fb	0.031360608
187	0x3d387592	0.045034
188	0xbb1c2075	-0.0023823057
189	0xbcd9d9ec	-0.026593171
190	0xbdac1fc4	-0.08404496
191	0x3d52f832	0.05150623
192	0x3d9193d0	0.07108271
193	0xbc84f39f	-0.016229449
194	0x3c9ab2b2	0.018884037
195	0xbd7eafe1	-0.06217945
196	0x3daf1bf1	0.08550251
197	0x3d78aea0	0.06071341
198	0x3ddcd5ce	0.107829675
199	0xbdd61c55	-0.10454623
200	0x3cde80b7	0.027160985
201	0xbe3573bf	-0.17719935
202	0xbcded109	-0.027199285
203	0xbd98b4d3	-0.074563645
204	0x3de764de	0.11298536
205	0x3dcc5e12	0.0997888
206	0x3dc73f31	0.0972885
207	0xbe24d404	-0.16096503
208	0x3d26ece4	0.04075326
209	0xbdec1284	-0.11526969
210	0x3d1a4c03	0.037670147
211	0x3bd8b587	0.0066134366
212	0x3db8e732	0.09028472
213	0xbd0817bf	-0.03322577
214	0x3cf3d439	0.029764282
215	0xbca0ce7e	-0.019629713
216	0x3b989bee	0.00465726
217	0x3d16d641	0.036825422
218	0xbda08a20	-0.07838845
219	0x3d3af6d3	0.045645546
220	0xbe040216	-0.1289142
221	0x3db34f9e	0.0875542
222	0x3d03c0e4	0.032166377
223	0xbd90fcb4	-0.07079449
224	0xbdb3987e	-0.0876932
225	0xbdcf3798	-0.101180255
226	0xbde59062	-0.112091795
227	0x3d595511	0.05305964
228	0x3ddb4e02	0.10708238
229	0x3e184c32	0.14872816
230	0x3d361b37	0.044459548
231	0x3cc6b80a	0.024257679
232	0x3d8b9ff3	0.06817617
233	0xbd47cd4c	-0.04877977
234	0x3e04fbf9	0.12986745
235	0xbdf0f606	-0.11765675
236	0x3b6c9886	0.0036101653
237	0x3c513b8f	0.0127705475
238	0x3d0ec6d2	0.03485758
239	0xbd72f704	-0.059317604
240	0xbd51677e	-0.05112409
241	0xbe0fdf66	-0.14050063
242	0xbda4a891	-0.08039964
243	0xbdfe79de	-0.12425588
244	0xbcf1d8c1	-0.029522302
245	0xbdb063cc	-0.08612785
246	0x3d7a3cbb	0.061093073
247	0x3daeff01	0.08544732
248	0xbd2413e7	-0.040058043
249	0x3df99f2f	0.12188565
250	0xbce4f64b	-0.027949473
251	0xbd3e8204	-0.04651071
252	0x3c49a0fc	0.012306448
253	0x3e0a2fcc	0.13494796
254	0x3d295a3d	0.041345824
255	0x3c07c5f7	0.008286945

bias_ih_l0 f4 [288]
0	0x3dc2fa5f	0.09520411
1	0x3d868ba4	0.06569603
2	0xbba4e887	-0.005032602
3	0x3e0eaa1a	0.13932076
4	0x3ebc8581	0.36820605
5	0x3c3dfda9	0.011596122
6	0x3e4a2488	0.19740498
7	0x3c8bff67	0.017089559
8	0x3e0c355d	0.13692231
9	0x3e1cac99	0.15300216
10	0x3cb92c19	0.022604035
11	0x3b7bc6e3	0.0038418106
12	0x3d68bcec	0.056820795
13	0xbc2fa7b5	-0.010721137
14	0x3d6fa639	0.05850813
15	0x3e2a1507	0.16609584
16	0x3c8e7c1c	0.017393164
17	0x3d0337b4	0.032035545
18	0x3e527ecc	0.20556182
19	0x3d022813	0.0317765
20	0x3dfa4cf0	0.12221706
21	0x3dbfafd6	0.0935971
22	0x3e38cdb5	0.18047221
23	0xbd7d7023	-0.06187452
24	0xbc65db7f	-0.014029383
25	0x3d28ccb2	0.041210838
26	0xbd1fb7f0	-0.038993776
27	0x3e28565e	0.16439196
28	0xbd31f254	-0.043443993
29	0x3dc78f9e	0.0974419
30	0xbd74e06c	-0.059784338
31	0x3e981155	0.29700723
32	0x3c771cf6	0.015082588
33	0x3cf2af23	0.029624527
34	0x3ded4688	0.115857184
35	0x3e8a69c3	0.27033815
36	0x3e1560db	0.14587729
37	0x3dad4bfb	0.08461758
38	0x3df7b2af	0.12094628
39	0x3dac0315	0.08399025
40	0x3ca9035c	0.020631485
41	0x3bde33ab	0.0067810616
42	0x3e3a32f6	0.18183503
43	0x3c65b621	0.014020474
44	0x3d5ddbcf	0.054164704
45	0x3dc88de2	0.09792687
46	0x3e20ad99	0.15691222
47	0xbc43d5d3	-0.011952835
48	0x3d312249	0.043245587
49	0x3d386107	0.045014407
50	0x3d95b69c	0.073102206
51	0xbdc4b7f3	-0.09605398
52	0x3e350583	0.17677884
53	0x3e0c0a2b	0.13675754
54	0x3c5f52a7	0.013630546
55	0x3e251d49	0.16124453
56	0xbd2ea74c	-0.042640015
57	0x3dd7c270	0.10535133
58	0x3e2627f5	0.1622618
59	0x3e1cc648	0.15310013
60	0x3d049dee	0.032377176
61	0x3e15f818	0.14645422
62	0x3d4b1e52	0.049589463
63	0x3e89784e	0.26849598
64	0xbb392f72	-0.002825704
65	0x3dd6a9d1	0.10481609
66	0x3e3a4638	0.18190849
67	0x3cabcf24	0.020972796
68	0x3d18ef36	0.037337504
69	0x3da9bc52	0.082878724
70	0x3e9d566d	0.3073
71	0x3c8e048c	0.017336152
72	0xbd71f0a6	-0.05906739
73	0xbdcafb4c	-0.09911212
74	0x3dddfcbb	0.1083922
75	0x3d27db79	0.04098079
76	0xbe42b64a	-0.1901485
77	0x3d386dbb	0.045026522
78	0xbe087fd6	-0.13330016
79	0xbc188c3a	-0.009310776
80	0xbd36e1d9	-0.04464898
81	0xbc53df37	-0.012931637
82	0x3b7cddee	0.003858443
83	0x3de1b9e6	0.110217854
84	0x3d48593c	0.048913226
85	0xbcf11867	-0.029430581
86	0xbc058dbc	-0.008151468
87	0x3d82c020	0.06384301
88	0x3d10d2d4	0.03535731
89	0x3ce6df55	0.028182665
90	0xbdbe4570	-0.09290588
91	0x3d8611e6	0.065463826
92	0x3d675cb4	0.056484893
93	0xbd7726c5	-0.060339708
94	0xbde63f88	-0.112425864
95	0xbd9d8a4b	-0.07692393
96	0x3d563a6f	0.05230182
97	0x3d927c02	0.07152559
98	0xbaab3fe9	-0.0013065311
99	0xbe291b73	-0.16514377
100	0xbddffbb1	-0.10936678
101	0x3de9f829	0.11424286
102	0xbc464e44	-0.012103621
103	0xbe141652	-0.1446164
104	0xbe0ddd19	-0.13853873
105	0xbc656f59	-0.014003598
106	0x3de80888	0.11329752
107	0xbe2281a9	-0.15869774
108	0x3d8d1b89	0.068900175
109	0x3cfc089b	0.030765822
110	0x3d852c0a	0.065025404
111	0x3db9accb	0.09066161
112	0xbd9336e7	-0.07188206
113	0x3cf1ae69	0.02950211
114	0xbbeb3d03	-0.007178904
115	0xbe107d78	-0.14110363
116	0xbcc2022e	-0.02368268
117	0xbe14a482	-0.1451588
118	0x3daeacb2	0.08529033
119	0xbc187a95	-0.00930657
120	0xbe0ba665	-0.13637693
121	0x3c835fc7	0.016036881
122	0xbd081b18	-0.033228964
123	0x3d72f2c2	0.059313543
124	0xbc5c1eee	-0.013435109
125	0xbd28db9f	-0.041225072
126	0x3db1e327	0.08685904
127	0x3d8a9315	0.06766335
128	0xbd667e02	-0.056272514
129	0xbe1c6a77	-0.15274988
130	0xbd33eaf3	-0.043925237
131	0x3cfe2849	0.031025069
132	0x3d964b83	0.073386215
133	0xbe01411a	-0.1262249
134	0x3d7f1166	0.06227245
135	0xbe0dcaff	-0.13846968
136	0x3dabb074	0.08383265
137	0x3bcb7042	0.0062084505
138	0xbe2b5d38	-0.16734779
139	0x3d6f9ee4	0.05850114
140	0xbd82c385	-0.06384949
141	0xbde77d60	-0.1130321
142	0xbdf52613	-0.11970153
143	0xbdcfa8b3	-0.10139599
144	0xbc5c1e77	-0.013434998
145	0xbd960a1c	-0.07326147
146	0x3d06d49b	0.0329176
147	0xbd6cab5f	-0.05778062
148	0x3d3bdf99	0.045867536
149	0x3daf6b4d	0.08565388
150	0xbda4b7a5	-0.0804284
151	0xbd79bbff	-0.060970303
152	0xbb298b41	-0.0025870355
153	0xbd2c5833	-0.0420763
154	0xbc98065f	-0.018557725
155	0xbcd42e2a	-0.025900919
156	0xbd2c61d6	-0.04208549
157	0x3df87055	0.12130801
158	0xbd2e5592	-0.042562075
159	0xbd8c2df6	-0.06844704
160	0xbd749429	-0.05971161
161	0xbb399585	-0.002831788
162	0xbc4306a6	-0.011903441
163	0x3cc34c5f	0.023840128
164	0xbd680355	-0.056643803
165	0xbb8cee9b	-0.004300905
166	0xbd7a0671	-0.0610413
167	0x3d982545	0.074289836
168	0xbd50cd8d	-0.05097728
169	0x3d928a76	0.071553156
170	0x3dc9ccc0	0.09853506
171	0x3c893c5b	0.016752413
172	0x3dcfdd09	0.10149581
173	0x3d8841f4	0.066532046
174	0x3dbd3acb	0.092397295
175	0x3c8b1c24	0.016981192
176	0x3d11b72e	0.035575084
177	0xbc155a7f	-0.009115814
178	0x3dd7e13b	0.10541006
179	0x3c62c316	0.013840457
180	0x3c99ac52	0.018758927
181	0x3d718cdf	0.058972236
182	0x3c1fc271	0.009750948
183	0xbdad21cd	-0.084537126
184	0x3d4c101a	0.049820043
185	0xbc1289a9	-0.008943954
186	0xbd1a2894	-0.037636355
187	0x3d84eaf2	0.06490125
188	0x3da3c747	0.079969935
189	0xbd9ddea8	-0.07708484
190	0xbdd78443	-0.10523274
191	0xb9a09739	-0.00030630248
192	0x3bc16147	0.005901489
193	0xbd14b583	-0.036305916
194	0xbda85a16	-0.082203075
195	0x3d874370	0.066046596
196	0x3cf8bd5d	0.030363733
197	0xbda182e3	-0.07886293
198	0x3e0c0a06	0.13675699
199	0x3ca03824	0.01955802
200	0xbd064555	-0.032780964
201	0xbb3dbaf6	-0.0028950549
202	0xbe17dc73	-0.14830188
203	0x3d3a8c36	0.04554387
204	0x3e0d5c0c	0.13804644
205	0x3c6a10ea	0.014286259
206	0xbdcaa5df	-0.09894919
207	0xbd974d9f	-0.07387852
208	0xbd29c613	-0.041448664
209	0xbd786958	-0.06064734
210	0x3cee76b3	0.029109335
211	0xbd881d92	-0.06646265
212	0xbd1502f3	-0.036379766
213	0xbc1d242c	-0.009591144
214	0x3cca457e	0.02469134
215	0x3cdaea5b	0.026723078
216	0xbccecc1f	-0.025243817
217	0x3e1c047d	0.15236087
218	0xbd9008c4	-0.07032922
219	0xbd64fad9	-0.05590329
220	0x3ec82b4c	0.39095533
221	0x3e0d0e08	0.13774884
222	0x3e912866	0.28351134
223	0x3cfabdcb	0.030608078
224	0x3de1a9a5	0.11018685
225	0x3e110300	0.141613
226	0xbd459e7b	-0.048246842
227	0xbd3019c2	-0.042993315
228	0xbb85db79	-0.004085001
229	0xbcd62851	-0.026142271
230	0x3dbe23c1	0.09284163
231	0x3db06934	0.08613816
232	0x3e2cf758	0.16891229
233	0x3e055c61	0.13023521
234	0x3e3141aa	0.17310205
235	0x3d777d76	0.060422383
236	0x3dd92889	0.106034346
237	0xbcc8bf9e	-0.024505433
238	0x3dbc69b9	0.091998525
239	0x3e0620ad	0.13098402
240	0xbd27c94b	-0.040963452
241	0x3bbdaeb7	0.00578865
242	0x3e12f86a	0.14352575
243	0x3e2924dc	0.16517967
244	0x3e0ba9a2	0.13638929
245	0x3dc1b068	0.09457475
246	0x3d705909	0.05867866
247	0x3e1646e4	0.1467548
248	0x3e232aca	0.15934291
249	0x3df6324f	0.12021314
250	0xbd130521	-0.035893563
251	0x3dfafe51	0.12255538
252	0x3e1b759a	0.1518158
253	0xbd99ced4	-0.075101525
254	0x3d9442c3	0.07239296
255	0x3e363aaf	0.17795824

bias_hh_l0 f4 [288]
0	0x3de560c8	0.112001
1	0x3dfea815	0.12434403
2	0x3d61c4e2	0.055119403
3	0x3de89f05	0.113584556
4	0x3e8a4822	0.27008158
5	0x3bb72e78	0.0055902563
6	0x3eb563e1	0.35427764
7	0xbd4c8957	-0.049935665
8	0xbd28aab0	-0.041178405
9	0x3e1d28af	0.15347551
10	0x3db8fdf5	0.090328135
11	0x3c422d17	0.011851571
12	0x3d6c5570	0.057698667
13	0x3d18bf30	0.037291706
14	0x3c4f1495	0.0126391845
15	0x3db0d1a3	0.08633735
16	0x3db16d37	0.08663409
17	0x3d40056b	0.046880167
18	0x3e91510a	0.2838214
19	0xbc8287a9	-0.015933828
20	0x3d76fe75	0.060301263
21	0x3e20be15	0.1569751
22	0x3d685522	0.056721814
23	0xbd6e6074	-0.058197454
24	0x3d7ce307	0.061739948
25	0x3e0b3416	0.13594088
26	0x3daea798	0.0852806
27	0x3c526aef	0.012842878
28	0x3bd08cee	0.0063644564
29	0xbd051140	-0.032487154
30	0x3d16a41b	0.036777597
31	0x3e5101b0	0.204108
32	0xbd695861	-0.05696905
33	0x3dc49894	0.095994145
34	0xbd388139	-0.04504511
35	0x3d931437	0.0718159
36	0x3db23ab3	0.08702602
37	0xbdc1f103	-0.094697975
38	0x3e521f62	0.20519784
39	0x3ccb0ad5	0.024785439
40	0xbd8c862d	-0.068615295
41	0x3d8e3b09	0.06944854
42	0x3e85f775	0.26165357
43	0x3d3e80c1	0.046509508
44	0x3e5affe6	0.2138668
45	0x3e33213f	0.17493151
46	0xbd0fb4c3	-0.035084497
47	0xbc8e1aa7	-0.017346693
48	0x3dee6bbf	0.11641645
49	0x3de1579c	0.11003038
50	0x3dabd15d	0.08389542
51	0xbd5e0f84	-0.054214016
52	0x3da1f7da	0.07908602
53	0x3d92953e	0.07157372
54	0x3e0956a8	0.13411963
55	0x3c07655a	0.00826391
56	0x3cffff8e	0.031249788
57	0x3d013dd9	0.031553123
58	0x3daefe9f	0.08544659
59	0x3dc30abf	0.09523534
60	0x3d1b7720	0.037955403
61	0x3e3d31ce	0.1847603
62	0x3df37603	0.11887743
63	0x3e1ff905	0.15622337
64	0x3e5560fc	0.20837778
65	0x3caa90a5	0.020820925
66	0x3ea0b737	0.31389782
67	0x3db1b9a3	0.086779855
68	0xbd9fac5c	-0.07796547
69	0x3c1da6a6	0.009622252
70	0x3e304baa	0.17216364
71	0x3d3a8340	0.045535326
72	0x3c6ee711	0.014581458
73	0xbdd30422	-0.10303523
74	0x3db85707	0.09000974
75	0xbb53980b	-0.003228667
76	0xbc90ad4f	-0.017660765
77	0x3da5d756	0.08097713
78	0xbe40a5bc	-0.18813223
79	0x3d8f79ad	0.0700563
80	0x3d82faed	0.063955165
81	0xbd8c46cd	-0.06849442
82	0x3d93a193	0.07208552
83	0xbd2ad1f6	-0.04170414
84	0xbd00b539	-0.031422827
85	0xbd0bf703	-0.034171116
86	0x3d18f2af	0.037340816
87	0xbd0fdc2e	-0.03512209
88	0xbdcb7a84	-0.099354774
89	0xbd8c9b19	-0.0686552
90	0xbd86de1d	-0.065853335
91	0x3dace7d2	0.08442654
92	0xbcb9a7e2	-0.02266306
93	0x3d4f18dc	0.050560817
94	0xbc38ff4b	-0.011291335
95	0x3dccd80d	0.10002146
96	0x3d66cff0	0.05635065
97	0xbdf6923d	-0.120396115
98	0xbd8dd1ec	-0.06924805
99	0x3d3036f6	0.043021165
100	0x3d6c5a08	0.057703048
101	0xbb5a63f1	-0.003332373
102	0xbe06c7d7	-0.1316217
103	0xbd3da722	-0.04630197
104	0xbd8ab481	-0.0677271
105	0x3ba08eea	0.004899849
106	0xbd988209	-0.07446677
107	0x3a9230c4	0.0011153449
108	0x3c97cff7	0.018531783
109	0x3dbc3e1b	0.09191533
110	0xbc3f7ff4	-0.011688221
111	0x3d85fff3	0.06542959
112	0x3cc21acd	0.02369442
113	0x3cdc9c41	0.026929976
114	0x3d42bb9b	0.047542196
115	0x3daf8a7f	0.08571338
116	0xbbbf446b	-0.0058370135
117	0x3d9a3715	0.07530037
118	0x3cb0f3a4	0.021600552
119	0xbd7dcc95	-0.061962683
120	0x3d953d04	0.072870284
121	0xbe0584f3	-0.13038997
122	0x3d0d28b9	0.034462664
123	0x39991500	0.0002919808
124	0x3d7f9602	0.062398918
125	0xbda1158d	-0.078654386
126	0xbdc7bc85	-0.09752754
127	0x3d294a7e	0.041330807
128	0x3dbd2c50	0.092369676
129	0xbb8c2632	-0.004277014
130	0x3da32d6d	0.07967649
131	0xbd9a8bb5	-0.07546178
132	0x3d147eb8	0.03625366
133	0xbe120c61	-0.14262535
134	0xbc917487	-0.01775576
135	0xbb18e948	-0.0023332406
136	0xbe11019c	-0.1416077
137	0xbda1c827	-0.07899504
138	0xb645cdbf	-2.9475048e-06
139	0x3dc97b93	0.09838023
140	0xbc9d50c1	-0.019203546
141	0xbd7992e6	-0.06093111
142	0xbdf92eb6	-0.121671125
143	0xbd4968b3	-0.049172115
144	0x3da5eb1c	0.08101484
145	0x3d989626	0.074505135
146	0xbde977c3	-0.11399796
147	0xbe0704b6	-0.13185391
148	0xbdc887f2	-0.097915545
149	0xbc499149	-0.012302705
150	0x3d3a0866	0.045418166
151	0xbdc5704b	-0.09640559
152	0x3c11a44b	0.008889268
153	0xbc1b9cb6	-0.009497812
154	0xbd88d70b	-0.06681641
155	0xbb53dde9	-0.0032328314
156	0xbd8dd6f8	-0.06925768
157	0x3d0cceb6	0.034376822
158	0x3d1491f1	0.036271993
159	0x3cc9f084	0.02465082
160	0xbcc7041d	-0.024293954
161	0x3d94d869	0.072678395
162	0x3befd299	0.0073188064
163	0xbd0c7b82	-0.034297474
164	0x3db1a0af	0.08673226
165	0xbd2d4c76	-0.042309247
166	0xbcfa64d3	-0.030565655
167	0x3d921aec	0.07134041
168	0x3d9f5706	0.0778027
169	0xbdae0389	-0.08496768
170	0x3d009511	0.03139216
171	0x3d5d66c5	0.054053087
172	0xbda917e3	-0.08256509
173	0x3dbd4573	0.09241762
174	0xbdaa95f9	-0.08329386
175	0x3c1b5795	0.00948133
176	0x3d9641b0	0.07336748
177	0x3dee0b1b	0.11623212
178	0x3dc231e5	0.09482173
179	0xbd4f677f	-0.05063581
180	0x3d2579c4	0.040399328
181	0x3de393c7	0.11112171
182	0x3d219c43	0.039455663
183	0x3d9b9da4	0.07598427
184	0xbdc5d63d	-0.09660003
185	0x3d1ff524	0.039052144
186	0x3d84639f	0.06464314
187	0xbcefc6a2	-0.02926952
188	0xbc45277c	-0.01203334
189	0xbbc086c3	-0.00587544
190	0x3de548eb	0.111955486
191	0x3c751bec	0.01496027
192	0xbd7db8df	-0.061943885
193	0x3d734ee8	0.059401423
194	0xbd60bf3b	-0.05486987
195	0xbd115641	-0.03548265
196	0xbd2b4fb2	-0.04182405
197	0x3d50ace6	0.05094614
198	0x3d8be46b	0.06830677
199	0x3d437f3c	0.047728762
200	0xbd509f81	-0.050933365
201	0x3a226eb7	0.00061963074
202	0xbd322f45	-0.04350211
203	0xbc92bf60	-0.01791352
204	0x3cee4ca0	0.029089272
205	0xbd8ce23e	-0.0687909
206	0x3dc5a27c	0.09650132
207	0x3dad39bd	0.08458278
208	0x3dc56f66	0.09640388
209	0xbcca3dda	-0.024687696
210	0xbdd09ca5	-0.101861276
211	0xbce11cb8	-0.027479514
212	0xbdc89cba	-0.09795518
213	0xbd7d2e0c	-0.06181149
214	0xbd8ce669	-0.06879885
215	0x3db61bf2	0.08892049
216	0x3e0c7edd	0.1372027
217	0xbd26d6fe	-0.040732376
218	0xbd066820	-0.032814145
219	0xbcccf3ea	-0.025018651
220	0x3ea772c4	0.32704747
221	0x3b94bcab	0.0045390925
222	0x3eb99dd1	0.36253217
223	0xbcf337f4	-0.029689766
224	0x3de7d649	0.113201685
225	0xbd268cb7	-0.04066154
226	0x3e04d7c0	0.12972927
227	0x3db91225	0.09036664
228	0x3d8a0f31	0.06741179
229	0x3d83fbce	0.06444512
230	0x3dac372c	0.08408961
231	0x3e83b6d6	0.2572543
232	0x3e306699	0.17226638
233	0x3dfcb6ec	0.12339577
234	0x3e7d8110	0.24756265
235	0x3c5a8a22	0.0133385975
236	0x3ce5cc63	0.02805156
237	0x3ddffdda	0.1093709
238	0x3da935b1	0.08262194
239	0x3d90eb75	0.0707616
240	0x3e0e8a66	0.13919982
241	0x3dad9030	0.08474767
242	0x3e10d651	0.14144255
243	0xbcff36f0	-0.031154126
244	0x3dc2e6c3	0.095166706
245	0x3d00c568	0.03143826
246	0xbc9ac20c	-0.018891357
247	0x3e21b31b	0.1579098
248	0xba614da9	-0.0008594641
249	0x3d7403c4	0.059573904
250	0x3df9047d	0.12159059
251	0x3d9b0818	0.07569903
252	0xbb6e0e0f	-0.0036324298
253	0x3dea1dbf	0.11431455
254	0x3e45eb60	0.1932807
255	0x3e0afdf6	0.13573441

weight_ih_l1 f4 [288, 72]
0	0x3dd90956	0.10597484
1	0x3cfc5669	0.030802922
2	0xbe14dc4e	-0.14537165
3	0xbd8b9204	-0.0681496
4	0x3dae0ef8	0.08498949
5	0xbcf6eb70	-0.030141562
6	0xbc61c55e	-0.013779966
7	0xbddc7dbc	-0.107661694
8	0xbdb1b235	-0.086765684
9	0xbd16db8d	-0.036830474
10	0x3d97babe	0.07408665
11	0x3d3e3728	0.04643932
12	0x3db151ea	0.08658202
13	0x3e1c50b0	0.15265155
14	0xbd865339	-0.06558842
15	0x3ce9d569	0.028544145
16	0xbe0cd53d	-0.13753219
17	0xbda6089c	-0.08107111
18	0xbd76ebd8	-0.060283512
19	0x3dd2e9c1	0.10298491
20	0x3d1be9e7	0.038064864
21	0xbd8fadcf	-0.07015573
22	0xbd9a8728	-0.0754531
23	0xbcdd4b40	-0.027013421
24	0x3defa94a	0.11702211
25	0xbdb8ae2e	-0.09017597
26	0x3d852d80	0.06502819
27	0x3d89baf2	0.0672511
28	0x3df1fb96	0.11815564
29	0x3d9731bd	0.07382534
30	0x3d98eb96	0.074668095
31	0x3c8801e2	0.01660246
32	0xbd572d5c	-0.052533492
33	0xbdb3e1bd	-0.087832905
34	0x3bf59b1a	0.007495296
35	0xbdc1662d	-0.094433166
36	0xbd2f0f1a	-0.04273901
37	0x3e00eb70	0.12589812
38	0x3cd2575b	0.02567642
39	0xbd06c82d	-0.032905746
40	0xbe090225	-0.13379724
41	0xbcba6eee	-0.022757974
42	0xbd65e643	-0.056127798
43	0xbc936ab9	-0.017995225
44	0x3db43605	0.08799366
45	0xbde5981e	-0.11210655
46	0xbd0180f2	-0.031617112
47	0x3de2b640	0.11069918
48	0x3c7ad098	0.015308522
49	0xbc17b752	-0.009260016
50	0x3c7f0fc3	0.015567723
51	0x3dd4aabb	0.10384127
52	0xbca46347	-0.02006687
53	0xbe008dbf	-0.12554072
54	0x3c6f43be	0.014603553
55	0xbd75de38	-0.060026377
56	0xbdc29a4e	-0.095020875
57	0x3c17912e	0.009250922
58	0xbdc422ce	-0.09576951
59	0xbde7e469	-0.11322863
60	0x3dec458b	0.11536702
61	0x3dd4fea7	0.104001336
62	0xbcaeffe0	-0.021362245
63	0xbd6a5a0b	-0.057214778
64	0xbd0b7a17	-0.03405198
65	0xbdd90988	-0.10597521
66	0xbd63d40a	-0.055622138
67	0xbdbf309f	-0.093354456
68	0x3d3cb172	0.046067663
69	0x3cab98cd	0.020946885
70	0x3c534c76	0.012896648
71	0x3d12f5bb	0.035878878
72	0x3e38dd69	0.18053211
73	0x3de247d7	0.110488586
74	0x3b9cb20c	0.004781967
75	0xbdf222e8	-0.11823064
76	0xbe51a488	-0.2047292
77	0xbb28f058	-0.0025778022
78	0xbde04ba8	-0.1095193
79	0x3c7e1a71	0.015509234
80	0x3dcfa141	0.101381786
81	0x3de0fad7	0.10985344
82	0xbcd57ea0	-0.026061356
83	0xbc8f7904	-0.01751376
84	0x3c45997a	0.012060517
85	0x3e257609	0.16158308
86	0x3e21fc8b	0.15818994
87	0xbe63ae0b	-0.22234361
88	0x3cc44352	0.023957882
89	0xbd20b2a0	-0.03923285
90	0x3da2932b	0.07938226
91	0x3d0a2bb4	0.033733085
92	0x3da2d28d	0.079503156
93	0xbd077b4d	-0.033076573
94	0xbdabc17e	-0.08386515
95	0x3ddc3c04	0.107536346
96	0xbe0a65ec	-0.13515443
97	0xbe4e5465	-0.20149381
98	0x3e0d1fe5	0.13781698
99	0xbc39ad70	-0.011332855
100	0x3d9e12ce	0.077184305
101	0xbd932a93	-0.07185855
102	0xbe31aa7b	-0.1735019
103	0x3d46242e	0.048374347
104	0x3d069ca1	0.032864217
105	0x3d058d31	0.032605354
106	0x3c80e10d	0.015732313
107	0xbda97f3f	-0.082762234
108	0xbde58902	-0.11207773
109	0x3e18a293	0.14905767
110	0x3e48bfdc	0.19604439
111	0x3d8ae848	0.067825854
112	0xbca1a02f	-0.019729702
113	0x3d10eefb	0.03538416
114	0x3e3ef5f8	0.18648517
115	0x3ccad6c4	0.024760611
116	0x3df8fd79	0.12157721
117	0xbd778fb2	-0.060439773
118	0xbd886039	-0.06658978
119	0xbe111af7	-0.14170443
120	0x3c34a03c	0.011024531
121	0xbe0f4e9e	-0.13994834
122	0xbd1eeeff	-0.038802143
123	0x3dac4f2f	0.084135406
124	0x3e166ba3	0.14689498
125	0xbda453b1	-0.08023775
126	0xbd84d95c	-0.064867705
127	0x3cd2d3d0	0.025735766
128	0x3cdbc2db	0.026826313
129	0xbd6499f5	-0.055810887
130	0xbd0da71b	-0.034583192
131	0xbccda645	-0.025103698
132	0xbca83616	-0.020533603
133	0xbc34c7d7	-0.011033974
134	0xbdd2fa40	-0.10301638
135	0x3e439ec5	0.19103535
136	0xbdb69acc	-0.08916244
137	0x3d75cce1	0.06000984
138	0xbe06e7e2	-0.13174394
139	0x3d54e057	0.05197176
140	0xbb8a183e	-0.0042143157
141	0xbdf8221c	-0.12115881
142	0xbe1edfd1	-0.15515067
143	0x3dbe7dfa	0.09301372
144	0x3d994437	0.07483714
145	0xbd7538e3	-0.059868705
146	0xbb99d4ad	-0.0046945424
147	0xbde47562	-0.111552015
148	0xbe1242a9	-0.14283241
149	0xbbeb4380	-0.0071796775
150	0x3c7e842c	0.015534442
151	0x3c5f546e	0.013630969
152	0x3d2ec4ca	0.04266814
153	0x3dee0d1c	0.11623594
154	0xbdc63f76	-0.09680073
155	0x3d74284e	0.05960875
156	0x3da9e4db	0.08295604
157	0xbd775e2a	-0.060392536
158	0xbd7a8240	-0.061159372
159	0xbd85202b	-0.06500276
160	0x3df2605c	0.11834785
161	0xbb9ca544	-0.0047804434
162	0x3d2496cb	0.04018287
163	0x3d99ced2	0.07510151
164	0xbda30140	-0.07959223
165	0xbc5d9ee8	-0.013526656
166	0xbdd35d16	-0.10320489
167	0x3c33e552	0.010979967
168	0xbd8bae09	-0.06820304
169	0xbe36274c	-0.17788428
170	0x3d3c4b90	0.0459705
171	0x3d066eb0	0.032820404
172	0x3dafc841	0.08583117
173	0x3ba5f045	0.0050640428
174	0x3cc92feb	0.024558982
175	0x3e1902f8	0.14942539
176	0x3e18c2e9	0.14918102
177	0x3df24dc0	0.11831236
178	0x3dd5281c	0.10408041
179	0xbc3dcef8	-0.01158499
180	0xbd6ab90a	-0.057305373
181	0x3d0acb9a	0.033885576
182	0x3e0c260b	0.13686387
183	0x3dd8b235	0.10580865
184	0xbd20c294	-0.039248064
185	0xbba32db1	-0.004979812
186	0x3c1b0a19	0.009462857
187	0xbd53d381	-0.051715378
188	0x3e1af0dc	0.15130943
189	0xbd2b2c08	-0.04179004
190	0x3d92c06c	0.07165608
191	0xbd83f787	-0.064436965
192	0xbc805761	-0.015666666
193	0xbdeef8e4	-0.11668566
194	0xbe14b597	-0.14522396
195	0x3a3672f2	0.0006959877
196	0x3cbb70bd	0.022880906
197	0xbd78cdcb	-0.060743134
198	0xbda344c1	-0.07972098
199	0x3b81ea93	0.003964731
200	0xbdaa806a	-0.08325274
201	0xbccb0dbd	-0.024786824
202	0xbd562b8d	-0.052287627
203	0x3daf74ca	0.085671976
204	0x3dec3433	0.11533394
205	0xbe10a426	-0.14125118
206	0xbddd0596	-0.10792081
207	0x3e519fbf	0.20471095
208	0xbc1997c5	-0.009374564
209	0x3d17e8f6	0.037087403
210	0xbdffe01c	-0.12493917
211	0x3ce2d4cb	0.027689358
212	0xbcfe016e	-0.031006541
213	0x3bca361a	0.006171
214	0x3cd18adc	0.025578909
215	0x3df6569f	0.120282404
216	0x3d8ad317	0.067785434
217	0x3db5fecc	0.08886489
218	0xbde73cf9	-0.112909265
219	0x3d14da38	0.036340922
220	0xbcddb4f4	-0.027063824
221	0xbcc2ff8c	-0.023803495
222	0x3cecd47e	0.028909918
223	0xbd3f8774	-0.046760038
224	0xbd97c02c	-0.07409701
225	0xbe05eadb	-0.13077872
226	0xbde353b7	-0.11099952
227	0x3e06c98e	0.13162825
228	0xbdcc2062	-0.09967114
229	0x3da211b1	0.079135306
230	0xbcd4f02c	-0.02599343
231	0x3c76c678	0.015061967
232	0x3d07d506	0.03316214
233	0xbd2a1d1e	-0.041531675
234	0x3e0a949e	0.13533255
235	0x3d770eef	0.060316976
236	0xbd5a5e62	-0.053312667
237	0xbe0a094c	-0.13480109
238	0x3d8516fe	0.06498526
239	0x3e4572b8	0.19282043
240	0xbd4d71de	-0.05015742
241	0x3b0ff35d	0.0021965124
242	0x3dfcc357	0.123419456
243	0x3cd8c636	0.026461702
244	0x3e1ba576	0.15199837
245	0x3d880778	0.066420496
246	0xbd139bad	-0.036037136
247	0x3cf58d75	0.029974679
248	0x3e05b8e9	0.13058819
249	0x3d877821	0.0661471
250	0x3d9fc695	0.078015484
251	0xbd2bf16a	-0.041978277
252	0x3d6b2562	0.057408698
253	0x3e1b3768	0.15157855
254	0x3cc0bcfd	0.023527617
255	0x3d884ee0	0.06655669

weight_hh_l1 f4 [288, 72]
0	0xbd6e0dd7	-0.058118667
1	0xbd6f4106	-0.05841162
2	0x3d25d7d7	0.040489044
3	0x3dc9ab98	0.09847182
4	0xbe056d7e	-0.13030049
5	0x3db78e01	0.08962632
6	0xbcb94e53	-0.022620356
7	0xbd0878ea	-0.033318438
8	0xbc201fdf	-0.009773224
9	0xbdee4328	-0.11633903
10	0xbd9ab781	-0.07554532
11	0x3d397aad	0.04528301
12	0xbcccbde2	-0.024992887
13	0x3dd9afa7	0.10629206
14	0x3d957d08	0.072992384
15	0xbdf6d8dd	-0.12053082
16	0x3d326c97	0.04356059
17	0xbd42ee82	-0.04759074
18	0x3dc4f6a2	0.09617354
19	0x3de22613	0.11042418
20	0xb9caf6bb	-0.0003871227
21	0xbdcf0000	-0.10107422
22	0x3c84db85	0.016217956
23	0x39a71833	0.00031870752
24	0x3d1f1a6c	0.038843557
25	0xbc135919	-0.0089934105
26	0x3d7e1c3d	0.06203865
27	0xbdced2ae	-0.10098778
28	0xbc431fee	-0.011909468
29	0x3c84cdf1	0.016211482
30	0x3da6480d	0.08119211
31	0xbc16cd9f	-0.009204297
32	0x3dab97f1	0.0837859
33	0x3d4e2609	0.050329242
34	0xbe188331	-0.14893796
35	0xbe025d4a	-0.127309
36	0x3d7f4733	0.06232376
37	0x3dd7a42f	0.105293624
38	0xbda81821	-0.08207727
39	0xbd238435	-0.039921004
40	0x3d986e00	0.07442856
41	0x3c82c169	0.015961366
42	0xbdcd8fd9	-0.100372024
43	0xbd57c7b4	-0.052680686
44	0x3cdfb718	0.027308986
45	0x3d1a8545	0.037724752
46	0x3de17223	0.11008098
47	0xbd8560ca	-0.06512602
48	0xbd8b36db	-0.06797572
49	0xbcf41fcb	-0.029800316
50	0xbd821dbb	-0.06353327
51	0x3d918d8c	0.07107076
52	0xbc130d12	-0.008975284
53	0xbd7d98b0	-0.061913192
54	0xbdd0dfd2	-0.1019894
55	0x3da43442	0.0801778
56	0xbc07773e	-0.008268176
57	0xbc644e1f	-0.013934641
58	0x3d80e092	0.062928334
59	0xbd89ecdd	-0.06734631
60	0xbe011b5d	-0.12608095
61	0x3dca5264	0.09878996
62	0x3ce7acbd	0.02828061
63	0x3d4290c2	0.047501333
64	0xbda6a57d	-0.08137033
65	0x3c018497	0.007905147
66	0x3db157eb	0.08659347
67	0x3cf30b42	0.029668454
68	0xba98e9bc	-0.0011666338
69	0xbdfc5d9f	-0.12322544
70	0x3db79c84	0.089654
71	0x3d8f9c24	0.07012203
72	0xbdb151d8	-0.086581886
73	0xbda92789	-0.08259494
74	0xbda7c562	-0.08191945
75	0x3d24326e	0.040087156
76	0xbdb99d5f	-0.09063219
77	0x3dedcd6f	0.11611449
78	0xbda85ad5	-0.0822045
79	0xbd11aaf1	-0.035563413
80	0xbd593c83	-0.053036224
81	0x3b81b990	0.0039588884
82	0x3b78374c	0.0037874756
83	0x3da1ae37	0.07894557
84	0x3dff1334	0.124548346
85	0xbd5dc265	-0.054140467
86	0x3e05186f	0.12997602
87	0xbdd8c502	-0.10584451
88	0xbe10b5a5	-0.14131792
89	0x3d15bdb3	0.036557864
90	0xbdbe42b6	-0.09290068
91	0x3deb4f91	0.114897855
92	0x3e02adb0	0.12761569
93	0xbc2740f3	-0.010208356
94	0xbe1572ef	-0.14594625
95	0x3d2b79e3	0.041864287
96	0xbd36c9cd	-0.044626046
97	0x3dc51a81	0.09624196
98	0xbc5baed5	-0.013408382
99	0xbc267a7b	-0.010161038
100	0xbccf461e	-0.02530199
101	0x3cb0fa30	0.021603674
102	0xbd38fd2b	-0.045163315
103	0xbdf69b94	-0.12041393
104	0x3ba632c0	0.005071968
105	0x3da7c243	0.08191349
106	0xbde52347	-0.11188369
107	0x3cb5c45b	0.022188356
108	0x3cb62c30	0.022237867
109	0x3dd69ba1	0.104789026
110	0x3cb9e53c	0.022692315
111	0x3d92d680	0.07169819
112	0x3d4cb878	0.04998061
113	0xbdc8baf9	-0.09801287
114	0xbc6381ae	-0.0138858985
115	0xbddf41a1	-0.109011896
116	0xbc48a238	-0.012245707
117	0xbd69e388	-0.057101756
118	0x3d968a3b	0.07350584
119	0x3d80efbc	0.06295726
120	0x3de4392b	0.111437164
121	0x3d75768c	0.05992751
122	0xbbff33ca	-0.007788156
123	0xbd3d49f2	-0.046213098
124	0x3e126ed7	0.14300095
125	0x3d6a0247	0.057131078
126	0xbc025be5	-0.00795648
127	0x3c332472	0.010933982
128	0x3d76d767	0.060264017
129	0x3cd1346b	0.02553769
130	0xbd971ffa	-0.07379146
131	0xbc8a8e63	-0.016913598
132	0xbd91c0ba	-0.07116838
133	0xbc1e1cfa	-0.009650463
134	0xbdb9a4df	-0.0906465
135	0xbda1a256	-0.07892291
136	0xbd5a7d3b	-0.053342085
137	0xbe0c9f4a	-0.13732639
138	0x3e0df155	0.13861592
139	0xbd75c8c6	-0.060005926
140	0x3dc9cc4e	0.09853421
141	0xbd5beeaa	-0.053694405
142	0xbd4db6cd	-0.05022316
143	0xbdde2325	-0.10846547
144	0x3dbec847	0.093155436
145	0xbd5d3ac8	-0.054011136
146	0x3ddde069	0.108338185
147	0xbd3d14bf	-0.046162363
148	0x3c8ebc00	0.01742363
149	0x3cc0067f	0.023440598
150	0xbd910439	-0.070808835
151	0xbd87e7e2	-0.06636025
152	0x3da7ca35	0.08192865
153	0x3d72aba8	0.059245735
154	0x3dc784c9	0.09742124
155	0x3cd1aad9	0.025594162
156	0xbc9dc3b2	-0.019258354
157	0xbd0551ee	-0.032548837
158	0xbda218af	-0.07914864
159	0xbe0debbd	-0.13859458
160	0xbdfe8041	-0.12426806
161	0x3d95b51b	0.07309934
162	0xbe0c06b7	-0.13674437
163	0x3d623d31	0.055234138
164	0xbd0ec2c7	-0.034853723
165	0x3d19f786	0.037589572
166	0xbdd75a8c	-0.10515317
167	0xbd5131f8	-0.051073045
168	0xbcbebd06	-0.023283493
169	0x3c48410f	0.012222542
170	0xbdb7ea00	-0.08980179
171	0xbd724535	-0.059148032
172	0x3d94ce0f	0.07265865
173	0xbdc10794	-0.094252735
174	0xbdd2b2a7	-0.102879815
175	0xbe1202c1	-0.14258863
176	0x3e034969	0.12820973
177	0x3d57e3c9	0.052707467
178	0xbcabb6bd	-0.02096116
179	0xbe1c29c4	-0.15250307
180	0x3de45875	0.11149684
181	0x3dc18a7c	0.09450242
182	0xbdd1e06e	-0.10247885
183	0x3ca58a94	0.02020768
184	0xbd0c913f	-0.034318205
185	0x3cdaaa46	0.02669252
186	0xbd87c871	-0.06630028
187	0xbd0b98e2	-0.034081347
188	0xbcbec80d	-0.023288751
189	0xbd13d537	-0.03609201
190	0x3dbbfeab	0.091794334
191	0xbe06fef6	-0.13183197
192	0x3d198587	0.037480857
193	0x3c1471f3	0.009060371
194	0x3d96ad20	0.0735724
195	0xbdb62bb4	-0.088950545
196	0xbd78faf6	-0.06078621
197	0x3d772c26	0.060344838
198	0x3d116ae7	0.03550234
199	0x3db45aff	0.08806419
200	0x3dbcc396	0.092169926
201	0x3d967020	0.07345605
202	0xbd462f3b	-0.048384886
203	0xbca52fe8	-0.020164445
204	0x3d90f8e5	0.07078723
205	0xbdf21fbd	-0.1182246
206	0xbe02051e	-0.12697265
207	0xbd62d217	-0.05537614
208	0x3cc9b108	0.024620548
209	0x3d77044a	0.060306825
210	0xbc717c38	-0.014739089
211	0x3c761b6f	0.015021189
212	0xbcd4de98	-0.025985047
213	0x3ce21927	0.027599884
214	0xbdafcd2d	-0.08584056
215	0xbd2eacd0	-0.042645276
216	0x3d855441	0.06510211
217	0xbe0993db	-0.13435309
218	0x3de8e3f3	0.11371603
219	0xbdd21e81	-0.102597244
220	0xbd3345b4	-0.043767646
221	0x3e82109f	0.25403306
222	0xbd4eff7d	-0.05053662
223	0xbdd4ed81	-0.10396863
224	0xba4a51b1	-0.00077178614
225	0xbdf7c429	-0.120979615
226	0xbe22fde9	-0.15917172
227	0xbcb58a39	-0.022160636
228	0xbd52cd5a	-0.05146537
229	0x3a0030cb	0.0004890083
230	0x3d479ede	0.048735492
231	0xbdba9a28	-0.09111434
232	0x3d997f60	0.07494998
233	0xbe69b0a3	-0.22821288
234	0x3b983d19	0.0046459553
235	0x3c955830	0.018230528
236	0x3dc2499e	0.094866976
237	0x3c634172	0.013870584
238	0xbe4729d9	-0.19449557
239	0x3e1a80aa	0.15088144
240	0x3e76ad14	0.24089462
241	0xbe3478e2	-0.17624238
242	0xbdaecafa	-0.085348085
243	0xbd264f71	-0.040603105
244	0xbd8ae7b8	-0.06782478
245	0xbcd91d80	-0.026503325
246	0xbe130ab8	-0.14359558
247	0xbe7e5799	-0.24838103
248	0x3e1e1434	0.15437394
249	0xbdeda309	-0.11603362
250	0x3d9a2355	0.0752627
251	0xbe50ddb7	-0.20397078
252	0xbd434b49	-0.04767922
253	0x3db0c89b	0.086320125
254	0xbd15fdf3	-0.036619138
255	0x3e20ca51	0.15702178

bias_ih_l1 f4 [288]
0	0x3d3dbd34	0.046323016
1	0xbca6e192	-0.020371232
2	0x397975dd	0.00023790398
3	0x3dd72e79	0.10506911
4	0x3d379a2e	0.04482477
5	0x3d9a7a43	0.07542851
6	0xbd5ef370	-0.05443138
7	0xbd07a75d	-0.033118594
8	0xbd409f42	-0.04702688
9	0x3d95b7dd	0.0731046
10	0x3de9e615	0.11420838
11	0x3cf8b341	0.030358912
12	0x3e1a19d8	0.15048921
13	0x3dd07d0f	0.10180103
14	0x3d53de1d	0.051725496
15	0x3cbbd13c	0.02292692
16	0xbced4e8d	-0.02896812
17	0xbc5b14b6	-0.013371637
18	0x3e4572aa	0.19282022
19	0xbd38a02e	-0.045074634
20	0xbc7838c8	-0.015150256
21	0x3d87f1e9	0.066379376
22	0x3da92176	0.08258335
23	0x3dc42dc2	0.0957904
24	0x3d264490	0.04059273
25	0x3e0f0e0b	0.139702
26	0x3d234512	0.039860792
27	0x3ced8436	0.028993707
28	0x3dc42526	0.09577398
29	0x3d6d0c00	0.057872772
30	0xbd693208	-0.05693248
31	0x3d20e628	0.039281994
32	0x3d52882e	0.051399402
33	0x3d7f940e	0.062397055
34	0x3d718854	0.058967903
35	0x3d5608f1	0.05225462
36	0xbd3f8bf9	-0.046764348
37	0x3e68fd25	0.22752817
38	0x3df6c1cc	0.120486826
39	0x3dc7d1d5	0.09756819
40	0x3d7ab8c9	0.06121138
41	0xbcf622a3	-0.030045813
42	0x3e08d0c5	0.1336089
43	0xbc9955c6	-0.018717658
44	0xbd8a215c	-0.06744644
45	0x3e26148c	0.16218776
46	0x3e37b93f	0.1794176
47	0x3dc82c87	0.09774118
48	0xbc044629	-0.008073368
49	0x3dc9ab10	0.09847081
50	0x3db217aa	0.0869592
51	0xbd24964a	-0.04018239
52	0xbdab1774	-0.08354083
53	0x3d59c8ec	0.05317013
54	0x3d51addb	0.051191192
55	0x3c51f871	0.012815581
56	0x3dd9bbd5	0.10631529
57	0x3d6172b1	0.05504102
58	0x3e0da4ac	0.13832349
59	0x3da19b1d	0.07890914
60	0x3dc92cd2	0.09823002
61	0xbd8b2c96	-0.067956135
62	0x3db403a3	0.08789756
63	0xbd8f30de	-0.069917426
64	0x3d8e9660	0.069622755
65	0x3df7a170	0.12091339
66	0x3cf358a7	0.029705359
67	0xbce06ba4	-0.027395077
68	0xbdaec97a	-0.08534522
69	0x3e015841	0.12631322
70	0xbc9c0738	-0.01904641
71	0x3d84e1c5	0.064883746
72	0x3cbf1bd5	0.023328701
73	0xbc116ce7	-0.008876062
74	0xbda6377d	-0.08116052
75	0xbd3ebf01	-0.046568874
76	0x3d55eddd	0.052228797
77	0x3c2f3487	0.010693676
78	0x3dc1f927	0.0947135
79	0xbd007660	-0.03136289
80	0xbd524ce3	-0.051342856
81	0x3d6e521d	0.058183778
82	0xbdd246c3	-0.10267403
83	0xbd9fc12f	-0.07800519
84	0xbd7a17ab	-0.061057728
85	0x3de4378c	0.11143407
86	0xbdca1ef8	-0.09869188
87	0xbc9af271	-0.018914433
88	0xbde964a4	-0.11396149
89	0xbc424f02	-0.011859657
90	0x3ca2f177	0.01989053
91	0x3dd3cd8c	0.10341939
92	0xbc8e4321	-0.017365994
93	0x3d94d8fe	0.072679505
94	0x3d9894f4	0.074502856
95	0xbd150823	-0.036384713
96	0xbc0393ad	-0.008030814
97	0x3c0286ab	0.007966678
98	0xbe245089	-0.16046347
99	0x3db852b4	0.09000149
100	0x3c99884c	0.01874175
101	0x3c70d64f	0.014699533
102	0x3dac0135	0.08398668
103	0xbd858191	-0.065188535
104	0xbc8dbbbf	-0.017301438
105	0xbdac1c17	-0.08403795
106	0x3d4c7b50	0.049922287
107	0xbde801a1	-0.11328436
108	0x3db3a9d0	0.087726235
109	0xbda2de95	-0.079526104
110	0x3aedd896	0.0018146213
111	0x3d866042	0.065613285
112	0x3dda5cdd	0.106622435
113	0xbd98dacc	-0.07463607
114	0x3cb07710	0.021541148
115	0x3d6fb54a	0.0585225
116	0x3d891f1c	0.06695387
117	0xbdc0a2d5	-0.09406058
118	0xbdff1ce3	-0.124566816
119	0xbe089209	-0.13336958
120	0xbda78af6	-0.081808016
121	0xbe076436	-0.13221821
122	0xbd2b8286	-0.041872524
123	0xbd93b5b7	-0.07212394
124	0xbdebfeaa	-0.11523183
125	0x3b8ccb42	0.004296691
126	0xbd229519	-0.03969297
127	0xbb02c4d0	-0.0019953735
128	0xbd214d9f	-0.039380666
129	0xbcd9c627	-0.026583744
130	0x3dcf5925	0.10124425
131	0xbd8910a6	-0.066926286
132	0x3da8e608	0.08247
133	0x3d3e612b	0.046479385
134	0xbdaf8dbc	-0.085719556
135	0x3d991691	0.07475007
136	0x3d67768e	0.056509547
137	0xbcac54ee	-0.021036591
138	0xbdf4d640	-0.119549274
139	0x3de5bb89	0.1121741
140	0xbda8447c	-0.08216187
141	0xbdc43bee	-0.09581743
142	0xbc5240ff	-0.012832879
143	0xbdc2d05f	-0.095124
144	0xbd9d3d1e	-0.07677673
145	0xbdc08a3a	-0.094013646
146	0x3c144f0a	0.0090520475
147	0xbdcd2345	-0.10016493
148	0xbdf0d329	-0.117590256
149	0xbc62398c	-0.013807666
150	0xbc286c02	-0.010279657
151	0xbe05fa8c	-0.13083857
152	0x3cfcf8cf	0.03088036
153	0xbd8c7636	-0.068584844
154	0xbd8b5e50	-0.06805098
155	0xbc4fe8b7	-0.012689761
156	0xbdae7dc7	-0.08520084
157	0x3db151a1	0.086581476
158	0x3bb170f7	0.005415078
159	0xbdaac53e	-0.08338402
160	0x3cc5b5cd	0.02413454
161	0xbb93fb8c	-0.0045160707
162	0x3d3f074e	0.046637826
163	0xbd43b59c	-0.047780618
164	0xbdbd84b7	-0.09253829
165	0xbdd2aabb	-0.102864705
166	0xbd9efdd5	-0.07763258
167	0xbb6c63d7	-0.0036070251
168	0x3e103b63	0.14085154
169	0x3ddc9290	0.10770142
170	0xbd8f1365	-0.06986121
171	0xbd34b693	-0.04411943
172	0x3cbdfd20	0.023191988
173	0x3dbc9e08	0.092098296
174	0xbdcdc875	-0.10048
175	0xbda13da5	-0.07873086
176	0x3d1e5150	0.038651764
177	0xbc82f9e0	-0.01598829
178	0xbcb36811	-0.021900209
179	0xbda9eb56	-0.0829684
180	0xbd9d759a	-0.07688446
181	0x3d121c2f	0.03567141
182	0x3d20eb68	0.039287
183	0x3dc40c0f	0.095726125
184	0xbb310cc5	-0.0027015668
185	0xbc51360f	-0.012769236
186	0xbd47724d	-0.04869299
187	0xbd54fe9a	-0.05200062
188	0x3d78030b	0.060549777
189	0x3d1829fc	0.037149414
190	0x3cf62e17	0.030051274
191	0xbd8fd650	-0.07023299
192	0xbd97a7c7	-0.07405048
193	0xbd86c0a8	-0.06579715
194	0xbd825b95	-0.06365124
195	0x3cff3100	0.031151295
196	0x3d30e16a	0.04318372
197	0x3c89e0c4	0.01683081
198	0xbd0e21ad	-0.034700084
199	0xbd411b33	-0.04714508
200	0x3da8c8e8	0.08241445
201	0x3da210f8	0.07913393
202	0x3d7d345c	0.061817512
203	0x3c9b2e42	0.018942956
204	0x3de3bc1e	0.11119865
205	0x3dc65aca	0.096852854
206	0xbdceef83	-0.10104277
207	0xbcadecf5	-0.021231154
208	0xbdc7aef9	-0.0975017
209	0xbddb4a16	-0.1070749
210	0x3d366026	0.044525288
211	0x3d392bd3	0.04520781
212	0xbc98f720	-0.018672526
213	0x3d8ff376	0.07028858
214	0xbcdfb9f4	-0.027310349
215	0x3d04fba5	0.03246655
216	0x3e0afcf6	0.1357306
217	0x3d8c9450	0.06864226
218	0xbc97ce55	-0.018531004
219	0x3db120e1	0.08648849
220	0x3d56e3ac	0.05246322
221	0xbd9b237e	-0.07575129
222	0x3e1bf832	0.15231398
223	0x3c8fe1b2	0.017563675
224	0x3de2d449	0.110756464
225	0x3dbd3d0b	0.09240159
226	0x3cccfbe4	0.025022455
227	0xbccb9630	-0.024851888
228	0x3e016252	0.12635162
229	0x3d96fc00	0.07372284
230	0x3e4a3db2	0.19750097
231	0xbdeda259	-0.11603231
232	0x3dbcb6e8	0.09214574
233	0x3d92a405	0.071601905
234	0x3de040c9	0.10949857
235	0x3db4bfb3	0.08825626
236	0x3d9dbf5d	0.07702515
237	0x3d6cf124	0.057847157
238	0x3d1fdd94	0.039029673
239	0x3c0f6972	0.008753167
240	0xbcf2d7cb	-0.029643914
241	0x3db369e5	0.08760432
242	0x3e7ce769	0.24697651
243	0x3d777d09	0.060421977
244	0xbd8e323d	-0.06943176
245	0x3d4737f3	0.04863734
246	0x3da7e0b4	0.081971556
247	0x3dcf0dee	0.10110079
248	0x3c678564	0.014130924
249	0x3df6eb9c	0.12056658
250	0x3dcf84ff	0.10132789
251	0xbd89a2f2	-0.067205325
252	0x3daaf7a5	0.08348016
253	0x3e0e5088	0.13897908
254	0xbda524b4	-0.08063641
255	0x3d5f859e	0.054570787
