LSTM_spread_forecasting/models/LSTM_DGX_MTD.pth (torch, 427511 bytes, 13 tensors)

weight_ih_l0 f4 [288, 1]
00000000: 608f cfbc ef5c d1bd 24f1 193e ccb9 03bd
00000010: 9ee8 103e a5ab 1d3d d13d 493d 5902 f43d
00000020: c787 04be 49a8 ccbd c584 dabd a80d 633b
00000030: 2585 a63c 6c13 71bd 7bc6 dfbd 28ba 88bd
00000040: 45f0 503e ca26 20bc 9f07 9bbd c2d8 bc3d
00000050: 527a 233d f590 2b3e 2537 3b3c ee62 723d
00000060: 07ee 12bd 199c 0a3e 299f c9bd b726 8c3d
00000070: b32d 5c3c b3c1 fb3c f7b8 5abc d9f7 b43d
00000080: a188 93bc 5907 ba3d 5018 383d a574 92bd
00000090: 397c 353d 07d5 d63d c06c 013e be82 6dbd
000000a0: 1308 bcba c5e8 283d 2955 4fbd 939c f3ba
000000b0: 9dbf 613d 7a28 243e 7318 9d3d ee4b 4dbd
000000c0: 01cb fe3d aa6d 7e3d 2959 33bc 2a66 2c3e
000000d0: a5a5 47be 7071 b73b 34cf 4cbd ab86 15bd
000000e0: 8993 fdbd 81f3 d93d a103 a3bc 5262 ccbd
000000f0: bf1c c53d 2013 bbbd 6d68 fa3c 6e62 1abe
00000100: c64c 883d 057e 1d3e c60b 33bd 32b8 0a3c
00000110: a7a3 f53d 2442 40bd 50c6 18bd 0802 0bbd
00000120: a1f4 c83c 82bd 78bc 42fc 973d 00e0 153e
00000130: 6bbb b53d cfb8 903d bed0 8abd 6bca 1a3e
00000140: 30df e5bd 39a8 20be 9f79 cdbc d5eb 6d3d
00000150: 73d9 f9bc a87b 003e 7142 bdbd 0c8c fcbd
00000160: d88a 19bc 4076 1abd 077c 6bbd 2ce9 a53d
00000170: 762b 223d 1707 983c a158 03be 819b a3bd
00000180: 64c2 b93d 8545 293c e3ac 01be 0657 f8bc
00000190: c9db fc3d e05e cf3c 04b1 133c 8513 58bd
000001a0: 4154 a23d eecf 56bb 7b2a 093e eddb 1ebe
000001b0: cfee c1bd 7b5b 303d ac23 153e 6713 3abe
000001c0: 779a 50bd f0e0 babd ae15 2c3d 8406 153d
000001d0: b763 a13d f35c 163e 11b9 cf3d 6cf1 d8bd
000001e0: 5b8c 9abd e46d 31bc c337 bf3d 5473 2b3e
000001f0: 475c 423c 915f a9bd bc6f a5bd 89e0 723b
00000200: d06b acbd 461b 4c3c 4b96 15be 6239 48bc
00000210: 147e 09be 3387 eabb 9917 823d 2bde 6dbc
00000220: 4140 02be 5fef bc3d 743b 31ba dd2d 953d
00000230: 3b8d 633d 3a38 873d 44d7 51be 08cd 66bc
00000240: b26a 5fbd d96d 61be 8b86 ff3d d2e2 823d
00000250: 4521 d8bd ec9e bcbd 490c 173e 5ed7 f9bd
00000260: 25f5 00be 535c 07be 2c36 033e 8a51 80bd
00000270: 6610 01be 68bc 853d dd58 e03d b2dd bb3d
00000280: f921 b6bd 86ff 10be 4162 12be c2e0 133e
00000290: 2c22 e83d 6f6f 1dbe 8df7 133e 70ff 10bd
000002a0: 91b5 1a3e 9609 c13d 91c0 d6bd ae49 2f3e
000002b0: 9c2f 4b3e 68f6 063e 5f84 24be 8f47 36be
000002c0: cefa fe3d 7987 253e c53b a73d 8579 2a3e
000002d0: 7d38 24bb e7da 42be 9dd0 1d3e f837 7d3d
000002e0: 4bc2 30be 1f64 563e 374e febd 9258 f93d
000002f0: 8096 73bd 1554 993d c9c0 6bbd 4088 483e
00000300: fb2b f7bd 1ce5 323e fed5 543d a0c3 483e
00000310: 870f afbd e3d5 033e f5b9 06be 1423 213e
00000320: f04c edbd 3558 503d f35c 86bb 06a4 1abe
00000330: 79bc 22be ef7f 38be b679 1cbe 35b8 14be
00000340: 90c1 123e 6cbc abbd 40bf eb3d 060a 24be
00000350: 74bc f7bd 1497 333e e4f1 c13d 70f6 3f3d
00000360: 9bf4 683c 8108 2abd cc98 263e e8b4 383e
00000370: 8f05 6f3e 9d2f 7d3d 706d 3f3d 021e ef3d
00000380: 2e5e afbb 79b0 04be 4225 fbbd 8dd5 bbbd
00000390: 8d6a 793c 4f45 eb3c f098 7cbd dbf1 29be
000003a0: 9c5b 463d 9246 30be 3f12 aebd bd73 8e3d
000003b0: 90bb fc3a 5bf5 843e 95ab 12be 6b2b f2bd
000003c0: 09ef cc3d 51cf 7e3d 6b4f 3dbd 4f88 b73c
000003d0: 9f32 673e 2ca9 a63d 811a 9f3d 37df 773a
000003e0: d603 a93d a92a b73d ff8f 873d 4839 c4bd
000003f0: 2921 20bc 148c e03d 1b93 3e3e 8ee9 4dbe
-0.025336921 -0.10222804 0.15033394 -0.03215961 0.14151236 0.03849377 0.04913122 0.1191451
-0.1294242 -0.09993035 -0.10669855 0.003464559 0.02032716 -0.058856413 -0.10926529 -0.066761315
0.20404156 -0.009774873 -0.07569813 0.09221031 0.039911576 0.16754515 0.011426722 0.059176378
-0.03587153 0.13536109 -0.098448105 0.06843322 0.01343863 0.030732011 -0.013349763 0.08836336
-0.018009486 0.09083433 0.04494506 -0.071511544 0.04430792 0.104898505 0.12639141 -0.057986014
-0.0014345668 0.04123761 -0.050618324 -0.0018586091 0.055114377 0.16031066 0.07670679 -0.05012124
0.12441064 0.062116303 -0.01094655 0.16835847 -0.19496782 0.0055982396 -0.05000229 -0.036505383
-0.12381656 0.10642148 -0.019899191 -0.099796906 0.096246235 -0.09134507 0.030567372 -0.1507661
0.06655268 0.15380104 -0.0437124 0.008466767 0.11994105 -0.046938077 -0.0372985 -0.033937484
0.02453071 -0.015181901 0.07421161 0.1463623 0.08873638 0.070664994 -0.06778096 0.15116279
-0.1122421 -0.15689172 -0.025082408 0.058086235 -0.030499196 0.12547171 -0.09241188 -0.12331399
-0.009371482 -0.03771043 -0.05749133 0.08101115 0.03959223 0.018558068 -0.12826778 -0.079886444
0.0907028 0.010331516 -0.12663607 -0.030314934 0.12346608 0.025313795 0.009014372 -0.05275299
0.079262264 -0.0032777744 0.13395111 -0.15513583 -0.09469377 0.043055993 0.14564389 -0.18171464
-0.05092856 -0.09124935 0.042012863 0.036383167 0.07880347 0.14683895 0.101427205 -0.105929226
-0.07546302 -0.010829423 0.093368076 0.16743213 0.011862821 -0.08270181 -0.08077952 0.0037060103
-0.08419001 0.012457674 -0.14608113 -0.012220712 -0.13427001 -0.0071572303 0.06352157 -0.014518301
-0.12719823 0.09225344 -0.00067608734 0.07284138 0.05555461 0.06602521 -0.20492274 -0.014086969
-0.054545112 -0.2201456 0.12476834 0.06390919 -0.10553221 -0.092099994 0.1475078 -0.12199281
-0.12593515 -0.13218813 0.12813634 -0.06265552 -0.12603912 0.06530076 0.10954449 0.091731444
-0.088931985 -0.14159974 -0.14295293 0.14441207 0.11334643 -0.1537454 0.14449902 -0.035399854
0.15108325 0.094256565 -0.10485948 0.1711795 0.1984238 0.13179934 -0.1606612 -0.17800735
0.12450181 0.1616496 0.08165697 0.16647919 -0.0025058084 -0.19028817 0.15411611 0.061820954
-0.17261617 0.2093663 -0.12417262 0.121750966 -0.0594697 0.074867405 -0.0575569 0.19583225
-0.120689355 0.17470211 0.05196189 0.19605875 -0.085478835 0.1287456 -0.13156874 0.15736037
-0.1158694 0.05086537 -0.004100436 -0.15101632 -0.15892209 -0.18017553 -0.15280804 -0.14523394
0.1433165 -0.08385548 0.115110874 -0.16019449 -0.120964915 0.175381 0.09469965 0.04686588
0.014218475 -0.041512016 0.16269225 0.1803776 0.23341964 0.061812986 0.046735227 0.116756454
-0.0053518033 -0.12957944 -0.12262966 -0.09171591 0.015223158 0.028719572 -0.06166929 -0.16596167
0.04842721 -0.1721442 -0.08499574 0.06955669 0.0019281972 0.2596844 -0.14323266 -0.118246876
0.1000653 0.06220943 -0.046218317 0.022403864 0.22577904 0.08137736 0.07768727 0.0009455564
0.08252685 0.08943684 0.06619262 -0.09581238 -0.009773531 0.10964218 0.18610804 -0.20108625

weight_hh_l0 f4 [288, 72]
00000000: 43b2 183e a028 edbb 7c23 1abb bbc8 0fbd
00000010: b64f eebd 1288 e43c 6ed9 c9bc 234a dcbc
00000020: f45b 59bd 64e0 c0bd b737 043e 84e9 d0bc
00000030: 90fa 9dbb 625a 393d 63b2 58bc 52d3 9e3d
00000040: 8557 a2bc 0e37 e3bd 5666 bcbd 7c43 903d
00000050: 4e5f 7fbd 0d35 04be 1eca 25bd 4447 013d
00000060: 864b f43d f276 25bd e46e 84bd d27b 8e3d
00000070: e70e f13c 16a8 863d 6193 0abd ec59 66bc
00000080: ef91 4e3d 66b2 bc3d adda ee3c 0adc a53d
00000090: d6e4 dcbd 54ae 523c 8db3 013d 6598 62bd
000000a0: 3a0b 883d 610d 413d 922f 8fbd 5200 1f3d
000000b0: 0ee1 f5bb 6660 8bbc 7906 b5bd 2988 8c3d
000000c0: 6e92 d23d c86e 9d3d 3a42 f23d c174 913d
000000d0: ffae 9b3d 655c 0b3d e104 f1bc faeb 613c
000000e0: 4433 9ebd 9c21 8bbd 9f02 9f3c 7058 29bd
000000f0: d04e e8bd db2e 7fbc 8aa8 a53d 1752 bebd
00000100: 1221 3bbd 6e17 11be ea3c 2cbd 6ad5 f33c
00000110: 2c33 d7bb cab9 5d3c 020d 9ebd e5dd 32bd
00000120: 100a 233e 5066 2b3e c9c4 0c3e 0fe5 903e
00000130: 15fe 9dbe 111f 14be bed0 e3bd b3b4 25be
00000140: 086b 8f3d 2846 183e 94c1 5abb a80a 173e
00000150: d8b3 18bd acc6 313e edff 2cbd 1944 42be
00000160: 1ebc 9bbe d912 f93d 7091 123e 24eb 893d
00000170: ada8 793d bf4c 8bbe 426b 79bd 4314 903d
00000180: 83bc 4d3e 7684 9a3e 4e70 9ebd b781 613d
00000190: cfa4 f83d 492b 8ebe c4dc e93c 27c8 e4bd
000001a0: 1432 1f3e c577 a13d 5823 4ebe 06c2 b6bd
000001b0: 8a0b 3cbe ac1a 94bd fa7b 4e3e ad61 26be
000001c0: 9cb9 80bb e302 f2bd e90b 433e 82dc 183e
000001d0: 8fb5 7ebe 7cd9 263e 3cad 54be 2a13 35be
000001e0: b9f4 133e 7098 233d 4884 653e 1209 6a3e
000001f0: 83d9 803d 580a 783d e84e b4bd 520b 18bd
00000200: 780d 2d3e 8611 3f3e a45e 5abe a9a6 a33d
00000210: c9c0 89bd 6014 95bd 0eb7 37b9 fe7b 403d
00000220: 95b3 99bc 6819 e3bd ce1c 9b3d cef9 b5bc
00000230: 2b96 e4bd 1d02 213d 64c2 57bd 89dc 22bc
00000240: c0aa 8bbb b88a d13c 7752 6d3d f6ee 203e
00000250: 79c3 29bd adb4 9dbd 1693 a9bd bfc4 063d
00000260: 7393 363e 1ecc 2c3e d931 54be 0c4a 3d3e
00000270: 11a3 69bd 24b8 343d a308 07be 2659 82be
00000280: 8f71 e73c 1375 193e 04c7 0d3e 4fe9 a23c
00000290: 9966 f43b a6ff 4dbd e5c1 a0bd 9eb1 223e
000002a0: 6ee4 273e 1da5 113e a76d 0abb d888 a53d
000002b0: 6456 9d3d ebb0 3cbe 90b5 74bd d4b6 6e3d
000002c0: c1d2 113d 9101 b63d 8c39 57bd 7cd4 4ebe
000002d0: d3c9 b7bd 3b4a 6fbc c3d7 9ebc 4b83 7fbd
000002e0: 3d32 2c3d 2dfc a0bd 7184 0e3e a5f5 44bc
000002f0: d012 03be cc72 813d 3630 3dbd 5daa 1abe
00000300: 1ae4 f83d ab84 c33d b308 5e3d e24f 163e
00000310: 2154 573e 70e3 12be d5a6 b23d 0f33 cabd
00000320: f824 f63d bda9 423e 148d 98bd 234d db3d
00000330: b1b4 193e 4678 163e 7d75 043e e426 513e
00000340: e2a4 e7bc c039 85bd 2e39 92bd 59f1 bd3d
00000350: ad5c b8bb df02 16bd 5f96 0dbe 1b22 4fbe
00000360: 2194 c6bd d1aa e73d 5b30 a23d 7aed 55bc
00000370: f50b c43c 7eb9 0ebe 31b4 c1bd c4c3 17bd
00000380: 48a0 0ebc b8a4 333c 4439 ba3d a207 1d3e
00000390: d076 04be d734 eb3d ba94 4c3d ae7e 01be
000003a0: 246b 4d3d 9faf aabd e2c6 c33d d1ec ec3d
000003b0: a097 4cbd d3bd b63c cda9 f63c 2391 9cbc
000003c0: d223 053d 8ea4 e23d 8ae8 8f3c a08c 1abd
000003d0: 62c9 a83d 0e7c bdbd fd87 1d3d a7ae aabc
000003e0: 8ad6 e43d 90f2 f33d 084f e7bd ba89 f53c
000003f0: 7429 85bd ec7a 1cbd d08e c03d dd3f 1bbd
0.14911751 -0.007237509 -0.0023519685 -0.03510354 -0.116362974 0.027896915 -0.024639811 -0.02689082
-0.05306621 -0.09417799 0.12911879 -0.025501974 -0.004821129 0.04525221 -0.013226124 0.0775515
-0.019817123 -0.11094485 -0.091992065 0.070441216 -0.06234675 -0.12910862 -0.040475957 0.031562105
0.119284675 -0.04039664 -0.06466463 0.069572106 0.029426051 0.065750286 -0.033831958 -0.014059525
0.050432142 0.09213714 0.029157007 0.0809861 -0.107858345 0.012858946 0.031665374 -0.055321116
0.06642766 0.0471319 -0.06991495 0.038818665 -0.0075036353 -0.01701374 -0.08839125 0.06861908
0.102818355 0.076871455 0.11829038 0.07102347 0.07601737 0.03402366 -0.029421272 0.013789171
-0.07724622 -0.0679352 0.01941043 -0.041344106 -0.11343157 -0.015575136 0.08088787 -0.09293001
-0.045685835 -0.14169094 -0.04205028 0.02976485 -0.0065673795 0.013533065 -0.07717325 -0.043668646
0.15921807 0.16738248 0.13746943 0.28299758 -0.30857912 -0.14464976 -0.11123799 -0.16182213
0.070028365 0.14870512 -0.0033379542 0.14750159 -0.037280887 0.17360944 -0.042236257 -0.1897129
-0.3041696 0.12161798 0.14313293 0.06734303 0.060951877 -0.2720699 -0.060893305 0.070351146
0.20091443 0.30179185 -0.07736264 0.055055346 0.1214081 -0.277674 0.028547652 -0.111709885
0.15546447 0.07884172 -0.2013067 -0.08923726 -0.18363777 -0.0723165 0.20164481 -0.16248198
-0.0039283764 -0.11816957 0.19047512 0.14927867 -0.24873947 0.16293901 -0.20769209 -0.17683092
0.14448823 0.039940298 0.22413743 0.22855023 0.06291487 0.06055674 -0.08804113 -0.03712017
0.16899669 0.18659028 -0.21325165 0.07990772 -0.06726224 -0.07279277 -0.00017520433 0.04699325
-0.01876239 -0.1108883 0.075738534 -0.022213843 -0.11161455 0.039308656 -0.05267562 -0.009940275
-0.0042622983 0.025578842 0.057939973 0.15716156 -0.041446183 -0.07700477 -0.082800075 0.032902475
0.17829685 0.1687474 -0.2072214 0.18485278 -0.057040278 0.044120923 -0.13186888 -0.2545864
0.028252391 0.14986067 0.1384545 0.01988664 0.0074585197 -0.050292633 -0.078494824 0.15888068
0.16395733 0.14223142 -0.0021122487 0.080827415 0.07682493 -0.18426864 -0.059743464 0.058279827
0.03560138 0.088870175 -0.052545115 -0.20198244 -0.08974042 -0.0146051 -0.019389993 -0.06238107
0.0420401 -0.07860599 0.1391771 -0.012021457 -0.12800145 0.06320724 -0.046188556 -0.15104051
0.12152882 0.09546789 0.054207515 0.1467891 0.21028186 -0.14344573 0.08723227 -0.0987302
0.1201877 0.19010063 -0.074487835 0.10708072 0.15010335 0.14694318 0.12935443 0.20424992
-0.028276864 -0.065051556 -0.071398124 0.09274549 -0.005626282 -0.03662383 -0.13826893 -0.20227854
-0.09696222 0.113118775 0.07919379 -0.013057107 0.023931483 -0.13937947 -0.09458197 -0.03705193
-0.008705206 0.010964565 0.09092954 0.15334943 -0.12935948 0.11484688 0.049946524 -0.1264598
0.050151005 -0.08334278 0.09559418 0.11568607 -0.04994929 0.022307312 0.030110264 -0.019112175
0.032504864 0.110665426 0.017566938 -0.037731767 0.08241536 -0.09252177 0.038459767 -0.020835234
0.111737326 0.119114995 -0.11294371 0.0299729 -0.06502047 -0.038203165 0.09402239 -0.0379027

bias_ih_l0 f4 [288]
00000000: fcc3 b6bd 0aa2 f43d dfba c63d 84e4 07bd
00000010: 909f 093e 474a 88bd 5ef3 a23e bd04 3a3e
00000020: d41d 4d3d 0aad 6a3d 817e a63d 744a bd3d
00000030: 3e51 cb3c 0682 883d 8c8b c83d d953 d03a
00000040: 9633 52bc 70b6 103e 4184 b23c 15b8 d43d
00000050: b981 2abd 05c8 ce3c b740 fd3d 6806 98bd
00000060: 6760 e73d 3351 af3d 767b a7bd ce89 653e
00000070: 33ff 4e3e 7a33 93bd 9206 d83c 389d 5a3e
00000080: ef84 103e 8df5 9c3d d620 a23d dd8a 9c3d
00000090: c169 a5bd 7193 eb3d 3502 66bc 21e6 acbc
000000a0: e68b 253e 8c1a 043e 0500 a33c 7703 df3d
000000b0: b70f e03d e233 2cbd d529 1cbc 1b2e 683d
000000c0: 6102 163e 56ff 393e 93d2 a83d 036f 3d3d
000000d0: f842 1dbd 9872 373c 79cc 803e 9bad 1e3e
000000e0: b0be b93d 1921 fe3d 7dfd e93d a267 043c
000000f0: e583 5e3c 545d 503e bc2a 563d 3862 67bc
00000100: 59ce 203e 7e3f 093d bad0 1e3c 5078 223e
00000110: c0bd 2a3e 5d0b 5bbc 088f d93c 2668 2fbb
00000120: 4f08 0b3e e838 30bd 2dba 9ebc 95f2 a83d
00000130: 1e71 ef3d 08b4 cebc 9964 b7bd 439a 903d
00000140: e541 26bd 81c6 9bbd 9efb 843d 546b 553d
00000150: dad1 083c 23a5 c83d ea12 a93d fb14 4fbc
00000160: b772 aebd 5b36 603d 2ef1 2bbd a760 9dbd
00000170: 8cc9 093b 1528 c2bd 7df4 193d a251 823d
00000180: 7c1f f23c 5047 693c bdff 753d 0683 eb3b
00000190: 6a9a 04be c23e c9bd 8c20 0e3d 8428 e8ba
000001a0: 45a8 443d 57f8 a13b d967 253d b378 7abc
000001b0: 0a16 c43c ea69 51bc 8b74 c5bd cd98 44bd
000001c0: d7a2 0abe e7aa f5bd dbce 03bd ec84 5fbd
000001d0: 44fa 0d3e a71c dfbc 1f07 4ebd b28c 0bbe
000001e0: c8db 80bd aff8 84bc 5980 123e 32fc b7bd
000001f0: 6c21 3fbd 9dd6 603d 3d10 92bd 7e40 ab3d
00000200: a4a9 513d 3f2e fa3d 7bd6 a83d 75fd dbbc
00000210: 8cc6 21bd c5de abbd 383f d9bd 73b4 733d
00000220: 3efe 7bbd de97 27bd 7629 583d c5b1 05be
00000230: 8784 f13c 3ef3 3f3d f8d8 d13d 84b4 563d
00000240: dd6f a83d 08ae 303d b0e0 e4bd 2187 553d
00000250: 013d c1bd bfc7 8abd 1bc7 26b9 b545 2cbc
00000260: adb8 cc3d c0f5 e73d c7bc 41ba ce26 ed3d
00000270: 8cf2 9e3d be95 2c3d a6cd c7bd 1f94 e4bc
00000280: 8e24 95bd 8f51 453d 9b11 7abc a07d e03c
00000290: b25b d73c d9c4 a3bc c0f9 903d d7f5 8ebd
000002a0: 548b 963d f76f 873b abf0 b6bd c29f 5dbd
000002b0: 4da0 b63d 97b7 6dbd 2101 b4bc 84c1 143d
000002c0: 5c0a 9b3d 9113 953d edaa c6bd c502 8c3d
000002d0: 1e96 fabd bc4c b8bd 58d9 a4bd 9cc7 c1bd
000002e0: 9255 ea3c 2ec6 e83d 6591 b1bd fcce 693d
000002f0: bd22 8dba 3ed8 e93d 796c 8abd 89e9 4d3d
00000300: 4de0 173d 5671 cbbd ec1c 123d c494 0d3d
00000310: abca eb3d d838 ab3d 07a1 cdbd c133 fb3d
00000320: 5c8e 893c 2a84 ec3d 1b93 bcbd 0388 8c3d
00000330: 73af 843d 3a03 253c 3f19 fbbc b97d eb3d
00000340: 1cd6 793d 7645 e13b 8966 213d e7ba a73c
00000350: d947 e6bd e172 debc ad31 35bd a8d6 b1bd
00000360: 685e e7bc 6d1b 793e b3b5 ba3d d6d1 c33d
00000370: b40c 9e39 86b4 f93c 31bb 953e 1329 3d3e
00000380: f384 50bc d34b 033d 6357 0c3d 6b52 bdbd
00000390: c190 c23c 04b4 6d3d f9d8 1e3d 475b f53d
000003a0: 77a0 7abb f275 6a3d 44da 173e 0d29 5a3d
000003b0: 2b27 e5bc b2f1 743d 5856 2a3e 5040 433d
000003c0: 842a 653d 30e6 93bd 8e46 813d 584c 423e
000003d0: 54ab 9a3d 9574 bcbc 7a2a 043e 6834 693e
000003e0: 10ee 8f3d 27bf 1c3e d140 223c 9b8f 6d3c
000003f0: 82c2 703d 8528 e23d 373f 963d 7348 82bd
-0.089241 0.11944969 0.097036116 -0.033176914 0.13439775 -0.06654792 0.318263 0.1816587
0.050077274 0.05729393 0.081295975 0.092427164 0.024819013 0.06665425 0.097922415 0.0015894129
-0.012829682 0.14132094 0.02179158 0.10386673 -0.04162762 0.025241861 0.12365859 -0.07423097
0.11297684 0.085604094 -0.08177845 0.2241585 0.20214538 -0.07187553 0.02637032 0.21349037
0.1411321 0.076640226 0.07916419 0.076436736 -0.080768116 0.115027316 -0.014038612 -0.021105828
0.16166648 0.12900752 0.01989747 0.10889333 0.10940497 -0.042041667 -0.009531458 0.056684595
0.14649345 0.18163809 0.08243289 0.046248447 -0.038393945 0.011196755 0.25156 0.15495913
0.09069574 0.124086566 0.11425302 0.008081349 0.013581251 0.20348102 0.05228685 -0.014122538
0.15703715 0.033507816 0.009693319 0.15866208 0.16673946 -0.013369408 0.02655746 -0.0026764958
0.13577388 -0.04302302 -0.019375885 0.08249394 0.11691497 -0.02523233 -0.08954734 0.07060673
-0.040590186 -0.07606221 0.06493305 0.05210431 0.008350814 0.09797122 0.08255561 -0.0126392795
-0.08517974 0.054739337 -0.041978054 -0.076844506 0.0021024672 -0.09480301 0.037586678 0.063632265
0.029556029 0.014238194 0.060058344 0.00718725 -0.1294953 -0.09826423 0.034699008 -0.001771227
0.048012037 0.0049429345 0.04038224 -0.015287566 0.02393629 -0.0127816 -0.096413694 -0.047997285
-0.13538681 -0.11995488 -0.032179695 -0.054570124 0.13865 -0.027235342 -0.05029976 -0.1362789
-0.0629192 -0.016231863 0.14306773 -0.08983649 -0.046662733 0.05489217 -0.071320035 0.0836191
0.051187173 0.12215852 0.08244034 -0.026854256 -0.03949599 -0.08392099 -0.10607761 0.05949826
-0.06152176 -0.040916316 0.052773915 -0.13056095 0.02948214 0.046862833 0.10246462 0.052418247
0.08224461 0.04313472 -0.11175668 0.052130822 -0.09435464 -0.0677638 -0.00015905166 -0.010514666
0.099961616 0.1132617 -0.0007390496 0.11579667 0.07761106 0.042134993 -0.09756021 -0.02790266
-0.07282363 0.048173483 -0.0152629865 0.027403653 0.02628884 -0.019991325 0.07078886 -0.06980484
0.073507935 0.0041332203 -0.089326225 -0.054107435 0.08917294 -0.058036413 -0.021973195 0.036317363
0.07570335 0.072791226 -0.0970057 0.06836466 -0.12235664 -0.08999011 -0.080492675 -0.094619006
0.028605256 0.11365925 -0.0867031 0.05708216 -0.0010767799 0.11418198 -0.06758971 0.050271545
0.037079144 -0.099337265 0.035672113 0.034565702 0.11513265 0.083604515 -0.10040479 0.12265731
0.016791515 0.11548646 -0.09207746 0.0686188 0.06478777 0.01007157 -0.030651687 0.11498589
0.060995206 0.0068747355 0.039404426 0.020474864 -0.112441726 -0.027154388 -0.044236828 -0.086835206
-0.028243259 0.24326868 0.091166876 0.095615074 0.00030145573 0.030481588 0.29244378 0.184727
-0.01272701 0.032054733 0.034263026 -0.092442356 0.023750665 0.058033004 0.03878114 0.119803004
-0.0038242617 0.057241388 0.14829355 0.053261805 -0.027972778 0.05980081 0.166345 0.047668755
0.05594875 -0.07221639 0.06312285 0.18974435 0.075522095 -0.02300481 0.12906829 0.22773898
0.07027829 0.15307294 0.009903149 0.01449957 0.058779247 0.11042885 0.07336276 -0.06361475

bias_hh_l0 f4 [288]
00000000: c13c bd3d e6fb f23d d177 233e 45fd d23d
00000010: 7f10 283d 6546 ab3c 0187 8a3e c13c 683e
00000020: 5503 2a3e e87a c33c df93 1c3e 7470 55bd
00000030: 6b0d 8e3b 2d77 ae3d 5e64 c3bc 9420 84bc
00000040: 8ded 1ebd 0203 9a3d eed3 8a3d ba83 f03d
00000050: ef3f f93d 6765 c53d 8033 71bc 10a6 893d
00000060: 317b 883d 5af1 bebb d3fc 03bd 7c0e aa3e
00000070: 8269 383e e90b 813d e418 e33d e1d3 463e
00000080: 9e15 14bd 69f0 e4bc 4fa0 abbc 3118 383d
00000090: feb2 6dbd d24f 833e 299e 253e ae57 d7bc
000000a0: 9685 123d 4f42 7d3e ae17 4f3e 237e ec3d
000000b0: aeb4 873d 5a78 653d 2ba1 17bd 7797 233e
000000c0: e24f 263e 30b1 783e f6b9 1a3d 77bd 893d
000000d0: 827e 973d 8d7d b1bd 621e 863e bf3e 853e
000000e0: fa25 803d ce8a 873d 7f79 123e fb61 9b3d
000000f0: 203d 233e 8f82 bf3d da35 293e 8a28 173e
00000100: 5b74 053e ab53 003e 6429 ee3d b608 1c3e
00000110: 8c05 1d3e 98fe 84bd 2b5f 613d d0e7 87bd
00000120: e4fa 9d3d 0501 16be 6d66 4abd 591c 5f3c
00000130: 8693 34b7 bcc8 3e3d 2cb2 19bd f573 a3bd
00000140: 1f96 3ebd ad3e c9bd 1489 9e3c bd47 103d
00000150: f090 fdbd ff5e 073e 87ad 683c d930 df3d
00000160: 4b7b 0a3c dab7 553b 6838 e1bd 0ad7 cabd
00000170: 8ede 19bd 691c 8ebd 207e debc 33f4 a6bd
00000180: 6d50 6e3d a46d 483c ad8d 133d d6f4 87bc
00000190: 625a 813c 7b0c c13d 9141 8c3d 10c8 f739
000001a0: 4e4c b13d 9e68 18bd 6b3f 083d 1e39 0fbd
000001b0: 05fd aa3d 763a b639 986b b93d 9d4f b0bd
000001c0: ccf6 20bd 622f 95bc 6d4a 073e b6d5 91bd
000001d0: ddde 08bd c2f8 d23d 31e4 73bc eaad 1ebd
000001e0: 57ea b83d fda5 873b 1d63 293d 20e8 803d
000001f0: 9c26 f33c 2c32 a43d 294d a53d e77f 913d
00000200: 60fe 3b3c 72c9 693d df6e 5f3d d93c 913d
00000210: daf2 10be 803c a2bd 83a3 ba3d fcbd c33d
00000220: 5c0e 983d bc04 9c3d 6e79 9d3d aaed b03d
00000230: a705 013d 7642 dfbc 97a1 a53c 8da2 783c
00000240: 42dd 75bd 7da3 2a3c cb4d b73d 8e20 fc3d
00000250: e0b0 84bd 1fd4 dc3d 1421 12bb c7c8 fbbc
00000260: 56ee 9e3d 0ae7 533d 35df 4dbd 92cf 443d
00000270: 4cb0 e1bc 0272 82bd 85c0 e7bc ea4a 9c3c
00000280: 57f3 03be 68c4 3b3d 3f47 c93d cbf5 923d
00000290: 7a91 cc3c f17a debc db78 2cbd 0051 e13d
000002a0: 5232 e53d 7737 a73d c5a4 413d 3ef7 b03d
000002b0: 4545 d23d 72c7 95bd 2189 c83d 6934 c2bd
000002c0: d5dc 273d 0958 a03d 7561 e9bd 6b3b d5bd
000002d0: d1b1 d6bd e929 653d 4dcc bb3d c74f 5bbd
000002e0: d6f4 55bc 8871 4dbd d178 103d 5507 af3d
000002f0: cc42 fabd f469 35bc ad4d 6bbd b821 f4bc
00000300: 01a5 99bd 1eba 953d dd58 093e 0742 843c
00000310: 5d34 be3d c66b b7bd e684 a83b 8714 c5bd
00000320: 0e85 e23b 92ae 803d d7a1 e63b c0a6 8fbd
00000330: 97a2 1abd c207 573c cd3d 7f3d a986 a2bd
00000340: 65da e4bd bec7 bcbd acc2 adbc 608e c5bd
00000350: 760c 60bd 7e80 1d3d 74a8 ddbd d839 b53c
00000360: f729 213c 8199 7a3e aa8d 013e 860b 7b3d
00000370: f13f 93bd b057 bf3d baca 853e 8719 e63d
00000380: 8d75 153d 47ed a7bd 9c02 3e3d 109d 003e
00000390: e10c c03c 1912 433d e51a 79bd 2923 e3bc
000003a0: 42e5 7abd 5083 6d3d ca66 ed3c f2b8 943d
000003b0: e155 743c 3ec3 11bd c3a7 093d 6e9a 9ebd
000003c0: 3711 4fbc 5b16 ca3d 2398 f63d 34af 943e
000003d0: d5f3 213e 81ce d33d 1f4c 663d d291 283e
000003e0: 0609 60bd ee29 473e 125c c1bd e680 e93c
000003f0: 2040 cc3d a382 163e 489d 203c f7c1 8abc
0.092401035 0.11864452 0.15963675 0.103022136 0.041031357 0.02090759 0.27056125 0.22679426
0.16602834 0.023862317 0.15290783 -0.052109197 0.0043350956 0.08518825 -0.02385157 -0.016128816
-0.038800765 0.07520105 0.06778704 0.11743875 0.121703975 0.096384816 -0.014721751 0.06721127
0.06664122 -0.005827111 -0.032223534 0.33214176 0.18008998 0.063011 0.11088732 0.19416763
-0.03615343 -0.027946668 -0.020950465 0.044944946 -0.05803203 0.25646836 0.16173615 -0.026286926
0.03577193 0.24732326 0.20223877 0.11547496 0.06626259 0.05602298 -0.037018936 0.15975748
0.1624141 0.24286342 0.037775002 0.06725591 0.07397176 -0.08666525 0.26195055 0.26024434
0.062572435 0.06618272 0.1430416 0.07587048 0.15941286 0.09351074 0.16524449 0.14761558
0.13032667 0.12531917 0.116289884 0.15237698 0.15334147 -0.064938724 0.0550224 -0.066360116
0.07713869 -0.14648826 -0.049414087 0.013617598 -1.0763184e-05 0.046578154 -0.037523434 -0.079811014
-0.046529885 -0.098264076 0.019352473 0.035224665 -0.1238116 0.13219832 0.014201528 0.10897989
0.008452247 0.0032610805 -0.10997087 -0.09904297 -0.03756576 -0.069390126 -0.02715975 -0.08152046
0.05818217 0.012233172 0.036023784 -0.016596239 0.015790168 0.094262086 0.06848443 0.0004726057
0.08657132 -0.037209146 0.033263605 -0.03496658 0.08349041 0.00034757302 0.09053725 -0.08608935
-0.039297864 -0.01821107 0.13211985 -0.0712084 -0.033415664 0.10301353 -0.014885948 -0.038740076
0.09029072 0.0041396604 0.041354287 0.06294274 0.029681496 0.08017382 0.08071358 0.071044736
0.011474222 0.05707688 0.054549094 0.07091684 -0.1415514 -0.07921696 0.09113219 0.09557721
0.07424614 0.076180905 0.076891765 0.08639081 0.03149953 -0.02725337 0.020218654 0.015175474
-0.06002546 0.010414955 0.08950385 0.12310897 -0.06479049 0.107826464 -0.0022297548 -0.030735387
0.07760303 0.051734008 -0.050261695 0.048049517 -0.027549885 -0.063694015 -0.028290043 0.01907869
-0.12885796 0.045841604 0.09828042 0.071757875 0.024971712 -0.027158232 -0.042107444 0.11001778
0.111912385 0.08164876 0.047276277 0.08640908 0.10267118 -0.07313432 0.0979178 -0.09482653
0.040982086 0.078292914 -0.113955416 -0.10411724 -0.104831345 0.05594817 0.09169827 -0.05354288
-0.013058862 -0.0501571 0.03527147 0.0854632 -0.12219772 -0.0110726245 -0.057447124 -0.029801235
-0.07502175 0.0731089 0.13412805 0.016144766 0.09287331 -0.08956103 0.005142796 -0.09623056
0.006912834 0.06283297 0.007038336 -0.07014227 -0.037752714 0.013124408 0.062314797 -0.07935841
-0.11174468 -0.09217785 -0.02121099 -0.096462965 -0.054699384 0.038452618 -0.108231455 0.022122309
0.009836665 0.2447262 0.12651697 0.061290286 -0.0718993 0.09342897 0.2613123 0.11235338
0.03648906 -0.08199554 0.046389207 0.12559915 0.023443641 0.04762468 -0.060816664 -0.027726727
-0.061253794 0.057986557 0.028979678 0.07261838 0.014913053 -0.035586588 0.033607256 -0.07744299
-0.012638382 0.09867545 0.120407365 0.2903992 0.15815671 0.10342122 0.05622494 0.16461876
-0.054696105 0.19449589 -0.09441389 0.028503846 0.099731684 0.14698271 0.009803124 -0.016938193

weight_ih_l1 f4 [288, 72]
00000000: de8a da3d 2b06 82bd 683c 133e 7110 abbd
00000010: b20e 9b3d a382 563d dca6 013e bc17 223d
00000020: 77cd c8bd a86b a73d 6bd1 a93d ad42 3d3d
00000030: b303 b8bd d134 4dbd f74d ef3b 0670 fc3c
00000040: 63c3 063d cd2c 3bbd 0a4f 54bd e111 a13d
00000050: 4915 e53c dc31 e0bd 0995 99bc 0ee6 593d
00000060: c11f 4c3d de22 51bd b335 0bbd 71ea 0f3e
00000070: 28aa 9dbd 0230 24bd 8a92 f1bd 9e27 bdbd
00000080: 1ab2 553c 8c5a 3f3d 9410 d13d 1959 b43d
00000090: 54f8 4f3a 37e9 383d 2b21 22bd cc6c a7bc
000000a0: 5912 cebd d76d 2bbd b2ae cc3c be7a e03d
000000b0: dc26 6f3d 188f 72bd 2925 3e3d 5827 43bd
000000c0: 377b e7bd e08a 1c3e 7bb9 a2bd b8a0 be3d
000000d0: b900 94bd fe22 bdbd a55d 31be 39ab b33d
000000e0: f412 9bbd 879f 8fbd f176 b53d 0cb9 b93d
000000f0: 8383 03be b38a 8cbd aa2d 8ebd b403 c2bd
00000100: ced2 27bd bc0a 04bc 49a9 893b 8c47 aebd
00000110: 7dfb febd 58b1 d33c 3498 dabd b5ec 5ebd
00000120: 106c 96bd 93b8 523d 7384 7c3d 4b1a 9e3d
00000130: 9c8d 0e3d 816b 46bc 9e24 aabd 7653 b33d
00000140: 9eec 13bd 9403 ba3c 0484 da3d 628d 40bd
00000150: 5250 42bd 97c6 0ebb adc7 083d ea74 943c
00000160: e383 0dbd a382 d83d 1692 40bd 6f76 063d
00000170: c377 c6bd aeb4 09bd 3d2a d2bd aac7 94bc
00000180: 742c bf3d 950f 563d ec20 10bd e8fa 95bd
00000190: f66e ca3d e210 053d 81e1 8eba 76aa 8fbd
000001a0: b5c6 c7bd 53ef ce3d f599 073d 1668 3f3c
000001b0: 4652 75bd 74c0 81bd 01f1 4aba 56c2 eabd
000001c0: 88d3 15bd b417 dbbd d38a ae3d e62f 95bd
000001d0: 008e 06be 11cd 4dbd 25d1 8dbc d7cd acbd
000001e0: 5028 1ebd df9b b0bd cfa2 4ebd a156 d83b
000001f0: 1d36 9fbc 30a2 35ba ef17 f6bd d889 8fbd
00000200: a841 fdbc 25e6 8e3d b6d5 273d fa6c e33d
00000210: 692f afbd 78ac 523c c3ca 783d c289 663d
00000220: e542 523d 42a2 77bd 19c3 df3c 221a d7bd
00000230: 035f a8bd 0087 9fbc 00fd 54bd c126 7ebd
00000240: 70ff c13d 0a01 05bd 35e3 743c 3393 b9bc
00000250: 0c02 a33c ce13 a43d 2962 97bd 8778 9f3d
00000260: 3db0 9f3d cf3a 98bb eb2b 8dbd 2462 803d
00000270: b4c9 7ebd 5e93 34bc b19d d2bd 508c eb3c
00000280: 5728 303d b2ee 23bd 4336 423d 78b5 debc
00000290: 4f74 09bd 1a1a 273d 83b8 8fbb e53e 153d
000002a0: b066 8b3d 2256 6bbc dd0d acbc 2073 2abe
000002b0: 032d a7bb 67ec 04be e935 ffbc cd0f 7d3c
000002c0: 8a2e 80bd de59 e7bd fd30 bebc 09c0 ccbd
000002d0: 7684 643d 6382 4dbd b213 a7bd b32a 03bd
000002e0: 6131 e63c 4e34 423c 6394 603c 34b6 0d3a
000002f0: 189f 90bd a95c e9bd d98c 5aba 824b 873d
00000300: 3561 1a3e 652e 3a3d 8e42 973d 81b3 be3d
00000310: 8a18 8ebd 7015 b3bc 7db2 c73d 6393 a03d
00000320: 7730 f3bc 6af1 fb3c c036 91bc bdde 893d
00000330: 6468 9f3c d692 6d3d 24a5 de3d 9805 4ebd
00000340: e107 febc 41c8 fdbd c673 96bc a45f 0d3c
00000350: 6f11 073e 12de b9bd 4bc1 cabd 8c4a 70bd
00000360: 3529 84bd d4db 853c 3aaa 88bc 3153 093e
00000370: 44e9 8c3d 5f39 c2bd 9cde 193e ba1a 0cbe
00000380: 9d3f 873c cc92 babd b089 803d 274c 043e
00000390: e4c0 21be 5efc 983d 86c9 a8bd 69d1 893b
000003a0: a54c a13d d536 b73d ddc7 90bd 74c3 a83d
000003b0: 340d 8c3d 6a51 cfbd 18a5 e13d c34c c3bd
000003c0: 5f5a 23bd ef57 523d 1a94 98bd c065 f43d
000003d0: 5dbb 6d3d f772 67bd a3d6 c3bd 3951 18bd
000003e0: 2db8 a73d eb9d 55bd ee94 6fbc 37a7 0e3d
000003f0: a8df 743d 6a99 1ebd a7e4 30bd 29c1 72bd
0.10671018 -0.06348833 0.14378512 -0.08352745 0.07571162 0.05237068 0.12661308 0.039573416
-0.09804814 0.08174831 0.082918964 0.046206165 -0.089850806 -0.050099198 0.0073029953 0.030815136
0.03290118 -0.045697022 -0.05183319 0.07864738 0.027964251 -0.1094701 -0.018747823 0.053197913
0.04983497 -0.051058643 -0.03398676 0.14054276 -0.0769847 -0.040084846 -0.11795528 -0.09236072
0.013042951 0.04671721 0.1020824 0.088060565 0.0007933427 0.045144286 -0.039582413 -0.02043762
-0.10062093 -0.0418528 0.024985645 0.10960911 0.05838667 -0.059218496 0.046422157 -0.047644943
-0.11302798 0.15287352 -0.07945534 0.093079984 -0.072267 -0.0923519 -0.17320879 0.087728925
-0.075719744 -0.07012849 0.08860577 0.09068498 -0.12843136 -0.06862392 -0.069423035 -0.094733626
-0.040972523 -0.0080592 0.0042010886 -0.0850974 -0.12450311 0.0258414 -0.10673562 -0.05442496
-0.0734483 0.051445555 0.06164975 0.07719859 0.034803018 -0.012110592 -0.083077654 0.08756153
-0.036114328 0.022706784 0.10669711 -0.047009833 -0.04743988 -0.002178585 0.03339355 0.018122155
-0.034549605 0.10571792 -0.04701432 0.03282779 -0.096908115 -0.033619575 -0.102619626 -0.018161613
0.09334651 0.052260954 -0.035187647 -0.07323247 0.09884445 0.032486804 -0.0010900946 -0.07014935
-0.09754697 0.10104241 0.03310581 0.011682531 -0.059892915 -0.06335536 -0.0007741601 -0.11462848
-0.036578685 -0.106978804 0.08522572 -0.072845265 -0.13140106 -0.050244395 -0.017311642 -0.08437698
-0.038612664 -0.0862348 -0.050448235 0.006602124 -0.019434983 -0.000692877 -0.12016284 -0.070087135
-0.030915096 0.0697749 0.040975295 0.1110477 -0.08553965 0.012858503 0.060740244 0.05628372
0.051333327 -0.060457475 0.02731471 -0.10503031 -0.08221247 -0.019473553 -0.051999092 -0.062048677
0.09472549 -0.032471694 0.0149467485 -0.022653198 0.019898437 0.0801159 -0.073917694 0.07786661
0.07797287 -0.0046456824 -0.06893142 0.06268719 -0.062204078 -0.011021463 -0.102839835 0.02875343
0.04300722 -0.04002256 0.04741503 -0.02718614 -0.033558186 0.040796377 -0.004386009 0.036436934
0.068066955 -0.014363797 -0.021002704 -0.16645479 -0.0051018014 -0.12980805 -0.031153636 0.015445662
-0.062588766 -0.11296438 -0.023216719 -0.09997565 0.055790387 -0.050173175 -0.081580535 -0.032023143
0.028099718 0.011853291 0.013707253 0.00054058735 -0.07061595 -0.11394627 -0.0008337028 0.06606199
0.15076144 0.0454544 0.07385741 0.093115814 -0.06938274 -0.021860808 0.09750841 0.07840612
-0.029686196 0.030754764 -0.017726302 0.06731937 0.019458957 0.05800136 0.10871342 -0.050298303
-0.031009616 -0.12391711 -0.018365752 0.0086287595 0.13190244 -0.0907556 -0.09900149 -0.058664843
-0.06453172 0.016340174 -0.016682733 0.13410641 0.068804294 -0.09483599 0.15026325 -0.1368207
0.016509825 -0.091100305 0.06276262 0.12919675 -0.15796238 0.0747001 -0.082415625 0.004205872
0.07875947 0.08946005 -0.07069371 0.08240405 0.06838456 -0.101229504 0.11017817 -0.095361255
-0.039881106 0.05135339 -0.07450123 0.1193347 0.05804001 -0.056506123 -0.09562423 -0.037186835
0.081894256 -0.052152555 -0.01462291 0.034827437 0.059783608 -0.038720526 -0.04318681 -0.059266243

weight_hh_l1 f4 [288, 72]
00000000: 6e2e f63d f27a 493d f0b7 dabd be59 97bd
00000010: 70fb f0bc 97fb 423d a7c4 96bd df64 103d
00000020: e78a e43c 560c 6bbc 317c aa3b d011 0bbd
00000030: 5c66 c8bc 784b db3c 92c2 f5bd 8875 c8bd
00000040: 838a aebd 7ba6 7e3d 334d cebd 8fd2 ebbd
00000050: b7d7 763d 6cc4 f33d ddb8 553d 225e 10bd
00000060: f473 9bbc 6f00 973b e224 e03d 8b33 95bc
00000070: 6b7e 583d 35c4 c03d 81b8 b1bd e7d3 9fbc
00000080: e661 b6bd 9cb8 c43d 9d42 cc3d 595e 693c
00000090: 656f 4c3d 0981 f73d 04a4 b93d 00b4 bfbd
000000a0: 5936 ae3d b16e ce3d e15e 903c 5ecd 953d
000000b0: 1db0 513d ea50 403c 153b 9bbc 7e59 0b3d
000000c0: a22b 923d a695 d0bc d4e7 ddbd ec9f 78bd
000000d0: 6ce7 2c3d a325 f6bd 64b2 683c 5276 de3c
000000e0: 1b71 dc3d ad63 32bd f8a7 0cbc 6895 f33c
000000f0: 5466 b53d 37e1 edbb 8557 62bd 67e8 cdbd
00000100: d462 903d b8b1 44bd ebd9 a4bd 23d0 7d3d
00000110: 4205 91bc 9e99 7d3d dfba 993a 71bb 243d
00000120: 95ac 4fbd 5bdc 35bc 0aaf 9fbd f014 b6bc
00000130: 6061 903d 552d babd d72b 803d 2a3b 0b3e
00000140: 639e aebd 6400 203c 554e 1ebd bafc 393d
00000150: 09c2 95bd f2a6 ac3d 44ff bc3d b2c1 a4bd
00000160: 5695 cbbc ae8a b5bd c155 a0bd c2a0 d0bd
00000170: 58e9 a5bd 8abd fa3d ce62 863c 8c87 e7bb
00000180: b0d6 30bd ce61 873d e640 e13d c917 adbd
00000190: 1590 8d3d 6548 d9bc 5996 623d 302d 303d
000001a0: 47e4 713c 0a48 72bd 465f 0dbe 1ba9 cebb
000001b0: 7823 b03d 0558 d63c 7e03 083e 197a 9a3d
000001c0: e0fd debd 325a a93d 44b9 9c3c e923 a5bc
000001d0: 02aa cd3d 79c2 bf3d a4e8 9d3d 1726 09be
000001e0: 1fd6 8e3d f76c 0ebe 8a28 0b3d fb1d 993d
000001f0: ad81 b1bc 86c4 07bd c10e 253c 1cda 5e3c
00000200: 6a5d 64bd 27c6 65bc 96a3 dbbd e65d fe3d
00000210: bf4a a1bd 7c57 9b3b cc54 aebd 9576 11bb
00000220: ac76 91bd df41 1f3d f283 b3bd b711 ee3d
00000230: cb9d 15bc 58cf 0d3e b763 cc3d 436f d93d
00000240: 051a 42bd 50d0 06bd 976d b5bd 490a e43c
00000250: 6a95 fabd 9a7a d93d e846 a8bc 720c d1bd
00000260: bfc4 afbd 1465 d4bd 5b83 0dbd c02c b13c
00000270: 339c b53c 640a 5abd 871e 9c3d f8c1 35bd
00000280: 59a3 96bd e679 cb3d e18e 25bd 2271 9abd
00000290: 4ce0 babd e79e 84bd 19c2 373d 5ba9 da3d
000002a0: e0d2 893c a15f 423d fbab ba3d ba3c abbd
000002b0: 83f7 933d c5ca 13bd ee8f 363d 1ea2 06bd
000002c0: f019 3d3d af75 163d aa1b bc3d 062d 0739
000002d0: d77d 97bc 8afb 803d 973c 97bd c4f5 edbd
000002e0: 5d64 e13c b26c b03d 8ade f9bd 152a aa3d
000002f0: 2d2e 41bd aff7 a5bd 5585 48bc e6af 8f3d
00000300: 8cc7 a7bb 462b 72bd c596 51ba 3e21 9b3d
00000310: dd87 bb3d 52b7 cbbd 5ab5 943d 1a91 4fbd
00000320: 0499 78bd 14a0 febd 32c6 133d f80d a2bd
00000330: 98af a4bc 46ba 6b3d 7dfd b6bd 6d9d 9dbd
00000340: c8ce 4c3d 11fe b0bd 7f2b 6e3d d5ef f83c
00000350: b497 b63d 8b8b 62bb 4762 c63d b16e caba
00000360: 3625 503d e25d 463d a900 22be b641 493d
00000370: 62ce 71bd a281 4a3c fb7c 13be 26d0 8f3c
00000380: 3092 3bbd 4367 623d 92ca 793d 6173 c13d
00000390: 57e7 453d c491 c5bc 2a82 743c 99ed ac3c
000003a0: 6938 c33d 64d8 6a3d 6b8c e03c 6dd3 aabd
000003b0: 8b3e f3bd aa25 0b3e 92a0 5f3d 74f8 d2bc
000003c0: 165d 063e 46f9 c5bc d87a bfbd 446f 393c
000003d0: 61af f1bd f595 f53d 1a37 af3d 039d 98bc
000003e0: 1c4a 80bd f811 0fbe 4a97 eb3b 0bd3 ec3d
000003f0: 3a33 b23d 0735 1f3e 4bc9 78bc 145f 923c
0.120205745 0.049189515 -0.106796145 -0.07390164 -0.02941677 0.047603216 -0.07361727 0.03525245
0.027898265 -0.014346203 0.005202793 -0.033952534 -0.024462871 0.026769385 -0.12000002 -0.09788042
-0.08522513 0.062170487 -0.10073318 -0.1151477 0.060264315 0.11902699 0.052178252 -0.035246022
-0.01897619 0.004608206 0.10944535 -0.018213054 0.052854937 0.094124235 -0.086777695 -0.019510223
-0.089053914 0.09605524 0.09973643 0.014243686 0.04991092 0.120851584 0.090644866 -0.09360504
0.0850646 0.100797065 0.017623367 0.07314561 0.051193345 0.011738041 -0.018949071 0.034020893
0.071372285 -0.025461983 -0.10835233 -0.06069939 0.04221289 -0.120188974 0.014202688 0.027156029
0.10763761 -0.04355209 -0.008584969 0.029734328 0.08857408 -0.0072595137 -0.055259246 -0.10054093
0.070501 -0.04802105 -0.08049377 0.061966073 -0.017702702 0.06191408 0.0011728666 0.04021782
-0.050701696 -0.0110999 -0.07797058 -0.02222678 0.07049823 -0.09090678 0.06258362 0.13596788
-0.085263036 0.009765718 -0.038648922 0.045407034 -0.073124 0.0843028 0.092283756 -0.08044757
-0.024851482 -0.08864342 -0.07828856 -0.10186912 -0.081011474 0.12243183 0.016404536 -0.007065719
-0.043173492 0.06610452 0.109987065 -0.08451802 0.06912247 -0.026523778 0.055319164 0.043011844
0.014763898 -0.059150733 -0.13805875 -0.00630678 0.08600515 0.026165018 0.13282582 0.075428195
-0.108882666 0.082691565 0.01913131 -0.020158725 0.10042192 0.093632646 0.07710388 -0.13393436
0.06974434 -0.13908754 0.033974208 0.074764214 -0.02166828 -0.033146404 0.010074318 0.013601806
-0.05575315 -0.014024294 -0.10724561 0.124202535 -0.07875585 0.0047406536 -0.085122675 -0.0022195925
-0.07102713 0.03888118 -0.08765401 0.116244726 -0.009131859 0.13848627 0.099799566 0.106169246
-0.047388095 -0.032913506 -0.08858793 0.027836936 -0.1223553 0.106190875 -0.020541623 -0.10207452
-0.08582448 -0.103708416 -0.0345491 0.021627784 0.022169208 -0.053232566 0.0762301 -0.044374436
-0.07355375 0.0993536 -0.040419463 -0.075411096 -0.091248125 -0.06475621 0.04486284 0.10676833
0.016824186 0.04745448 0.09114834 -0.08361192 0.072249435 -0.036082048 0.044570856 -0.03286945
0.046167314 0.036733326 0.09184964 0.00012891376 -0.018492622 0.06297977 -0.073846035 -0.11619142
0.027513677 0.08614482 -0.12200649 0.08308808 -0.047163177 -0.081038825 -0.01223882 0.07015972
-0.0051202234 -0.0591233 -0.00079951837 0.075747 0.09156773 -0.09947075 0.072611526 -0.05067549
-0.060692802 -0.12432876 0.036077686 -0.079128206 -0.02010326 0.05755069 -0.08935068 -0.07696042
0.05000189 -0.08642209 0.05814695 0.030387798 0.08915654 -0.0034568037 0.09686714 -0.0015444366
0.050816737 0.048429377 -0.15820564 0.049134932 -0.059034713 0.012360008 -0.14403145 0.017555308
-0.045793712 0.05527426 0.0609842 0.09445835 0.048316326 -0.024117358 0.014923612 0.02110939
0.09532244 0.057335272 0.027410707 -0.083411075 -0.118771635 0.13588586 0.05459649 -0.025753237
0.13121447 -0.024166714 -0.093496025 0.011318032 -0.11801029 0.11991493 0.08555432 -0.018629557
-0.06264135 -0.13971698 0.007189666 0.11563691 0.08701177 0.15547572 -0.015184711 0.017867602

bias_ih_l1 f4 [288]
00000000: dde8 c33d 271f 893c 029d 9bbd 5067 77bd
00000010: 3a53 f33a 57c7 0f3e 30db 2ebd 301b 113e
00000020: 36a7 8ebc 1f55 ee3d e309 b63d 4107 d83d
00000030: 6f04 c73d 7711 99bc 24f1 06bd e1fc 443e
00000040: a510 503d 1d42 833a 256b f83d f761 8f3c
00000050: 03a7 0b3c c356 2fbd 1f9c d33d f72b 903d
00000060: b98b 61bd 0f2c 0dbd c545 0d3e daad 53bd
00000070: 5f68 ef3c a409 823d 0d7e 3e3d 9b48 923d
00000080: 3800 9c3d 5aa9 bdbd 2e23 0e3e 3dc0 dcbd
00000090: 89aa afbc 6ce9 71bd 032a b33d b690 953d
000000a0: 2243 a23b 2b39 6b3b 5cd1 893d e492 223d
000000b0: a3f5 e1bc 5425 df3d 79d8 68bd 11b7 283d
000000c0: cf33 11bc 1667 0ebd e1fc 433e 7682 3bbd
000000d0: 917c 823d d84b 84bb 6c5b a33b 5595 d63d
000000e0: c7db 733d be5b b1bd 2afd ee3d 66f0 653d
000000f0: 338a 1b3e e16a ef3c 1906 a3bc 0c70 28bd
00000100: 1ea4 023e 0faa 68bd 3b1c 85bd fdd0 73bc
00000110: 98aa 3fbd ae20 683c 655f d33d 4743 ba3c
00000120: d8ec f4bd 7df8 02ba 92a2 f7bc b142 773c
00000130: 44cd 5e3d dfb4 823d d831 be3c 2b17 703d
00000140: 4880 f9bd 7bca 5d3c 2006 f8bd 3520 62bc
00000150: 8495 bb3c 355b 873d 2969 be3d 3b9e 823d
00000160: bb7d 7fbd 4be1 8abc aae2 16be b74b 82bd
00000170: 53b2 01be 42a9 8abd 16e1 c8bd 842f 1abd
00000180: fe4a ca3d 86d5 f7bd 17ab 263a 68fb 5fbc
00000190: b248 a83c d268 f8bd fd54 413d c403 9d3c
000001a0: dc80 1c3d 4a27 e93b 4347 b4bc 24df a0bd
000001b0: 1622 2dbd f8a8 c8bd 1dc6 c3bd bd0a 0cbe
000001c0: 4483 833d bc8f c0bd 835d 9dbd b59b f3bd
000001d0: 6c14 99bc 0869 b43c 45de 773d bc9d 473d
000001e0: 61d0 e93a ea43 d43b 4d76 76bd 10c2 7a3c
000001f0: 12bf 31bd b5b3 c9bd c51c 9f3c ab4a 8a3d
00000200: af81 b23d 42d9 38bd 0908 b43d 91e9 d8bd
00000210: 0504 c5bd 0e0c a9bd d4b3 b2bd 0751 c4bd
00000220: 2b00 203b 3877 edbd d61d 733d e767 a13d
00000230: e6e1 6abc 811a 0e3d d628 ebbd d556 b5bd
00000240: 75c3 7d3d d136 b4bd a8c2 6bbc df52 debd
00000250: 5323 5abb 1eac 93bb 2499 d7bd a580 d53d
00000260: 2882 7a3d 9800 86bd 67a3 8abd c458 713d
00000270: 1579 d73d e578 d93d b584 b83d 57e6 f13b
00000280: d0fd c13d 45e2 3ebd f08e 87bb ccd8 d6bd
00000290: daf2 8dbd 0d87 e53d e98e d93d fbfb cbbd
000002a0: 872e 8c3c 7958 d1bd 92cd 2e3d e4b0 a1bc
000002b0: 8bfd 8bbd 832c ab3d ffea 2ebc bef3 9cbd
000002c0: 3d23 93bd c189 8dbd 8400 1bbd e509 8e3d
000002d0: 3461 9cbc 1728 20bc 2ff6 4bbd dcb7 bcbc
000002e0: c543 473d 9a3a 093d 14a3 c2bd fac1 943c
000002f0: 25a8 2abd e644 7ebc fe54 26bd ba2d e63d
00000300: c22a d33d 8686 1f3d 2a65 63bb 3a58 05bc
00000310: 8892 843d 4da2 073d 6d20 763b faf9 4ebd
00000320: ca06 373c 54a5 c0bd ba97 fdbd 3dff e03d
00000330: 9434 b43d cbea e3bd 3004 ddbb 088f 8abd
00000340: 28a5 babc a818 073d 21ee 273d c9bd 21bc
00000350: 7a74 723d 164d c6bb a2c9 323d c1b5 c33d
00000360: 19bf d1bd 5d63 f53d 0216 903d 266b bb3d
00000370: 4489 5cbd 5318 823d 0fd5 3fbd 4329 6f3d
00000380: 56a6 ec3d b8aa a03d bb8d a43d 7aea 143e
00000390: 4432 20bd 98e9 763d 329c 023e 35d6 043e
000003a0: b004 e63d dc7a c73d a514 893d 61ff fc3b
000003b0: 5ad2 e6b9 0760 763d 3ff6 b9bd 70b3 1b3d
000003c0: 9fe5 bbbb cd75 88bd ba30 7c3e dde8 fa3d
000003d0: 1a19 18bd ca7b 0b3d d96f b63d b0f8 23bd
000003e0: 3b59 2ebd f684 7b3d 122a 133e 0c27 823c
000003f0: c528 033e 99f4 07bd a345 13bc ee68 5f3e
0.095658995 0.016738487 -0.07598306 -0.06040126 0.0018564232 0.14040886 -0.042689502 0.14170527
-0.017413717 0.11637329 0.088886045 0.105482586 0.097176425 -0.018685086 -0.032944813 0.1923709
0.050797123 0.001001421 0.12129811 0.017502768 0.008523705 -0.04280735 0.10332512 0.07039636
-0.05506489 -0.034465846 0.13796146 -0.05167947 0.029224573 0.06349495 0.04650693 0.07142755
0.07617229 -0.09260817 0.13880607 -0.10778854 -0.021443622 -0.0590605 0.087482475 0.07302992
0.0049518505 0.003589223 0.06729385 0.039690867 -0.027582949 0.10895792 -0.05684707 0.04119021
-0.00886245 -0.03476628 0.19139434 -0.045778714 0.063714154 -0.0040373616 0.0049852636 0.104777016
0.059535768 -0.086600766 0.11669381 0.056137465 0.15189438 0.029225769 -0.019900369 -0.04112248
0.12757918 -0.056802806 -0.06499525 -0.01488137 -0.04679355 0.014167948 0.103209294 0.022737158
-0.11959237 -0.0004996134 -0.030228887 0.015091584 0.054394975 0.06382155 0.023217127 0.058615845
-0.12182671 0.013537045 -0.12110543 -0.013801624 0.022898443 0.06609193 0.092974015 0.06377836
-0.062375765 -0.016953131 -0.14734903 -0.06362098 -0.12665682 -0.067705646 -0.09808557 -0.03764297
0.09877585 -0.12101273 0.0006357892 -0.01367078 0.020542476 -0.12129368 0.04720019 0.019166835
0.038208827 0.0071152793 -0.022006636 -0.07855061 -0.042268835 -0.09797853 -0.095592715 -0.13675971
0.06421521 -0.09402415 -0.076838516 -0.11894933 -0.018686496 0.022022739 0.060514707 0.04873441
0.0017838591 0.0064778225 -0.060171414 0.015305057 -0.04339511 -0.098487295 0.019422898 0.06752523
0.087161414 -0.04512907 0.08790595 -0.10591424 -0.09619907 -0.082542524 -0.08725706 -0.09585767
0.0024414163 -0.11595005 0.059354626 0.07881146 -0.014336085 0.034693245 -0.11482398 -0.088544525
0.06195398 -0.08799518 -0.014389671 -0.1085565 -0.0033285215 -0.004506602 -0.10527256 0.104249276
0.061159283 -0.06543082 -0.06769448 0.058922544 0.105211414 0.10618762 0.09009687 0.007382195
0.09472239 -0.046602506 -0.0041369125 -0.104905695 -0.06931086 0.112073995 0.10622961 -0.09960171
0.01711203 -0.10221953 0.042676516 -0.019737668 -0.06835469 0.08358099 -0.010676145 -0.07663678
-0.071844555 -0.0691104 -0.03784229 0.06935481 -0.019089319 -0.009775183 -0.049795326 -0.02303689
0.048648614 0.033503152 -0.09503761 0.018158901 -0.04166426 -0.015519356 -0.0406084 0.112391904
0.1031089 0.03894665 -0.003469775 -0.008138711 0.06473261 0.033113766 0.0037555948 -0.050531365
0.011171052 -0.09406534 -0.12382455 0.10986183 0.08799091 -0.111287676 -0.006744884 -0.06765562
-0.02278383 0.0329825 0.04099858 -0.009871908 0.059193112 -0.00605167 0.043649323 0.09556151
-0.10241527 0.11981843 0.07035448 0.09151296 -0.053841844 0.06352296 -0.046834048 0.05838896
0.115551636 0.07845062 0.080348454 0.1454257 -0.039110437 0.060281366 0.12754896 0.12972338
0.11231363 0.097402304 0.06693391 0.007720873 -0.00044025743 0.060150173 -0.09080171 0.03801292
-0.00573416 -0.06663094 0.24627963 0.122514464 -0.037133314 0.0340536 0.08908052 -0.04003209
-0.042565566 0.0614061 0.14371517 0.01588776 0.12808521 -0.03319225 -0.008988771 0.21817371

bias_hh_l1 f4 [288]
00000000: 8cc1 863d fc3c e8bc ccc1 943d 2919 b43d
00000010: 35c5 273e ba2e 253e 4cc7 943d 447d e53d
00000020: 94df 39ba dfe7 113e 815d 1b3e a8d7 f23d
00000030: bd9d d2bc 4ab3 333d ffa0 5cbd 7273 b63d
00000040: 3abf ec3d 09e5 ab3d 2077 0b3e e51e f13d
00000050: de73 2d3e 20d9 48bc 93a0 eb3d e509 4d3d
00000060: 00e9 b3bd 90bb e93d 4513 743e 9846 c4bd
00000070: 005b 2dbd e74d 71bc 90aa 983c ad0c 09bd
00000080: 2f98 083e c583 8abd ce2f 063d 89a8 b83d
00000090: fbc6 91bc bdae f03c dc8a 8cbc 3f1d 613e
000000a0: 1ac1 5abc c3e9 0f3d 9c8d 58bd b7c5 5e3e
000000b0: 9791 313c 19c0 1bbd a74e 97bd a55b a0bc
000000c0: e477 a7bc 5c64 5abd 6a2c 6d3d f994 efbc
000000d0: 206b 69bd 34ef 513d 9b65 033e 1158 e53c
000000e0: 0913 393d 0e32 1a3d c7de ffbc baeb dd3d
000000f0: e465 073e f233 923d e0e9 bd3d 8174 8b3d
00000100: 9518 98b9 bf4a 933c 4f94 003e 4b80 d5bc
00000110: e09f bcbd 20e4 023e 8135 0e3e 08af 133e
00000120: 5b37 e03d 0593 3cbd 2b5f dabc 1454 a4bd
00000130: 68df e0bd a111 a0bd dcea 873d c3c2 56bd
00000140: dcae 283c 3ed7 cdbc 94cd 163d 2a70 f33d
00000150: fe50 9fbb 2dfd cdbc bb2d e03d 4bb6 a2bc
00000160: 5887 053d 7cb1 783d e276 5cbb aa03 d1bb
00000170: 74ad d6bd ace2 8d3d e791 b2bd dcaf e23d
00000180: dee5 e03d cf48 20bd 0d8b d1bd be62 023d
00000190: c28b d5bc 0125 fcbd c1a9 82bd e917 19bd
000001a0: 76cf d6bd f773 e1bd 97dc c93c c6f7 dcbd
000001b0: c5e8 c0bd b146 c33d 6c9c 05bd 27e0 3ebd
000001c0: fc5c ecbd d65f f3bd 2587 7a3d ae42 ae3d
000001d0: 5064 683d 1849 c3bc e3d1 553c a766 753d
000001e0: 15da 273d a03e 6e3d 121c 0bbe 1ea4 8b3d
000001f0: 23d0 9b3d 3d31 53bd 84f4 a03c f984 8abd
00000200: 3e04 cc3d f606 0d3d a5fe 34bd 158e c0bd
00000210: a264 6bbd 8278 f83d 80c8 83bd bbcb 18bd
00000220: 32d5 2a3d ab01 113d 03ce b4bd 8520 7abd
00000230: 0017 1aba 29f3 183d 2e84 bb3d 2669 8e3d
00000240: e061 b4bd 9924 c03c c1e9 97bd 5e78 533d
00000250: 6b42 03bb 2c21 d8bd bda5 42bd 4da3 c33d
00000260: 2a15 263d ebcf 53bd 897b b1bb b20d bebc
00000270: 2e91 0f3d dafe f7b9 53b2 76bd cb23 4ebd
00000280: 2616 8f3b 15bb 4e3d e4f0 493c 1717 e83d
00000290: eb9a 693d dbc4 973d 9431 8bbc 3810 ee3a
000002a0: b168 a93d 9802 423d fa0d d7bd fdf7 13bd
000002b0: e10d b5bd 752f 413d febf 853c ad88 8fbc
000002c0: 09dd b2bd 001c cfbd aeac b7bd c73d b83d
000002d0: be7d babd 7497 a8bd b6a0 c43d 0b88 673d
000002e0: eac9 b2bd ad45 aa3c 838c 4d3d 0cf0 10bc
000002f0: 4a02 b73d 93ff bfbb 9923 8b3a 753d e2bd
00000300: cc26 ecbd 9aa2 8fbd 7ed0 bdbd e0cd 82bd
00000310: 4657 963c 3d47 6dbd 333c e8bc 5a7b d3bd
00000320: b167 013d e68b fdbc ead3 5a3b 5e36 8cbd
00000330: db79 89bd 0f49 4cbd 07db a5bd 3b14 733d
00000340: 53fc fe3c 6d93 a33d 149e dcbd 0166 c23d
00000350: aa3e acbd 35cc 983d 3f1d a6bd b022 b9bd
00000360: d0eb 883d 3ca9 7bbc 8f59 aa3d 7cab 943c
00000370: c61f 223e 32b5 ed3c 7b96 173a 0615 f13d
00000380: abc6 983d 9bde 6bbc d95f 00bc ee09 fb3d
00000390: e9b2 863d f940 ccbb a57e 00bd fd41 303e
000003a0: f195 9cbd d857 80bc dbf1 9d3d 9f5b dd3c
000003b0: e76f 30bb 6453 c4bb 7ce3 043e dbb1 c43d
000003c0: d39b 9d3b 3e2f 0d3e 3657 eb3d ffc6 973d
000003d0: 4526 04bd c1a9 123e 0605 0e3d f8b9 5b3d
000003e0: b657 78bd 1af3 7b3c f0d8 93bd 0248 60bd
000003f0: 0cbf 97bd 751e 0cbd 2e39 8e3d 36b9 c33d
0.06579885 -0.028349392 0.07263526 0.087938614 0.16383822 0.16131106 0.07264575 0.11205533
-0.00070905057 0.14248608 0.15172388 0.118575394 -0.025709981 0.043872155 -0.053864475 0.08908738
0.11559911 0.08393294 0.13619661 0.11773471 0.16938731 -0.012258798 0.115052365 0.050058264
-0.087846756 0.11412728 0.23835476 -0.09583777 -0.042323112 -0.014728046 0.018636018 -0.033459354
0.13339303 -0.06763414 0.032760434 0.090165205 -0.017795077 0.029380197 -0.017156057 0.21983813
-0.013351703 0.035135042 -0.052869424 0.2175511 0.010837934 -0.038024995 -0.073880486 -0.01957495
-0.02044291 -0.053318366 0.057903685 -0.02924584 -0.056986928 0.051253513 0.12831728 0.027996095
0.04518417 0.037645392 -0.031234158 0.10835977 0.13222462 0.07138814 0.09273124 0.06809331
-0.00029010014 0.017979978 0.12556575 -0.026062151 -0.09210181 0.12782335 0.13887598 0.14422238
0.10948058 -0.046038646 -0.026656708 -0.08023849 -0.10980111 -0.078158624 0.06636593 -0.052431833
0.010295596 -0.02512705 0.03681715 0.11886628 -0.00486195 -0.025145138 0.109462224 -0.019862315
0.032599777 0.060716137 -0.0033640196 -0.0063786106 -0.10482302 0.06928 -0.08719235 0.11068699
0.10981344 -0.039131936 -0.102316 0.03183245 -0.026067618 -0.123117454 -0.06380034 -0.037376318
-0.10488789 -0.11008447 0.024641318 -0.107894465 -0.09419397 0.09534968 -0.03261988 -0.046600487
-0.11541173 -0.11883514 0.06116404 0.08508812 0.05673629 -0.023838565 0.013050529 0.05991235
0.040979464 0.058165193 -0.13584927 0.06818412 0.07608058 -0.05156063 0.019647844 -0.06763644
0.09961747 0.034430467 -0.04418816 -0.094021 -0.057469018 0.1213236 -0.06434727 -0.037303668
0.041707225 0.03540198 -0.08828356 -0.06106617 -0.0005878061 0.03734127 0.09156071 0.06953649
-0.08807731 0.023454951 -0.07417632 0.051628463 -0.0020028602 -0.10553202 -0.04752134 0.095526315
0.040547527 -0.051711958 -0.005416338 -0.02319989 0.035050564 -0.0004730139 -0.060228657 -0.050327104
0.004366654 0.050471384 0.012325499 0.11332529 0.057032507 0.07410594 -0.016991414 0.0018162793
0.082719214 0.047365755 -0.10500713 -0.036125172 -0.08840538 0.0471644 0.0163269 -0.017521227
-0.08733565 -0.101127625 -0.08968483 0.08996158 -0.09106015 -0.082320124 0.09600966 0.056526225
-0.08729918 0.020785177 0.05018283 -0.008846294 0.089359835 -0.0058593242 0.0010615467 -0.11046878
-0.115308374 -0.07013436 -0.09268282 -0.06386924 0.018352162 -0.057929266 -0.028349018 -0.10326262
0.03159303 -0.030950498 0.003339047 -0.06846307 -0.06712695 -0.04987436 -0.08098417 0.059345465
0.031126177 0.079871036 -0.107723385 0.09492112 -0.0841039 0.074608244 -0.08111047 -0.09039819
0.06685603 -0.015360173 0.08317863 0.018148176 0.15832433 0.029017065 0.0005782616 0.11771588
0.07459768 -0.014396335 -0.007835352 0.12257753 0.06577093 -0.0062333313 -0.031370778 0.17212673
-0.076457866 -0.015666887 0.07712146 0.027021227 -0.0026922168 -0.0059913862 0.12977403 0.09604236
0.0048098355 0.13787553 0.114912435 0.07411002 -0.03226306 0.14322568 0.03467276 0.05364415
-0.060630523 0.015377784 -0.07219112 -0.054756172 -0.07409486 -0.034208734 0.069445 0.095568106
